DDPG/actor_save.pth (torch, 490711 bytes, 5 tensors)

fc1.weight f4 [400, 3]
00000000: 9cb3 b9bc d6a0 3d3d 3238 e83b 7a3c 893c
00000010: 12cf e13c 309e 81bc ecc0 d33c 7102 39bc
00000020: bc61 0a3d b424 b1ba 08c7 debc 03ab f43c
00000030: ab4b 10bd e6d6 103d 0a7a 84bc a0b0 a93c
00000040: e567 ee3b cd25 11bd df94 afbc 56c2 0e3c
00000050: e8b8 563d c59d 9d3c b05a 66bd f616 7cbd
00000060: 7b01 40bd 4b6f 46bd 0d3a 463d d6f9 0c3c
00000070: cc35 9dbc 0f3d b83b dd92 4bbc 433f 0cbd
00000080: 199c 51bd 5a8b 81bd 63d4 173c a785 7fbd
00000090: fb70 3b3d 0aad 993c 005c 0e3b a210 bf3c
000000a0: e968 0d3d d336 323d a281 e43c c058 bd3b
000000b0: e07c adbc 9165 21bd 3503 5dbd bc74 d6bb
000000c0: 558a 86bd 7721 2cbd 4839 9e3c ca54 e43c
000000d0: f80b 183d 05bc 973d b8f3 1b3d 1435 5d3d
000000e0: 4e8b a73c e17f 2b3d ed4e e5bc 2cdf 2f3c
000000f0: 1478 08bd ec9e 343d 1cd8 67bd 5685 3b3c
00000100: e73f 743d ec69 773d 95a4 b1bc 05b9 4fbd
00000110: 124f 083d 307a c0bc db0e 903c 6657 253d
00000120: a8ec 5bbc 19fa 2f3d 191a 093d a296 37bd
00000130: c88a 223d 8262 3c3c 324b c13c 1857 283c
00000140: 1f5d 4a3d ce28 7bbd 4745 133d ee20 48b8
00000150: de35 8eb6 f0a3 9ebb 6555 1ebd fa8a 29bd
00000160: 87de 40bd 4f1d e93c 426e bd3c e907 413d
00000170: 22c6 be3c 3e92 d0bc 9881 39bd 8f9b 61bc
00000180: 9ee1 2bbd fe43 9abc 12a5 563c 446b 6abd
00000190: 6d63 e13c 222a 393d 3f17 62bc 98de 73bc
000001a0: 9b70 ce3c 6c66 58bc 83ab 42bd 8bb5 04bd
000001b0: 434d 8cbd 4be8 33bd b0c1 54bd 8f83 a43b
000001c0: 0bea 4e3c 6204 613c f9f1 a6bc b827 c83c
000001d0: 9f56 87bd 5725 153d 20ff 3abd 72d9 d63c
000001e0: 219f b03c 8b21 8f3d 1ba2 f3bc 7d3f 85bd
000001f0: 3c26 fe3c 88a8 883d 7ea5 86bd f5e8 bebb
00000200: 8172 0ebd a206 323c 5a02 00bd 8123 1f3d
00000210: 0ab7 7d3c 9e73 1a3b 7006 9fbc b067 e23b
00000220: 7499 633c d2ff c83c b515 debc b810 22bd
00000230: 588b 47bd 1701 b8bb cf26 8c3d bfd5 573d
00000240: fe20 ef3c ca2a e83c ec34 3cbc 438e 25bd
00000250: f302 953c 7462 5bbd fff6 ce3c 4f6e 0b3d
00000260: e475 273d 5f77 083d e2b8 24bc ff5e 3ebd
00000270: acdd 24bd 9125 0bbd 2278 9bbd 4d59 4fbd
00000280: d9e6 febc b4ea 833d 6a8d b7bc 1fc0 dcbc
00000290: 4dc9 8d3d 4339 8cbd 5895 8bbd d33f 57bd
000002a0: c9ce 283d 900c b2bb bd5b a4bc 0034 e6b8
000002b0: 00a6 9cba b04a a7bb 1d87 ba3c 4516 70bd
000002c0: cc7c 59bd de64 fdbc 680f 4ebd b8bd 80bc
000002d0: 5d4c e9bc 005c f3bb 1e2e 8c3c a5a9 1f3d
000002e0: b1ab eebb 3033 23bd 89ce 68bd fe74 af3c
000002f0: f199 57bd acbc 87bd 527d 82ba d6f2 303d
00000300: d005 a7bc 5bc4 283d dac1 943c 79a8 b73b
00000310: 00d3 3c3c 75ca 0e3c 4243 a03c 108c f63b
00000320: a48a 5b3c ce63 dc3c c0ac 5e3a e148 223d
00000330: 40c5 7fba bd7f 1abd 6d38 3cbd 9db0 29bd
00000340: 0287 7dbd 8577 6cbd ad47 b53c 757d 6b3c
00000350: 76fd 31bd 0ecc 4e3c 644f a03b 6f12 a13d
00000360: 303f 363b 77c8 eebc 878b 503d 06a4 7dbd
00000370: 0344 683c 8ff0 923d 36b5 41bc afe4 54bd
00000380: f27c a9bc 8716 033c 3e6c 173d 8acf d63b
00000390: d0ff dbba 2135 7a3c 8467 2fbd d9f1 09bc
000003a0: b4ea 723c 3464 2ebd 6a98 963b b505 92bd
000003b0: 5744 9bbd 296c 07bc 0bc4 3bbd a89f 46bb
000003c0: 312a 08bd 580d babc 1f0a c9bc 925d 78bd
000003d0: fbb6 03bc 1208 4a3d 58de 78bd 40f7 0f3d
000003e0: 1165 83bd 644a e2bc afcb bcbc ac8b 083a
000003f0: 847d 60bd d13d a8bc 2353 703d b6e5 c5bc
-0.022668652 0.046295963 0.007086777 0.01675247 0.02756456 -0.0158225 0.025848828 -0.011292086
0.033784613 -0.0013514967 -0.027194515 0.029866701 -0.035228413 0.035361193 -0.016171474 0.020714104
0.007275569 -0.03543644 -0.021433292 0.0087133255 0.052422434 0.01924027 -0.05623883 -0.061545335
-0.046876412 -0.04844598 0.048395205 0.008604487 -0.019190691 0.005622513 -0.012425152 -0.03424002
-0.051174257 -0.06325407 0.0092669455 -0.06238332 0.045762043 0.01875927 0.0021722317 0.02332336
0.03452388 0.043509316 0.027893845 0.005778402 -0.02117771 -0.039403502 -0.053958137 -0.0065446775
-0.065693535 -0.042024102 0.019314423 0.027872462 0.03712079 0.07408909 0.038074225 0.054005697
0.020452168 0.04187 -0.027991736 0.010734361 -0.03331764 0.044096872 -0.056602582 0.011445364
0.059631255 0.06040375 -0.021684924 -0.050713558 0.033278532 -0.023495764 0.017585209 0.040366553
-0.013423122 0.04296312 0.033472154 -0.04482139 0.039683133 0.0114980955 0.023595426 0.010274671
0.049405213 -0.06131821 0.03595474 -4.7714384e-05 -4.2382007e-06 -0.00484132 -0.038655657 -0.041392304
-0.04708722 0.028456358 0.023123864 0.047126684 0.023287836 -0.025460359 -0.045289606 -0.013769998
-0.041963212 -0.01883125 0.013100879 -0.057231203 0.02751323 0.045206197 -0.013799488 -0.014884613
0.025200179 -0.013208013 -0.047526848 -0.032399695 -0.06850674 -0.043922704 -0.051942527 0.005020566
0.012629042 0.013733955 -0.020379053 0.024433002 -0.066083185 0.036412563 -0.045653462 0.026226733
0.021560254 0.0698882 -0.029740384 -0.0650625 0.031024091 0.0667277 -0.06574534 -0.0058261105
-0.03477717 0.010865839 -0.031252243 0.03885222 0.015485534 0.0023567448 -0.01941225 0.006909333
0.013891567 0.024536047 -0.02710996 -0.039566725 -0.048716873 -0.0056153643 0.0684334 0.05269408
0.029190537 0.028340716 -0.011487227 -0.040418874 0.018189883 -0.05356069 0.025264261 0.034040745
0.040883914 0.033316966 -0.010053845 -0.046477314 -0.040250465 -0.033971373 -0.07591273 -0.050622273
-0.031115936 0.064412504 -0.022406299 -0.02694708 0.06923161 -0.06846859 -0.068155944 -0.052551102
0.04121283 -0.0054336265 -0.020063275 -0.000109769404 -0.0011951327 -0.005105339 0.022769505 -0.058614988
-0.05309753 -0.030931886 -0.05030766 -0.015715465 -0.028478796 -0.0074267387 0.017111834 0.038980145
-0.007283651 -0.039843738 -0.056837592 0.02141809 -0.052637044 -0.06627783 -0.0009955561 0.043200336
-0.020388514 0.041202884 0.018158842 0.0056048003 0.011524916 0.008715262 0.019563321 0.007524021
0.013399754 0.02690306 0.00084943697 0.039620284 -0.00097568706 -0.037719477 -0.04595225 -0.041428197
-0.06189633 -0.05773117 0.022128904 0.014373173 -0.04345461 0.012621893 0.0048922766 0.07864844
0.0027808659 -0.029148323 0.050914314 -0.061924003 0.0141763715 0.07174789 -0.011822989 -0.051975902
-0.020689461 0.008000976 0.036968462 0.0065555023 -0.0016784612 0.015271456 -0.04282333 -0.008419477
0.014826465 -0.04257603 0.004595806 -0.07129995 -0.07581394 -0.0082655335 -0.045841258 -0.0030307565
-0.03324336 -0.02271144 -0.024540959 -0.06063611 -0.008039231 0.049324103 -0.06075892 0.035147905
-0.06415761 -0.027623363 -0.023046343 0.0005208801 -0.0548072 -0.020537289 0.058673035 -0.024157386

fc1.bias f4 [400]
00000000: d10b d3bd fc88 1fbe 30ed 69be 95e9 6d3e
00000010: 8510 0f3f ebe7 3f3e 84ec dc3d 31af 883e
00000020: 23ec c4bb ae03 013e c578 14bd 2cd2 393e
00000030: fa37 e8be d7ad f6be 416d 09bf c41b f83d
00000040: 3e1a d33e 968f 983e 8cc1 a53d 0cb5 a8bd
00000050: 13db 3d3e eb11 a7bd 09d8 853e ebe6 c63e
00000060: 6d69 acbe 9cd3 0f3f fe06 b6be 413e 183f
00000070: e9e3 b23e 2c28 dd3e 15ed 0dbf 5066 1ebe
00000080: ec8f 053f f84e 183f b70f fc3e 7269 843d
00000090: 42f5 25bd 44f3 803e 0747 663e bd97 f6bd
000000a0: 0a51 6b3d 860d 75be 435a 983e 0823 df3c
000000b0: e00a 10be e039 01bf 2010 2cbe 07d3 3ebd
000000c0: 5382 adbe 32c7 eabd 3a14 083f 5f7a 063e
000000d0: e579 68be b8e7 6fbd 57da a63d eec3 09be
000000e0: 7e45 46be 2ad0 70be 9ed1 253d e9ac 143f
000000f0: 9868 4cbe 617d 92be e0d9 93bd 8e11 cbbd
00000100: 8c06 13bf bc83 0d3f 38e0 0bbe 6224 f3be
00000110: 085a 0cbf 6ded 583e f7a7 b63d 1e38 7cbe
00000120: 4026 0d3e ba4e 9f3d 88ce fb3e 8315 003e
00000130: 1341 813e 8225 2bbe 395c 58be 88b8 0d3f
00000140: 206c 613e 4eb7 4dbb 4c18 49be 2e85 123f
00000150: 09cb 113e 1667 76bd a54f f9be e3e1 d4be
00000160: 1cc3 0d3e 54bf f1be 5982 cebe 9e51 83be
00000170: 63c8 863e c298 21be e30f 0cbf 78f5 db3e
00000180: 1dee d9be 0bf8 003f 0ab8 0e3f be9e a3be
00000190: 44fe 903e 9022 0cbe 1921 103f 882e e3be
000001a0: 94cb 693e 8e17 98be a306 10bf 50bc edbe
000001b0: 404d b43d bca6 0b3f b140 8e3e 7e2a 763e
000001c0: 647d 05bf 2d15 e43e dacb 103e 18ad 863e
000001d0: e5cc ab3d d999 543e b8cc dfbd 4a68 eebe
000001e0: 6724 343e ddf6 31be 77db 73bd a049 cf3d
000001f0: 2550 9cbe 10b1 143f 9ecd 013f 6ac5 31be
00000200: d939 ab3e 68a9 813d ba56 433e 4a99 9f3e
00000210: c4ad 0fbe 7f87 12bf 7697 63be 433d 0e3f
00000220: 1ec0 babe 70a5 ae3e 1a59 09bf ae2b c9be
00000230: 7319 eb3e cbf2 113f 2e4c dd3e 545b 07bf
00000240: d4f5 123f f093 bebe f1a6 ebbe 739d 1fbc
00000250: 808b 1c3e a766 963e fccf c2be e257 2ebe
00000260: 9117 c3be aa94 ff3e 7abc 803e 5521 b73e
00000270: 6a5d 113f 7fdc f23e cfd6 063e 5592 143e
00000280: a2e0 e1be a01e d3bd 4322 f03d 2634 993d
00000290: 2d00 293e aaad d5bd e02c f4be b85b ea3e
000002a0: 9ffb c23e b75a 0f3f c727 7e3e 1347 e0be
000002b0: 5111 ec3d 7081 033f e12d a1be a4ff 53bd
000002c0: 1f59 02bf 7005 d7be 5869 f4be cea8 e03e
000002d0: 2bbc f33e c970 f13e 1088 b43e d07e d4bd
000002e0: a874 0c3e 3a6c f2be cdf0 4c3e 4bdf 673e
000002f0: 9e5a f13d 2e92 82be 5cc1 eebd 8f09 103f
00000300: bee3 bebd a0b7 613e a489 153c 36bc 273e
00000310: 785c e4be 63f3 bf3e 4cef f43e d0f7 91be
00000320: b69e 87bc d440 153f 62c1 6cbe 365c 733e
00000330: 8464 8c3e f8dd b6be 20dd e93e 5bd3 913d
00000340: 69e4 ed3e fb1d de3e bcbf 96be 564b bcbe
00000350: 6ea4 83be d980 fdbe 78ef 06be 3ff2 273e
00000360: 8a0c 37bd 2373 f13e 9a50 b73c ff1a 093f
00000370: f5c4 b8bc 6708 a83e cee3 0e3d 2633 acbe
00000380: a62d 33be a568 a6be f21a 033f f576 033f
00000390: e7f2 d8be ed52 f7be 6e69 e5be d1e7 7aba
000003a0: d1ef 0cbf a227 4abe 066f fcbe 1c8a 5cbe
000003b0: 4757 d83e f1e0 853e dd21 c5bd 7081 e4be
000003c0: 2b17 3e3e 7bec 303e 59d3 10bd d6a0 e3be
000003d0: bc3d aabe 70da de3e 8481 0cbf e933 a33e
000003e0: b420 8abe fc5d 9dbe d251 0c3f 438d ccbe
000003f0: d531 173f 37a4 9dbe 5232 a9bd af8f c83e
-0.10304988 -0.15579599 -0.22844386 0.23233636 0.5588458 0.18740813 0.10787299 0.2669616
-0.006009595 0.1259906 -0.036247987 0.1814658 -0.45355207 -0.48179504 -0.53682333 0.12114671
0.4123096 0.29797047 0.08093557 -0.08237657 0.18540601 -0.081577145 0.26141384 0.3884805
-0.33674183 0.56182265 -0.3555221 0.5946999 0.34939507 0.4319471 -0.55439883 -0.15468717
0.5217273 0.59495497 0.4923074 0.064654246 -0.0405171 0.25185597 0.22488032 -0.120406605
0.05745033 -0.2393094 0.29756364 0.027238384 -0.14066648 -0.50478935 -0.16803026 -0.04658797
-0.33888492 -0.11463775 0.53155863 0.13132618 -0.22702749 -0.058570594 0.08147114 -0.13453647
-0.19362447 -0.23516908 0.04048311 0.5807634 -0.19961774 -0.28611282 -0.07219291 -0.09915458
-0.57431865 0.55279136 -0.13659751 -0.47488695 -0.54824877 0.21184321 0.089187555 -0.24630782
0.13784122 0.07778688 0.49181008 0.12508206 0.2524496 -0.16713527 -0.2112893 0.553597
0.22013903 -0.0031389776 -0.19638175 0.57234466 0.14237608 -0.060156904 -0.48693576 -0.41578588
0.1384396 -0.47216284 -0.40333822 -0.25648206 0.26324758 -0.15780929 -0.5471174 0.42960715
-0.4256448 0.50378484 0.5574957 -0.31957048 0.2831899 -0.1368506 0.56300503 -0.44371438
0.22831565 -0.2970547 -0.56260127 -0.46432734 0.08803797 0.5455129 0.2778373 0.24039647
-0.52144456 0.44547406 0.14140263 0.26303935 0.0838869 0.20761813 -0.10927719 -0.4656394
0.17592011 -0.17379327 -0.05953547 0.10121465 -0.30529895 0.58082676 0.5070437 -0.17360464
0.33442572 0.0633114 0.19076052 0.31171638 -0.1403113 -0.57238 -0.22225747 0.5556223
-0.364747 0.34110594 -0.53651583 -0.39291137 0.45917854 0.570111 0.43222183 -0.5287373
0.57406354 -0.37222242 -0.46025804 -0.009742129 0.1528759 0.29375193 -0.38049304 -0.17025712
-0.38103917 0.4991811 0.25143796 0.35767618 0.56783164 0.4743385 0.1316788 0.14508946
-0.44116694 -0.10308576 0.11725285 0.0748065 0.16503973 -0.104335144 -0.47690487 0.457731
0.38082597 0.55997795 0.24819861 -0.43804225 0.1152674 0.5136938 -0.31480315 -0.05175747
-0.5091724 -0.41996336 -0.4773662 0.43878788 0.47604498 0.4715636 0.35260057 -0.1037575
0.13716376 -0.47348195 0.20013733 0.22643773 0.11784862 -0.2550215 -0.11657974 0.56264585
-0.09320782 0.22042704 0.009127054 0.1638039 -0.44601798 0.37490377 0.4783882 -0.28509378
-0.016555171 0.58302045 -0.23120645 0.23765644 0.27420437 -0.35716224 0.45676517 0.07120391
0.46463326 0.43382248 -0.29443157 -0.36776227 -0.25711387 -0.49512365 -0.13177288 0.16401003
-0.044689693 0.47158155 0.022377301 0.5355682 -0.022554854 0.3281891 0.03488522 -0.33632773
-0.17497882 -0.32501712 0.5121299 0.5135339 -0.4237282 -0.48305455 -0.44807 -0.00095712865
-0.5505343 -0.19741681 -0.49303454 -0.2153706 0.42254087 0.2614818 -0.096255995 -0.44630003
0.18563525 0.1727771 -0.035357807 -0.44458646 -0.33250225 0.4352603 -0.54885125 0.31875542
-0.26978076 -0.30735767 0.5481235 -0.39951524 0.5906041 -0.30789348 -0.08261551 0.39172122

fc2.weight f4 [300, 400]
00000000: b06f 4c3c a4da a0bc 8cc2 463d bf07 d83c
00000010: b5a1 c5bc 7739 e53c dc14 633d aa40 573c
00000020: a69a 3d3c 7ca2 9dbc 8e8c 54bd 6de3 3ebd
00000030: 7222 1c3d 86c1 1a3d 167c 5c3d b714 37bd
00000040: ba7c 6fbc 8f50 f4bc 9941 c1bc b04a 043b
00000050: 09b4 60bd 999f 863c 6471 543c 8c9f 083d
00000060: 5474 c73c ef9e 6abd a651 3abd e9d0 303d
00000070: 1691 b33c 6fd8 20bd 2423 33bd 101e ef3c
00000080: 6a1e 283d d9e2 fbbb e604 9d3c 68c6 073d
00000090: c2d5 1cbd a3ef 2a3d c410 3f3d 04ac abbc
000000a0: d215 213d 5c04 c33c ac04 92bc 8920 243d
000000b0: b295 2bbd d840 023d 536e 8cbc 0a0d 93bc
000000c0: d048 a63c 73f0 f1ba d1ae 30bd f7a5 473d
000000d0: 1365 a23c 2c29 a03c c683 1bbd a35d c5bc
000000e0: 10bb b83b 181a 053d e88e 1f3d b65f 24bd
000000f0: 3a08 333d 10e2 b93c 41d5 53bd 75cc 3abd
00000100: 4187 1fbd 2317 64bd 685b c2bb 3813 b6bb
00000110: faa6 42bd 6b18 d33c 709b ca3c 0466 68bc
00000120: 659d 36bd e8e2 1dbd 932d 19bd ee4e f8bc
00000130: 0eb3 cf3c 487f 4fbd 01a7 1dbd db93 fc3a
00000140: 98ce cb3a 8b78 be3c ad99 46bd 9770 05bd
00000150: e6e5 253d 2e1b f7bc f87a 6e3c b064 3ebc
00000160: bdb5 be3c 79a6 31bd d0b1 ff3c 4057 c4ba
00000170: 2d88 ad3c b92a 543d 70c0 2ebd 1a00 94bc
00000180: 900a cc3c 2152 c03b 2832 fd3c 7098 583c
00000190: 4936 373d 92d7 a83c a4a4 3bbd 5609 5b3d
000001a0: d1bf 3d3d c6d4 253d ea1e 243d 70a4 e33b
000001b0: dd85 1cbd e661 043d 018f 75bd 9fa5 433d
000001c0: 075b 5dbd a6a5 083d 8484 44bd 730b 423d
000001d0: ba17 2ebd 3abc 4fbd 023e 35bd 6cd1 3c3d
000001e0: befc 603d 0842 6f3c e05f 4bbd 5325 513d
000001f0: 244d d63c 15e5 ce3c ec64 053d d428 943b
00000200: 49ba 333d 709c 97bc e120 01bd 52f3 1cbd
00000210: e88a 553c 3bee 0bbd 80ee 3e3c 8cff 25bd
00000220: acf8 20bd 939a aa3a 3846 1bbc 70b8 0e3c
00000230: 7ad2 9dbc 9450 0dbd 85c8 f6bb 0cb8 64bd
00000240: 017d 27bd fdc4 5fbd d8ee 0cbd fc20 91bb
00000250: b6cb 853c a37d 803b 5a01 253d da59 0ebd
00000260: e007 693c 64cc debc bd83 d03c 0f00 4bbd
00000270: 0d62 1fbc 9d68 db3b 5b31 c8bc e200 bd3c
00000280: d880 613c f889 96bc c0e1 fc3c d588 06bd
00000290: dae9 41bc dbf9 03bd 7812 dfbb cfad 73ba
000002a0: fcbc 6bbd d496 6dbd 36c9 35bd 804b 2a3b
000002b0: 43fd 933b 889e 0cbd 60f2 8dba c0f5 103d
000002c0: 2c59 e03c 9ad4 2a3d 440b 08bc 277d 9c3c
000002d0: 7917 373d b40b 133d 7f9f 8c3b 3182 16bd
000002e0: 0014 f8bb 92f6 a6bc cfab 74bd 54bd 0c3d
000002f0: 36c4 45bd e41f 68bc d20a 1dbd 5fbc 48bd
00000300: 58ad 7e3c c7dd 4abc 76a3 8ebb e926 943c
00000310: 1095 3f3c bd11 f03c 5a13 04bd 4acd 6bbd
00000320: 7c98 30bd fab6 ec3b ca9a 2bbd 4720 e6bc
00000330: e547 fb3b 6415 2cbc 8e2f 23bd e673 57bc
00000340: 5ea8 2dbd 7530 553d 8060 c13c aa8f adbc
00000350: 16ca 19bd f6aa 583d 6c3e 28ba a9c6 fc3c
00000360: 0d82 39bd 4b99 9bbc 3e92 013d 5bb4 8a3a
00000370: 4dcf 43bc b60d 67bd dc4d 0abb 4c9f 1dbc
00000380: a113 423d b0ba f13c 3c9e 5b3d 2a0d 443d
00000390: fc77 ce3c 4e50 153d 28df 823c 475b afb8
000003a0: 60a3 533d 70b3 02bb 003b c43a 4076 db3c
000003b0: 4f75 d43a 84c7 9d3c 5906 c63c dc4a 243d
000003c0: 11d6 e13c 461f 1abd 14c4 02bd 6c24 1c3d
000003d0: 4498 563d 91b7 68bc 2873 2b3c 5732 1a3d
000003e0: 48db 533d 102b b2bc 3663 5ebd 9c84 543d
000003f0: 9afa 543d 1252 343d 8946 1d3d dcf2 03bd
0.0124778 -0.019635506 0.048525378 0.026370881 -0.02412496 0.027981503 0.055439815 0.013137976
0.011572516 -0.019242518 -0.051891856 -0.04660361 0.038118787 0.037782215 0.053829275 -0.04469749
-0.0146171395 -0.02982357 -0.02359085 0.0020186119 -0.054859195 0.016433524 0.012966488 0.03335528
0.024347462 -0.057280477 -0.045488022 0.043167982 0.021919768 -0.039268907 -0.043734685 0.02918914
0.04104463 -0.0076869545 0.019167375 0.0331482 -0.038289793 0.04173244 0.04664685 -0.020956047
0.03932745 0.02380579 -0.017824493 0.04007009 -0.041890807 0.03180012 -0.01714245 -0.017950553
0.020298392 -0.00184585 -0.043135468 0.04874226 0.019823587 0.019550882 -0.037967466 -0.024092501
0.005637534 0.032495588 0.038954645 -0.04013034 0.043709017 0.022690803 -0.051717047 -0.04560514
-0.038947348 -0.055686127 -0.0059313066 -0.0055564903 -0.047522523 0.02576848 0.024732322 -0.014184479
-0.044583697 -0.038546473 -0.03739698 -0.030311074 0.025353935 -0.050658494 -0.038489345 0.0019270139
0.0015549241 0.023250839 -0.0484864 -0.032578077 0.04050245 -0.030164327 0.014555685 -0.011620685
0.023280019 -0.04337165 0.031212717 -0.0014979616 0.021183098 0.051798556 -0.04266399 -0.018066455
0.02490738 0.0058691655 0.030907705 0.013219938 0.044729505 0.020610604 -0.04581131 0.0534757
0.04632551 0.04048612 0.040068544 0.0069470927 -0.0382136 0.032319926 -0.059950832 0.04776537
-0.05404189 0.0333611 -0.04797794 0.0473742 -0.042503096 -0.050716616 -0.04424859 0.046098158
0.054928534 0.014603145 -0.04965198 0.051060986 0.02615983 0.02525572 0.03256695 0.0045214687
0.043878827 -0.018507212 -0.031525496 -0.038317986 0.013033606 -0.03416274 0.0116535425 -0.04052691
-0.039299652 0.0013016037 -0.009477191 0.0087109655 -0.019265402 -0.034500673 -0.007531228 -0.055839583
-0.040890697 -0.054631222 -0.034407467 -0.004428981 0.016332489 0.003921227 0.040284492 -0.034753658
0.014223069 -0.02719707 0.025453443 -0.049560603 -0.009727967 0.0066958205 -0.024437597 0.02307171
0.013763629 -0.018376336 0.030869365 -0.032845337 -0.01183554 -0.032220703 -0.0068076216 -0.0009295614
-0.057553276 -0.05800517 -0.044381343 0.0025984943 0.004516275 -0.034330875 -0.001082968 0.035390615
0.02738627 0.04170666 -0.008303467 0.019102646 0.04470012 0.035899833 0.0042914744 -0.036745254
-0.0075707436 -0.020381246 -0.059734162 0.034360245 -0.048282824 -0.01416776 -0.038340397 -0.04900777
0.015544258 -0.012381977 -0.004352982 0.01808496 0.011693254 0.029305333 -0.032245018 -0.057568826
-0.04311417 0.007223961 -0.041895665 -0.028091563 0.0076684826 -0.010503147 -0.039840274 -0.013150191
-0.042396896 0.052048165 0.023605585 -0.021186668 -0.03754624 0.052897416 -0.0006417993 0.030856447
-0.04529004 -0.018993994 0.031633608 0.0010582315 -0.01195128 -0.05640956 -0.0021103537 -0.009620499
0.047382 0.029507965 0.0536177 0.047864117 0.025203697 0.036453538 0.01597555 -8.361652e-05
0.05166948 -0.001994338 0.0014971197 0.026789784 0.0016209277 0.019260176 0.024172949 0.040110454
0.027567895 -0.03762748 -0.031925276 0.038120672 0.052391306 -0.014203922 0.010464467 0.037645664
0.051722795 -0.02174905 -0.054293834 0.05188428 0.051996805 0.04402358 0.038397346 -0.03221403

fc2.bias f4 [300]
00000000: 9084 45bd 6da0 993c 654c 653d eeb2 eb3c
00000010: 7026 993c 4c21 1cbd c619 1c3d 2f7f c8bc
00000020: 6487 89bc 1e4d debb 7a9a ec3c fab5 c3bb
00000030: 735a 6b3d 8079 493a 4852 013c 4979 af3c
00000040: bf93 85bb b079 87bb da99 3d3d 0a77 073d
00000050: 006d 243d 91d0 023d fd36 69bc c047 003c
00000060: 599f e13b 85f6 4a3d d449 1cba cfbb 7d3d
00000070: e8bd d5bc 3a55 813d 4b9b b0bc 546f 603d
00000080: 78e8 343c 7f82 1bbd 43f5 febc 4a33 3e3d
00000090: f8a9 01bc 69cb 56bc ff13 bfbb 843a 42bc
000000a0: 1394 abbc 4196 2e3d 2c18 05bd 2583 17bd
000000b0: b2f8 0ebc 2201 11bc ee6f d93a 8490 183d
000000c0: 5aa9 2b3d ed6f f4bc 4389 24bd e4d0 8e3c
000000d0: 4a3d 8fbc 8788 173d d12b eb3c 87e7 5f3d
000000e0: abd8 85bb 29bb 61b8 0c45 003c b0cc a43b
000000f0: 014f d539 576c 5b3c bbe4 b6bc 0089 93b9
00000100: 4cf6 17bb fa9a 6c3c 956e 2a3d 1df1 48bd
00000110: 121b bbbb 1d59 0dbd 0622 1a3d 9b59 3ebc
00000120: 3c3a 34bd 7635 e33c b647 1e3d f34d 013d
00000130: 2051 9dbc 71a9 4a3c e36b 133d d022 313b
00000140: a80d 363c e197 2f3d 5d84 ef3c 6db4 833c
00000150: 5b40 fabc 4d73 09bd ee5c 923c 9df1 42bc
00000160: 4e5b e63c 430b f03c c034 91bb 8eed e53c
00000170: b267 10bd 948c 6a3d 306d 61bb 896b 333d
00000180: 9d09 803d f5f5 6bbc fb7d f63c 3632 4fbc
00000190: 9930 0fbc 2139 2a3d 4a96 e13b 5a7d 773d
000001a0: 802a 6c3a 6093 9bbc a7ac 013d 5056 72bb
000001b0: fde7 663d e02e 07bd 0a51 b13c e867 803d
000001c0: d653 6a3d bd06 49bd 305e edbc 490b 163d
000001d0: d864 f1bc 6a1f 2cbd 7de4 243d 0c5a aa3c
000001e0: 800f 233d a407 44bc 4ada e1bc 44e5 a3bc
000001f0: 3174 153d 3b81 163d 95df 39bd a05c 99bc
00000200: 6cfb c9bc 1428 343d e0ca 093c aa6d 223d
00000210: c46a 0cbc 9ec5 cc3c 68a4 a2bb c1b4 843d
00000220: fd1e c03c c0eb 393c 62f6 863c e08b 163d
00000230: bf80 4bbd 07b4 1c3d 0235 fe3c 666d 3e3d
00000240: 5337 0c3d 8e6e a0bc d684 273d da04 803d
00000250: 3241 983c a14b 0a3c 379d 98bc 8b1a 843d
00000260: 9a12 843d 09ec f2bc 248f 013d 4b11 c93c
00000270: 42dc c83c 2235 a43c e60c 81bc a747 afbc
00000280: bf62 bbbc 946d 6f3d 029a fe3c 8dfd 21bc
00000290: 10a3 a0bb 29db 8b3d 37d0 283c 3640 8c3c
000002a0: ecce 38bc c88d 7d3c 1e92 4e3c b60f d33c
000002b0: 210c a9bc c5f8 423d 0d02 033d ef3f 0a3d
000002c0: a4b2 023d 8d60 263d 5ed8 0b3d e632 e2bc
000002d0: 0051 92ba 00af fd3a 2dec 3c3d 4e76 753d
000002e0: 6630 a8bc 368a e2bc 39f0 2e3c 00df b43b
000002f0: e68b bc3c c654 063d e2bf 8b3c 9890 04bd
00000300: 44e0 573c 6b4f b2bc 34d4 003d e8d9 6d3d
00000310: dd54 f93c 99d0 1d3c 803a 8339 32f0 4c3d
00000320: 2965 a8bb 9169 d5bc f447 e13c 8da0 6ebb
00000330: 095f 533d 7d97 6e3d fb3d d0bc aa72 97bc
00000340: d546 673d 00b4 9f3a 281f 7ebc 311d 7a3d
00000350: 54e5 3cbd 1e25 353d 401f 46bd 33a6 66bc
00000360: bb79 40bd 91b9 423d f4b5 40bb 0645 813d
00000370: 58f5 863b 58d0 16bc cd3f 8dbc eb64 cbbc
00000380: d04c 5cbb faf5 efbc 6ae4 2a3c 5770 753d
00000390: 526c 993c 00fe cbbb 6a67 0e3d 523f 46bc
000003a0: 8c9e 583c 88c2 f43c cdfb 243d 9813 98bb
000003b0: fde3 cbbc 1997 283d 6d7b eb3c 0ced 953c
000003c0: 14fb 54ba 98a2 283d f943 01bd a471 643c
000003d0: 5e1a 05bd fac2 3f3d 43d9 49bd 9594 e63c
000003e0: 5da6 c0bb 5d37 a3bc 4c5b 203d 7ede e03c
000003f0: 90d4 173d b789 ffbc 6647 0cbd 72a5 713c
-0.048222125 0.018753255 0.05598106 0.028771844 0.018695086 -0.038117692 0.038110517 -0.024474708
-0.016788192 -0.0067840954 0.028882254 -0.005972621 0.057459306 0.00076856464 0.007893153 0.021420138
-0.0040764506 -0.0041343793 0.046289302 0.03307251 0.040143013 0.031937186 -0.014234302 0.0078296065
0.006885451 0.049551506 -0.0005961929 0.061946686 -0.02609153 0.06315084 -0.021558424 0.05479367
0.011041753 -0.037966248 -0.03112281 0.04643563 -0.007914059 -0.01311002 -0.005831241 -0.0118547715
-0.02094463 0.042623762 -0.032493755 -0.036990304 -0.008726286 -0.008850368 0.0016589144 0.037247196
0.041909553 -0.029838527 -0.040169965 0.017433591 -0.01748528 0.036995437 0.028707417 0.05466416
-0.0040846667 -5.3818487e-05 0.007828962 0.0050292835 0.00040685388 0.013392529 -0.022325864 -0.00028140098
-0.0023187576 0.014441246 0.041609365 -0.04905807 -0.005710014 -0.034508813 0.037630104 -0.011618043
-0.04400085 0.027735453 0.038642608 0.03156848 -0.019203722 0.0123695 0.03599156 0.0027028807
0.011111654 0.042869452 0.02923792 0.016077245 -0.030548265 -0.033557225 0.017866578 -0.011898425
0.02811971 0.029302245 -0.004431337 0.028067376 -0.03525514 0.057262972 -0.0034397356 0.043803725
0.062518336 -0.014401902 0.030089369 -0.012646249 -0.008739614 0.04155839 0.006884371 0.06042228
0.00090090185 -0.018991172 0.031658795 -0.0036977716 0.056373585 -0.033003688 0.021645088 0.062698185
0.05720886 -0.04907869 -0.028975576 0.036631856 -0.029467031 -0.042022146 0.040256966 0.02079489
0.039809704 -0.011964712 -0.027569909 -0.020006783 0.036487762 0.036744338 -0.04537924 -0.018720925
-0.02465602 0.043983534 0.008410186 0.039655365 -0.008570377 0.024996575 -0.0049634464 0.064797886
0.023452276 0.011347711 0.016474906 0.03675449 -0.04968333 0.038257625 0.031031135 0.04649105
0.03423245 -0.019583967 0.040898167 0.06250925 0.018585775 0.008440883 -0.018629653 0.06450375
0.064488605 -0.029653566 0.03163065 0.024544379 0.02451909 0.020044867 -0.01575322 -0.021396471
-0.022874234 0.05845411 0.031079296 -0.009887111 -0.004902251 0.06828911 0.010303549 0.017120462
-0.011279803 0.015475698 0.012608079 0.025764327 -0.020635666 0.047600526 0.031984378 0.033752378
0.031908646 0.04061942 0.03414189 -0.02761216 -0.0011163056 0.0019354522 0.046123672 0.059927277
-0.02053089 -0.027653795 0.010677391 0.0055197477 0.023015928 0.03279569 0.01705927 -0.032364458
0.013176028 -0.021766385 0.031452373 0.05806914 0.030435974 0.009632253 0.00025029853 0.050033756
-0.0051390124 -0.026051315 0.02750013 -0.0036411614 0.051604304 0.05824994 -0.02542018 -0.018487293
0.056464035 0.0012184381 -0.015510358 0.061062995 -0.04611714 0.04422485 -0.048369646 -0.014077711
-0.04699109 0.04754025 -0.0029405328 0.06311993 0.0041186027 -0.009204946 -0.017242337 -0.024828395
-0.003361512 -0.029292095 0.010430435 0.05992159 0.018728409 -0.0062253475 0.034766592 -0.012100058
0.013221394 0.029877916 0.0402792 -0.0046410076 -0.024888987 0.041159723 0.028745377 0.01830151
-0.0008124572 0.041170686 -0.031558964 0.01394311 -0.03249585 0.046816804 -0.049279463 0.028147021
-0.005879207 -0.01992386 0.039149567 0.027449843 0.03706795 -0.031193597 -0.03424778 0.014748918

fc3.weight f4 [1, 300]
00000000: ca73 76ba 8f6c f3bc 0691 d2bc cc98 84bc
00000010: 19a1 8abc 9379 76b8 3edd 2cb9 ec1b a7bc
00000020: 04ac 6a3a b826 0dba 12d4 87bc 2691 76bc
00000030: 9a89 72bc 4bfa 1abb e234 15bb defd 82bc
00000040: bc8e 8dbc 5acc 2c3b 8a87 8fbc 135f 68bc
00000050: 0b21 88bc 0fab eaba a56a c73a 6043 013a
00000060: bd8d a2bc a079 86bc 8e62 8cba 641b 90bc
00000070: b5e8 c1ba 9b4e 8abc 9a99 f5bc 7fe0 a9bc
00000080: ba64 9dbc 4a4e 8b3a 0868 b23a b565 85bc
00000090: b6b3 8bbc 84f3 69bc 73ba 70bc 69d2 93bc
000000a0: 184e c83a afe8 adba 662c 2b3b 6d40 443b
000000b0: 36fa d1bc dc7a 95bc 4743 8d39 b331 a8bc
000000c0: bd48 87bc f0c5 223b ac27 c73a eb07 82bc
000000d0: aa18 d63a 8003 9f38 c587 9abc acc4 eabc
000000e0: 75d6 91bc d5a9 92bc e9c1 89bc d38d abbc
000000f0: b1b0 99bc 8ff9 65bc cec1 e1bc 1fba 8aba
00000100: 0911 d8bc 06f9 b4bc 6c20 a6ba 20e1 28ba
00000110: 874a c739 3dce 81bc 355c 4fba 2f30 973a
00000120: 99a5 42b9 aac3 a7bc 73ea 68bc 2201 853a
00000130: bc2f 85bc 80dd 77bc 5d3e 79b9 209b 063b
00000140: d0d3 d6b9 1540 81bc e923 8dbc 80c3 89bc
00000150: d720 95bc 427f 253b ab5e 8dbc 0151 80bc
00000160: 8a4d e6bc 4f1d 38bb cc70 913a 208c dfb8
00000170: 48a6 a63a 9ce3 83bc a823 dc3a d439 183a
00000180: 98b9 8bbc f2fc 8abc bb27 8cbc c684 99b8
00000190: 69a2 a13a 40bf d7b9 4894 8839 5a2f 88bc
000001a0: e036 e838 c046 b8b8 f02c 733a 3f1b feba
000001b0: f1f5 adbc 2be0 e138 5581 31bb 6cd7 84bc
000001c0: b644 a9bc 7cb4 2d3b 1ea0 a0bc 5efa 01bb
000001d0: b5bb 9bbc ca78 02bb d8d1 233b 7ec3 1e3b
000001e0: ca1c abbc 6f22 97bc 127d 043b 69ef 96bc
000001f0: 10dc db39 3724 93bc 715f 0abb b008 bab9
00000200: db0a 4a39 9bb4 89bc c636 82ba 679a 4cb9
00000210: 7d66 8abc 5c53 23ba 8e00 243b cff9 8ebc
00000220: 44de 94bc 14b8 243b 802e 3abb 2324 73bc
00000230: f8b1 38ba 1ce7 5abc 5849 6ebc ce69 8bbc
00000240: 48a3 273b 89a2 68ba 6ccf 72bc 3a6e 97bc
00000250: aa0d 303b 9e09 8dbc 6eca 3fb9 6477 8dbc
00000260: adcb 8dbc 8b24 14ba 37cc 86bc 430b 88bc
00000270: 3b23 f4bc d806 86bc cca0 133b c47d 61ba
00000280: 40b3 f6bc 87ee 9ebc 3b1b 94bc 7460 9cbc
00000290: fe9f 2d3b ddb3 ecbc 0296 cabc 9b69 ec3a
000002a0: 7092 2fbb 1baf ec39 ed4f 4f39 500a 813a
000002b0: 1eaa a5bc cd9d 8dbc 2d71 90bc 1edf eabc
000002c0: 9abe b5bc 1cd1 573a a2f8 9abc a074 8dbc
000002d0: 50ee c639 00ae 983a 10a3 0c3b 3dbd 70bc
000002e0: 819c c13a 1b97 91bc b302 ba3a 643b 8abc
000002f0: 6d1d 693a 64f5 83bc 0595 89bc 58ab 553a
00000300: 6bb5 eebc 4cfb 7cb7 651d 91bc 5e4b 7dbc
00000310: 0f8e 8bbc 6c63 aebc 10e0 f7ba 3f13 8ebc
00000320: 8f5c 7dbc 208b 97bc cf91 e7bc 7c50 f6bc
00000330: f5cd 85bc 1ec4 8abc 99f2 84bc 382e edb9
00000340: 784e 9cbc da84 aeba db5d a0bc 53a1 8abc
00000350: 08e6 59b8 1610 803a 8095 bcba 0a20 62bc
00000360: e8d1 463a edcf 6bbc a3d2 8fbc 2bd2 8fbc
00000370: 2754 8a3a cb8f adba 48d1 8abc b145 9cbc
00000380: f8a4 4fba a0e4 dab9 d808 b2bc 1d59 97bc
00000390: 88fc 903a 43d4 83bc 60a3 93bc 41c5 88bc
000003a0: 2958 8ebc b269 7ebc 4b6b 84bc 0ef2 3ebb
000003b0: c803 7a3a 8cac 9f3a 6966 79bc 4ef9 b1bc
000003c0: b076 97bc e325 20ba e523 89bc cc02 44bb
000003d0: 781f fbba d6a3 8abc 1035 e539 b3ed febc
000003e0: 24f2 b0bc 1515 9fbc 2781 8cbc 9465 92ba
000003f0: cada 6eba 59ec 8abc 8273 3a3b 531e 78bc
-0.0009401409 -0.02971485 -0.025703918 -0.01618614 -0.01692252 -5.8764195e-05 -0.00016485617 -0.020399056
0.0008952024 -0.00053844927 -0.016580615 -0.0150492545 -0.014803315 -0.0023647721 -0.0022767116 -0.015990194
-0.017279975 0.002636692 -0.017520685 -0.014182824 -0.016617319 -0.0017903763 0.0015214278 0.0004930999
-0.019842977 -0.016415417 -0.0010710524 -0.017591186 -0.0014794084 -0.016883185 -0.02998047 -0.02073693
-0.01921307 0.001062819 0.0013611326 -0.01628385 -0.017053466 -0.01427925 -0.01469289 -0.018044667
0.0015282063 -0.0013268198 0.0026118993 0.0029945627 -0.025632005 -0.01824706 0.0002694374 -0.020531511
-0.016514177 0.0024837218 0.0015194318 -0.015872916 0.0016334255 7.582363e-05 -0.018863568 -0.028658234
-0.017802456 -0.017903248 -0.016816096 -0.02094165 -0.01876101 -0.01403655 -0.027558234 -0.0010584033
-0.02637531 -0.0220914 -0.0012674457 -0.00064422376 0.00038011765 -0.015845412 -0.0007910163 0.0011534746
-0.00018562972 -0.020479042 -0.014216053 0.0010147432 -0.016258113 -0.015128493 -0.00023769723 0.002053924
-0.00040975073 -0.015777627 -0.017229037 -0.016816854 -0.018204136 0.0025252854 -0.017257055 -0.015663626
-0.028113145 -0.002809364 0.0011096238 -0.00010659569 0.0012714351 -0.016099744 0.0016795294 0.0005806957
-0.017056271 -0.016966317 -0.017108789 -7.3203395e-05 0.0012331727 -0.00041150488 0.0002605042 -0.016624141
0.00011072843 -8.786982e-05 0.00092764106 -0.0019386782 -0.021235438 0.000107705906 -0.0027085145 -0.016216002
-0.020662647 0.0026505282 -0.0196076 -0.0019833068 -0.019010404 -0.0019908422 0.0024996903 0.002422541
-0.020887751 -0.018449036 0.002021615 -0.018424707 0.00041934894 -0.017961605 -0.0021114016 -0.00035483157
0.00019268265 -0.016809752 -0.0009934537 -0.00019512475 -0.016894573 -0.0006230378 0.0025024745 -0.017453102
-0.01817239 0.0025134133 -0.0028409064 -0.014840159 -0.00070455624 -0.013360765 -0.014543854 -0.017018225
0.00255795 -0.0008874317 -0.014819961 -0.018485177 0.0026863613 -0.0172165 -0.0001829059 -0.017268844
-0.017309034 -0.0005651197 -0.0164548 -0.016606933 -0.029801955 -0.016360685 0.0022526262 -0.00086018094
-0.03011477 -0.019400848 -0.01807939 -0.019088961 0.0026493068 -0.02889436 -0.024729732 0.0018036844
-0.0026790164 0.00045143891 0.00019770833 0.0009844992 -0.02022272 -0.01728716 -0.017632091 -0.028670844
-0.022185612 0.0008232759 -0.018917385 -0.017267525 0.0003794306 0.0011648536 0.0021459498 -0.014693555
0.0014771373 -0.017772248 0.0014191478 -0.016874023 0.00088926294 -0.016108222 -0.01679469 0.00081508374
-0.029139241 -1.507888e-05 -0.017714212 -0.0154598635 -0.017035512 -0.021287642 -0.001891138 -0.017343162
-0.015463962 -0.018498957 -0.02826777 -0.030067675 -0.01633356 -0.01693922 -0.01622896 -0.00045238598
-0.019080386 -0.0013314739 -0.019576004 -0.016922629 -5.1951065e-05 0.0009770419 -0.0014387816 -0.013801584
0.0007584379 -0.014392835 -0.017556494 -0.01755627 0.0010553644 -0.0013241706 -0.016945496 -0.0190762
-0.00079210056 -0.0004175054 -0.021732733 -0.01847511 0.0011061588 -0.016092425 -0.01802224 -0.01669562
-0.017376022 -0.015528129 -0.016164443 -0.0029135975 0.00095373066 0.001218216 -0.01522217 -0.021725323
-0.018489212 -0.0006109161 -0.016740749 -0.0029908894 -0.0019159159 -0.016923826 0.00043717818 -0.031119203
-0.021599837 -0.019419232 -0.017151428 -0.0011169189 -0.00091115816 -0.016958402 0.0028450196 -0.015143949
