DDPG/checkpoint_actor.pth (torch, 490711 bytes, 5 tensors)

fc1.weight f4 [400, 3]
0	0xbcb9b39c	-0.022668652
1	0x3d3da0d6	0.046295963
2	0x3be83832	0.007086777
3	0x3c893c7a	0.01675247
4	0x3ce1cf12	0.02756456
5	0xbc819e30	-0.0158225
6	0x3cd3c0ec	0.025848828
7	0xbc390271	-0.011292086
8	0x3d0a61bc	0.033784613
9	0xba0c895b	-0.0005361044
10	0xbccc4af9	-0.024938093
11	0x3cf99ef6	0.030471306
12	0xbd0e5053	-0.034744572
13	0x3d165e91	0.03671128
14	0xbc8228af	-0.01588854
15	0x3cb45225	0.022011826
16	0x3c2868cd	0.010278893
17	0xbd1ae946	-0.037820123
18	0xbca69e6c	-0.020339213
19	0x3c387945	0.011259382
20	0x3d5cec98	0.05393657
21	0x3ca86c61	0.020559492
22	0xbd5f15aa	-0.05446402
23	0xbd82eb33	-0.06392517
24	0xbd42d865	-0.04756965
25	0xbd49c627	-0.04926124
26	0x3d4d45c3	0.050115358
27	0x3c225f35	0.009910394
28	0xbc7ea425	-0.015542065
29	0x3bcf1f75	0.0063208886
30	0xbc3affa4	-0.011413489
31	0xbd1390b3	-0.036026668
32	0xbd5be51a	-0.053685285
33	0xbd7e8582	-0.06213904
34	0x3c3dff90	0.011596575
35	0xbd848e74	-0.06472483
36	0x3d3b70fb	0.045762043
37	0x3c99ad0a	0.01875927
38	0x3b0e5c00	0.0021722317
39	0x3cbf10a2	0.02332336
40	0x3d0d68e9	0.03452388
41	0x3d3236d3	0.043509316
42	0x3ce481a2	0.027893845
43	0x3bbd58c0	0.005778402
44	0xbcad7ce0	-0.02117771
45	0xbd1dd963	-0.038537394
46	0xbd52bc80	-0.0514493
47	0xbbc6718d	-0.006056017
48	0xbd84f7fc	-0.06492612
49	0xbd2317f9	-0.039817784
50	0x3ca1a62d	0.01973256
51	0x3cf6edf0	0.030142754
52	0x3d29a335	0.041415412
53	0x3d9bd402	0.07608797
54	0x3d242c28	0.040081173
55	0x3d725bc9	0.059169564
56	0x3cc9c192	0.024628434
57	0x3d2b7fe1	0.04187
58	0xbce54eed	-0.027991736
59	0x3c2fdf2c	0.010734361
60	0xbd02b5e3	-0.031911742
61	0x3d46ff19	0.048583124
62	0xbd6e43f4	-0.058170274
63	0x3c2da717	0.010598919
64	0x3d88dc12	0.066826
65	0x3d81161d	0.06303046
66	0xbcacd0c9	-0.02109565
67	0xbd491c7d	-0.049099434
68	0x3d0a7fdd	0.033813346
69	0xbcbabf52	-0.022796307
70	0x3ca0777d	0.019588226
71	0x3d274610	0.0408383
72	0xbc5beca8	-0.013423122
73	0x3d2ffa19	0.04296312
74	0x3d091a19	0.033472154
75	0xbd34c166	-0.04412975
76	0x3d2a826b	0.041628283
77	0x3c43c9bb	0.011949952
78	0x3cc14b32	0.023595426
79	0x3c285718	0.010274671
80	0x3d4a5d1f	0.049405213
81	0xbd78fbaa	-0.06078688
82	0x3d1970ca	0.03746108
83	0x39740ae1	0.00023273706
84	0x3a21ee1f	0.00061771454
85	0xbb499791	-0.0030760507
86	0xbd1cc596	-0.03827437
87	0xbd274924	-0.040841237
88	0xbd3a9bbe	-0.045558684
89	0x3ceb9b45	0.028760562
90	0x3cbd6e42	0.023123864
91	0x3d4107e9	0.047126684
92	0x3cbec622	0.023287836
93	0xbccf7a98	-0.025327012
94	0xbd38d1e8	-0.045122057
95	0xbc5c6b43	-0.013453308
96	0xbd28ad41	-0.041180853
97	0xbc8821b9	-0.016617643
98	0x3c5d3d46	0.013503378
99	0xbd658c33	-0.056041908
100	0x3cfce153	0.030869162
101	0x3d3b7f88	0.04577592
102	0xbc59257f	-0.013253569
103	0xbc5ab8af	-0.013349696
104	0x3cd14087	0.025543464
105	0xbc3b7df6	-0.011443606
106	0xbd44b8f8	-0.048027962
107	0xbd0e0c72	-0.034679838
108	0xbd8c3a22	-0.068470255
109	0xbd39d5cd	-0.045369912
110	0xbd5c574d	-0.053794194
111	0x3bbad1b6	0.005701269
112	0x3c6e6249	0.0145498
113	0x3c67b53e	0.014142333
114	0xbc9b5712	-0.018962417
115	0x3ce409da	0.027836729
116	0xbd8a0136	-0.06738512
117	0x3d0e61e0	0.03476131
118	0xbd468b34	-0.0484726
119	0x3cee9914	0.029125728
120	0x3cc62ebb	0.024192205
121	0x3d991f31	0.074766524
122	0xbd016d3b	-0.03159831
123	0xbd960603	-0.073253654
124	0x3d32335a	0.043506004
125	0x3d9bf54f	0.07615148
126	0xbd852836	-0.0650181
127	0xbb75f630	-0.0037530772
128	0xbd0ce14c	-0.034394547
129	0x3c5aaca9	0.013346829
130	0xbcfc4823	-0.030796116
131	0x3d2c1ac9	0.04201773
132	0x3c802725	0.015643666
133	0x3b14b350	0.0022689886
134	0xbc9d647b	-0.019212952
135	0x3be267b0	0.006909333
136	0x3c639974	0.013891567
137	0x3cc8ffd2	0.024536047
138	0xbd0be2f3	-0.034151983
139	0xbd8c7605	-0.06858448
140	0xbda4ef75	-0.08053485
141	0xbbcfb576	-0.0063387705
142	0x3d9f777e	0.07786463
143	0x3d631572	0.055440374
144	0x3cef20fe	0.029190537
145	0x3ce82aca	0.028340716
146	0xbc3c34ec	-0.011487227
147	0xbd25d878	-0.040489644
148	0x3cb1c7c6	0.021701705
149	0xbd61e2d9	-0.05514798
150	0x3cd37b40	0.025815606
151	0x3d11cd74	0.035596326
152	0x3d28d5d0	0.041219532
153	0x3d12f41b	0.03587733
154	0xbbf219ea	-0.007388343
155	0xbd455af5	-0.048182447
156	0xbd26e233	-0.040743064
157	0xbd0e0e35	-0.034681518
158	0xbda03957	-0.07823437
159	0xbd51f6ce	-0.051260762
160	0xbd000b20	-0.03126061
161	0x3d86d140	0.0658288
162	0xbcb13dd5	-0.02163593
163	0xbcd69560	-0.026194274
164	0x3d90e998	0.070758045
165	0xbd8dbe5b	-0.06921073
166	0xbd9114b9	-0.07084031
167	0xbd5ef26a	-0.054430403
168	0x3d28cec9	0.04121283
169	0xbbb20c90	-0.0054336265
170	0xbca45bbd	-0.020063275
171	0xb8e63400	-0.000109769404
172	0xba9ca600	-0.0011951327
173	0xbba74ab0	-0.005105339
174	0x3cd3064a	0.025759835
175	0xbd7428f3	-0.059609365
176	0xbd6253e7	-0.055255797
177	0xbcf9745e	-0.030450996
178	0xbd4888ae	-0.048958473
179	0xbc7d45c7	-0.015458531
180	0xbce94c5d	-0.028478796
181	0xbbf35c00	-0.0074267387
182	0x3c8c2e1e	0.017111834
183	0x3d20976f	0.03920692
184	0xbbe25ba9	-0.0069078994
185	0xbd21b92e	-0.03948324
186	0xbd69016c	-0.05688612
187	0x3cd08e66	0.025458526
188	0xbd5ebfda	-0.054382183
189	0xbd8aa31e	-0.067693934
190	0x39d6e79a	0.00040989817
191	0x3d39501d	0.045242418
192	0xbca705d0	-0.020388514
193	0x3d28c45b	0.041202884
194	0x3c94c1da	0.018158842
195	0x3bc83735	0.006110097
196	0x3c5402e9	0.012940147
197	0x3c137f62	0.009002538
198	0x3ca04342	0.019563321
199	0x3bf68c10	0.007524021
200	0x3c5b8aa4	0.013399754
201	0x3cdc63ce	0.02690306
202	0x3a5eacc0	0.00084943697
203	0x3d2248e1	0.039620284
204	0xba7fc540	-0.00097568706
205	0xbd1a7fbd	-0.037719477
206	0xbd3c386d	-0.04595225
207	0xbd25f4cd	-0.040516663
208	0xbd79f650	-0.061025918
209	0xbd79b47d	-0.060963143
210	0x3cce5f2c	0.025191866
211	0x3ca3e21b	0.020005276
212	0xbd3a0a06	-0.045419715
213	0x3b3432a6	0.002749601
214	0x3c3bf6ee	0.011472447
215	0x3db8cd4a	0.09023531
216	0x3b8a2c05	0.0042166733
217	0xbce4280e	-0.02785113
218	0x3d58019e	0.052735917
219	0xbd7e2ecc	-0.062056348
220	0x3c93776e	0.018001284
221	0x3d97c655	0.07410876
222	0xbc3930a4	-0.011303101
223	0xbd4ee983	-0.050515663
224	0xbca684bb	-0.020326963
225	0x3c1112c1	0.008854569
226	0x3d2190a0	0.039444566
227	0x3be6d6a4	0.00704463
228	0xba3d82dc	-0.00072292774
229	0x3c92e895	0.01793317
230	0xbd311722	-0.04323495
231	0xbc089d70	-0.008338317
232	0x3d78a7d1	0.060706917
233	0xbdae5c9b	-0.08513757
234	0x3ba48f71	0.0050219824
235	0xbd9f89a1	-0.077899225
236	0xbdaa91e1	-0.083286054
237	0xbbfb345f	-0.007666155
238	0xbd34b6ab	-0.04411952
239	0xbb2de076	-0.0026531494
240	0xbd044625	-0.032293458
241	0xbca40916	-0.020023864
242	0xbcc597d7	-0.024120254
243	0xbd7bba29	-0.061456833
244	0xbbc837f5	-0.006110186
245	0x3d5260a9	0.051361714
246	0xbd7ae2ed	-0.06125157
247	0x3d1a358a	0.037648715
248	0xbd860ff7	-0.06546014
249	0xbcdc4b13	-0.026891267
250	0xbcaba5a4	-0.020953007
251	0x3a764490	0.0009394372
252	0xbd5c671e	-0.053809278
253	0xbc9d4c3a	-0.019201387
254	0x3d784f1d	0.060622323
255	0xbce94a51	-0.02847782

fc1.bias f4 [400]
0	0xbdd30bd1	-0.10304988
1	0xbe1f88fc	-0.15579599
2	0xbe69ed30	-0.22844386
3	0x3e70671c	0.23476833
4	0x3f0f7869	0.56043106
5	0x3e42a0f6	0.19006714
6	0x3de1e448	0.11029869
7	0x3e89ed3c	0.26938808
8	0xbb8161ac	-0.003948411
9	0x3e0495a4	0.12947708
10	0xbd073839	-0.033012602
11	0x3e3be5ed	0.18349428
12	0xbee837fa	-0.45355207
13	0xbef6add7	-0.48179504
14	0xbf096d41	-0.53682333
15	0x3dfd73cb	0.123756014
16	0x3ed44f2c	0.41466653
17	0x3e9a7fe1	0.3017569
18	0x3dae0690	0.084973454
19	0xbda8b50c	-0.08237657
20	0x3e404d02	0.18779376
21	0xbd9ff779	-0.078108735
22	0x3e86cc36	0.26327676
23	0x3ec8065c	0.39067352
24	0xbeac696d	-0.33674183
25	0x3f1061df	0.5639934
26	0xbeb606fe	-0.3555221
27	0x3f18afbd	0.59643155
28	0x3eb3e7d8	0.3513782
29	0x3ede1173	0.43372688
30	0xbf0ded15	-0.55439883
31	0xbe1e9347	-0.1548587
32	0x3f0629c7	0.524075
33	0x3f1925cd	0.59823304
34	0x3efcf773	0.4940754
35	0x3d897982	0.06712629
36	0xbd1cf4b6	-0.038319312
37	0x3e820b86	0.25399417
38	0x3e68985e	0.22714373
39	0xbdf0d05d	-0.11758492
40	0x3d7a8c80	0.061169147
41	0xbe6a38b4	-0.22873193
42	0x3e997fa0	0.29980183
43	0x3d03c950	0.03217441
44	0xbe1032ed	-0.14081927
45	0xbf0139e0	-0.50478935
46	0xbe071808	-0.13192761
47	0xbd2ff016	-0.042953573
48	0xbead8253	-0.33888492
49	0xbde71a4e	-0.11284314
50	0x3f0889d7	0.53335327
51	0x3e09a84f	0.13443111
52	0xbe65ed48	-0.22453797
53	0xbd692a71	-0.05692524
54	0x3dab9b84	0.083792716
55	0xbe079a4f	-0.13242458
56	0xbe46457e	-0.19362447
57	0xbe70d02a	-0.23516908
58	0x3d336683	0.043798935
59	0x3f1514f1	0.5823508
60	0xbe4c6898	-0.19961774
61	0xbe92a252	-0.28639466
62	0xbd8fb705	-0.0701733
63	0xbdc66509	-0.0968724
64	0xbf13068c	-0.57431865
65	0x3f0def76	0.55443513
66	0xbe0be038	-0.13659751
67	0xbef32462	-0.47488695
68	0xbf0c5a08	-0.54824877
69	0x3e5ad8de	0.21371791
70	0x3dbddef4	0.092710406
71	0xbe6eaeeb	-0.23308913
72	0x3e1013b7	0.1407002
73	0x3da59350	0.08084738
74	0x3efcae1b	0.49351582
75	0x3e02bba2	0.12766889
76	0x3e8297bf	0.25506398
77	0xbdf4d508	-0.11954695
78	0xbe4f8457	-0.20265327
79	0x3f0e36ae	0.55552185
80	0x3e643c9a	0.22288743
81	0xba25d80e	-0.0006326445
82	0xbe47b1bd	-0.19501396
83	0x3f13187d	0.5745924
84	0x3e145156	0.14484152
85	0xbd569d7a	-0.052396275
86	0xbef94fa5	-0.48693576
87	0xbed4e1e3	-0.41578588
88	0x3e115b98	0.14195096
89	0xbef1bf54	-0.47216284
90	0xbece8259	-0.40333822
91	0xbe83519e	-0.25648206
92	0x3e87f4d2	0.2655397
93	0xbe1e4d28	-0.1545912
94	0xbf0c0fe3	-0.5471174
95	0x3edd27a9	0.4319432
96	0xbed9ee1d	-0.4256448
97	0x3f0168bd	0.5055044
98	0x3f0f28f1	0.55921847
99	0xbea39ebe	-0.31957048
100	0x3e9222b5	0.28542104
101	0xbe03317f	-0.1281185
102	0x3f10a4ba	0.5650135
103	0xbee32e88	-0.44371438
104	0x3e6be1e9	0.23035397
105	0xbe98178e	-0.2970547
106	0xbf1006a3	-0.56260127
107	0xbeedbc50	-0.46432734
108	0x3db8ed98	0.090296924
109	0x3f0c51e4	0.54812455
110	0x3e8f8d61	0.2803755
111	0x3e77d278	0.24201381
112	0xbf057d64	-0.52144456
113	0x3ee56b7f	0.44808576
114	0x3e13ac9f	0.14421318
115	0x3e87d1c9	0.2652724
116	0x3db0c69c	0.08631632
117	0x3e56fe6c	0.20995492
118	0xbdd2c561	-0.10291553
119	0xbeee684a	-0.4656394
120	0x3e361986	0.17783174
121	0xbe2eef67	-0.17083512
122	0xbd73db77	-0.05953547
123	0x3dd27260	0.102757215
124	0xbe9c5025	-0.30529895
125	0x3f156a8f	0.5836572
126	0x3f0240b6	0.5087999
127	0xbe2d1de2	-0.1690593
128	0x3ead34b6	0.33829278
129	0x3d892d9f	0.06698155
130	0x3e45b119	0.19305839
131	0x3ea0f3a5	0.31435886
132	0xbe03b111	-0.12860514
133	0xbf12877f	-0.57238
134	0xbe639776	-0.22225747
135	0x3f0ee6c6	0.5582088
136	0xbebac01e	-0.364747
137	0x3eafe7c1	0.34356502
138	0xbf09591a	-0.53651583
139	0xbec92bae	-0.39291137
140	0x3eec37d4	0.46136343
141	0x3f12cc19	0.5734268
142	0x3ede0e6c	0.43370378
143	0xbf075b54	-0.5287373
144	0x3f136c97	0.5758757
145	0xbebe93f0	-0.37222242
146	0xbeeba6f1	-0.46025804
147	0xbbc438aa	-0.0059882
148	0x3e1f4293	0.1555274
149	0x3e977efa	0.29589063
150	0xbec2cffc	-0.38049304
151	0xbe2e57e2	-0.17025712
152	0xbec31791	-0.38103917
153	0x3f007294	0.5017483
154	0x3e81a775	0.25323072
155	0x3eb82613	0.35966548
156	0x3f11c224	0.5693686
157	0x3ef3fffd	0.4765624
158	0x3e089a29	0.13340057
159	0x3e17f4f9	0.14839543
160	0xbee1e0a2	-0.44116694
161	0xbdd31ea0	-0.10308576
162	0x3df50ec6	0.119657084
163	0x3d9e839d	0.07739947
164	0x3e2ac468	0.16676486
165	0xbdd16df0	-0.10226047
166	0xbef42ce0	-0.47690487
167	0x3eeb2fc2	0.45934874
168	0x3ec503e2	0.38479525
169	0x3f0fd2eb	0.5618121
170	0x3e801ded	0.25022832
171	0xbee04713	-0.43804225
172	0x3df17a6e	0.1179093
173	0x3f040f72	0.5158607
174	0xbea12de1	-0.31480315
175	0xbd4c4ef2	-0.049879976
176	0xbf02591f	-0.5091724
177	0xbed70570	-0.41996336
178	0xbef46958	-0.4773662
179	0x3ee1a45b	0.44070706
180	0x3ef49456	0.4776942
181	0x3ef29bfc	0.47384632
182	0x3eb58aed	0.35457554
183	0xbdd47ed0	-0.1037575
184	0x3e0ffbf8	0.14060962
185	0xbef26c3a	-0.47348195
186	0x3e4fbb68	0.20286334
187	0x3e6a80c1	0.22900678
188	0x3dfcb51e	0.12339233
189	0xbe82922e	-0.2550215
190	0xbdeec15c	-0.11657974
191	0x3f10a6bc	0.56504416
192	0xbdb5f880	-0.08885288
193	0x3e65b6c5	0.22433002
194	0x3c4bd3a1	0.012440593
195	0x3e2b29b3	0.16715126
196	0xbee45c78	-0.44601798
197	0x3ec1500e	0.3775639
198	0x3ef62310	0.48073626
199	0xbe9244fc	-0.28568256
200	0xbc6de90d	-0.014520896
201	0x3f15b3f7	0.5847773
202	0xbe6cc162	-0.23120645
203	0x3e764af8	0.24052036
204	0x3e8d56c8	0.2760527
205	0xbeb6ddf8	-0.35716224
206	0x3eeb3db6	0.4594552
207	0x3d96aaee	0.07356821
208	0x3eeee162	0.46656328
209	0x3edf13e8	0.43569875
210	0xbe96bfbc	-0.29443157
211	0xbebc4b56	-0.36776227
212	0xbe83a46e	-0.25711387
213	0xbefd80d9	-0.49512365
214	0xbe039a3a	-0.12851802
215	0x3e2a3c2b	0.16624515
216	0xbd2ccb8a	-0.042186297
217	0x3ef27ddc	0.47361648
218	0x3cca1101	0.024666311
219	0x3f09a1a7	0.53762287
220	0xbcabc7ad	-0.020969236
221	0x3ea8eb9f	0.32992265
222	0x3d172fec	0.036910936
223	0xbeac3326	-0.33632773
224	0xbe2b5104	-0.16730124
225	0xbea668a5	-0.32501712
226	0x3f039bbc	0.51409507
227	0x3f03f58e	0.5154656
228	0xbed8f2e7	-0.4237282
229	0xbef752ed	-0.48305455
230	0xbee5696e	-0.44807
231	0x3a9e73cc	0.0012088954
232	0xbf0cefd1	-0.5505343
233	0xbe42a3fa	-0.19007865
234	0xbefc6f06	-0.49303454
235	0xbe5c8a1c	-0.2153706
236	0x3ed96874	0.42462504
237	0x3e86f4e2	0.26358706
238	0xbdad9817	-0.084762745
239	0xbee48170	-0.44630003
240	0x3e420e99	0.18950881
241	0x3e3301e6	0.17481193
242	0x3cd5ea9a	0.026112843
243	0xbee3a0d6	-0.44458646
244	0xbeaa3dbc	-0.33250225
245	0x3edfbe4f	0.4369988
246	0xbf0c8184	-0.54885125
247	0x3ea4834a	0.32131416
248	0xbe6fd5ab	-0.23421352
249	0xbe9d5dfc	-0.30735767
250	0x3f0cfc72	0.550727
251	0xbecc8d43	-0.39951524
252	0x3f17c040	0.59277725
253	0xbe9da437	-0.30789348
254	0xbda45670	-0.08024299
255	0x3ec979ae	0.39350647

fc2.weight f4 [300, 400]
0	0x3c4c6fb0	0.0124778
1	0xbca0daa4	-0.019635506
2	0x3d46c28c	0.048525378
3	0x3cda3b4d	0.026639605
4	0xbcc362ec	-0.02385088
5	0x3ce89ac0	0.028394103
6	0x3d631962	0.05544413
7	0x3c5d2384	0.013497237
8	0x3c3d9aa6	0.011572516
9	0xbc9a33eb	-0.018823585
10	0xbd51bad9	-0.051203582
11	0xbd3da062	-0.04629553
12	0x3d1c2272	0.038118787
13	0x3d1ac186	0.037782215
14	0x3d5c7c16	0.053829275
15	0xbd363425	-0.044483323
16	0xbc6bf1ee	-0.014400942
17	0xbcf2b683	-0.029628044
18	0xbcbe4486	-0.023226034
19	0x3b044ab0	0.0020186119
20	0xbd5f3b03	-0.054499637
21	0x3c869f99	0.016433524
22	0x3c57b9fb	0.0131669
23	0x3d09ae9d	0.03361379
24	0x3cc77454	0.024347462
25	0xbd698e51	-0.05702049
26	0xbd3a51a6	-0.045488022
27	0x3d31ddac	0.043424293
28	0x3cb61260	0.022225559
29	0xbd1ff0dc	-0.03904806
30	0xbd332324	-0.043734685
31	0x3cef1e10	0.02918914
32	0x3d291a54	0.041284874
33	0xbbf44ae6	-0.0074552177
34	0x3c9f29e7	0.01942916
35	0x3d09f737	0.033683028
36	0xbd1ba7ae	-0.03800171
37	0x3d2c49f2	0.042062707
38	0x3d40770f	0.046988543
39	0xbcabac04	-0.020956047
40	0x3d26ac4a	0.04069165
41	0x3cc3045c	0.02380579
42	0xbc8ff08c	-0.017570756
43	0x3d2420a3	0.040070187
44	0xbd2b95b2	-0.041890807
45	0x3d0240d8	0.03180012
46	0xbc81b645	-0.015833983
47	0xbc930d0a	-0.017950553
48	0x3ca648d0	0.020298392
49	0xba8be84c	-0.0010674088
50	0xbd2f68e2	-0.042824633
51	0x3d49c8a5	0.049263615
52	0x3ca8d21a	0.020607997
53	0x3ca0292c	0.019550882
54	0xbd1b83c6	-0.037967466
55	0xbcc3dbec	-0.023908578
56	0x3bb8bb10	0.005637534
57	0x3d051a18	0.032495588
58	0x3d21cc5b	0.03950153
59	0xbd234d33	-0.039868545
60	0x3d33083a	0.043709017
61	0x3cb9e210	0.022690803
62	0xbd51f80a	-0.05126194
63	0xbd3acc75	-0.04560514
64	0xbd1f8741	-0.038947348
65	0xbd62e247	-0.055391576
66	0xbbc25b68	-0.0059313066
67	0xbbb61338	-0.0055564903
68	0xbd42a6fa	-0.047522523
69	0x3cd57f84	0.02606178
70	0x3ccff036	0.025383096
71	0xbc686604	-0.014184479
72	0xbd367194	-0.04454191
73	0xbd1de2e8	-0.038546473
74	0xbd180d33	-0.037121963
75	0xbcf368d8	-0.02971308
76	0x3cd27b8d	0.02569368
77	0xbd458059	-0.048218105
78	0xbd13d4b1	-0.03609151
79	0x3b100530	0.0021975748
80	0x3af0fb0e	0.0018385367
81	0x3cbe788b	0.023250839
82	0xbd44fdec	-0.04809372
83	0xbd045b2a	-0.032313503
84	0x3d25e77c	0.040503964
85	0xbcf71b2e	-0.030164327
86	0x3c6e7af8	0.014555685
87	0xbc3e64b0	-0.011620685
88	0x3cbec6d0	0.02328816
89	0xbd31a679	-0.04337165
90	0x3cffb1d0	0.031212717
91	0xbac45740	-0.0014979616
92	0x3cafe986	0.021473657
93	0x3d542ab9	0.051798556
94	0xbd2ec070	-0.04266399
95	0xbc917414	-0.017755546
96	0x3ccc0a90	0.02490738
97	0x3bca2bc5	0.0061697685
98	0x3cff63e4	0.031175561
99	0x3c589870	0.013219938
100	0x3d389af5	0.045069654
101	0x3cbf85cd	0.02337923
102	0xbd3ab2d5	-0.045580704
103	0x3d5b0956	0.0534757
104	0x3d3df8e9	0.046379957
105	0x3d25d4c6	0.04048612
106	0x3d241eea	0.040068544
107	0x3be3a470	0.0069470927
108	0xbd1ad577	-0.037801232
109	0x3d05857a	0.032597996
110	0xbd74755d	-0.05968224
111	0x3d44f187	0.0480819
112	0xbd5d5b07	-0.05404189
113	0x3d099420	0.03358853
114	0xbd441f5b	-0.047881465
115	0x3d436467	0.047703173
116	0xbd2e14f3	-0.042500447
117	0xbd4f5883	-0.05062152
118	0xbd353e02	-0.04424859
119	0x3d3cd16c	0.046098158
120	0x3d626614	0.05527313
121	0x3c6f4208	0.014603145
122	0xbd4b5fe0	-0.04965198
123	0x3d52237e	0.05130338
124	0x3cd64d24	0.02615983
125	0x3cd147db	0.025546959
126	0x3d06828a	0.032839336
127	0x3c0578d7	0.008146486
128	0x3d351662	0.0442108
129	0xbc93ff6b	-0.018066129
130	0xbd00ff9a	-0.03149376
131	0xbd1bffdf	-0.038085815
132	0x3c558ae8	0.013033606
133	0xbd0bee3b	-0.03416274
134	0x3c3eee80	0.0116535425
135	0xbd24f8b5	-0.040276248
136	0xbd20f8ac	-0.039299652
137	0x3ad0aeab	0.0015921196
138	0xbc1b4638	-0.009477191
139	0x3c0eb870	0.0087109655
140	0xbc9bcb82	-0.019017939
141	0xbd0c4abd	-0.034250963
142	0xbbecacf0	-0.007222764
143	0xbd64b80c	-0.055839583
144	0xbd266eb0	-0.040632904
145	0xbd5fc4fd	-0.054631222
146	0xbd0ceed8	-0.034407467
147	0xbb82aa81	-0.003987611
148	0x3c85f812	0.01635364
149	0x3b85f01d	0.0040874616
150	0x3d25015a	0.040284492
151	0xbd0e59da	-0.034753658
152	0x3c6907e0	0.014223069
153	0xbcdc7cec	-0.026915036
154	0x3cd29c12	0.025709186
155	0xbd49ecd8	-0.049298137
156	0xbc1b9a20	-0.0094971955
157	0x3be5da03	0.0070145144
158	0xbcc66d37	-0.024222
159	0x3cbfdbe2	0.023420278
160	0x3c6180d8	0.013763629
161	0xbc9689f8	-0.018376336
162	0x3cfec7ab	0.031101068
163	0xbd067940	-0.032830477
164	0xbc3c6408	-0.011498459
165	0xbcfb7dd1	-0.030699642
166	0xbbdf1278	-0.0068076216
167	0xba296c70	-0.0006462997
168	0xbd6a8bab	-0.057262104
169	0xbd6c79c6	-0.05773332
170	0xbd355a1b	-0.044275384
171	0x3b2a4b80	0.0025984943
172	0x3b95dd98	0.004573535
173	0xbd0b9b0a	-0.034083404
174	0xba8df260	-0.001082968
175	0x3d10f5c0	0.035390615
176	0x3ce0592c	0.02738627
177	0x3d2ad49a	0.04170666
178	0xbc080b44	-0.008303467
179	0x3c9edbbd	0.019391889
180	0x3d3828db	0.044960838
181	0x3d142030	0.03616351
182	0x3b94f9d0	0.0045463815
183	0xbd168231	-0.036745254
184	0xbbf42d9e	-0.007451727
185	0xbca6f692	-0.020381246
186	0xbd73cd80	-0.059522152
187	0x3d0dfd8e	0.034665637
188	0xbd453b27	-0.048152115
189	0xbc681fe4	-0.01416776
190	0xbd1d0ad2	-0.038340397
191	0xbd4789c7	-0.04871538
192	0x3c7ead58	0.015544258
193	0xbc45e7e0	-0.012079209
194	0xbb722e86	-0.0036954
195	0x3c974843	0.018467074
196	0x3c3f9510	0.011693254
197	0x3cf2c790	0.029636174
198	0xbd030db6	-0.031995498
199	0xbd6bcd4a	-0.057568826
200	0xbd2d44bc	-0.04230188
201	0x3bf4e77b	0.0074738837
202	0xbd2b9aca	-0.041895665
203	0xbce41e67	-0.027846528
204	0x3c0263e5	0.007958387
205	0xbc2c1564	-0.010503147
206	0xbd21f836	-0.039543353
207	0xbc53f723	-0.01293734
208	0xbd2c857e	-0.042119496
209	0x3d563329	0.052294884
210	0x3cc16080	0.023605585
211	0xbcad8faa	-0.021186668
212	0xbd19ca16	-0.03754624
213	0x3d58aaf6	0.052897416
214	0xb998aaad	-0.00029118863
215	0x3cfeb789	0.031093376
216	0xbd36035d	-0.0444368
217	0xbc99bbbc	-0.018766277
218	0x3d05a062	0.032623656
219	0x3ab0c093	0.0013485126
220	0xbc381187	-0.011234648
221	0xbd6610a9	-0.056168232
222	0xbae2677d	-0.0017273274
223	0xbc1d9f4c	-0.009620499
224	0x3d52f213	0.05150039
225	0x3cf1bab0	0.029507965
226	0x3d5cdf34	0.0539238
227	0x3d453258	0.048143715
228	0x3cce77fc	0.025203697
229	0x3d15504e	0.036453538
230	0x3c82df28	0.01597555
231	0x3a04c320	0.0005064476
232	0x3d53a360	0.05166948
233	0xbb02b370	-0.001994338
234	0x3ac43b00	0.0014971197
235	0x3cdb7640	0.026789784
236	0x3afe8b27	0.0019420133
237	0x3ca0a3aa	0.019609291
238	0x3cf210e1	0.029549064
239	0x3d244adc	0.040110454
240	0x3ce25a84	0.027631052
241	0xbd1a1620	-0.037618756
242	0xbce352da	-0.027749468
243	0x3d1c246c	0.038120672
244	0x3d569844	0.052391306
245	0xbc646fe9	-0.013942697
246	0x3c2b7328	0.010464467
247	0x3d1b46bd	0.03790926
248	0x3d55cfa7	0.052199986
249	0xbcb22b10	-0.02174905
250	0xbd5d2a7d	-0.053995598
251	0x3d54849c	0.05188428
252	0x3d562636	0.052282535
253	0x3d345212	0.04402358
254	0x3d1d4689	0.038397346
255	0xbd02d5dc	-0.031942233

fc2.bias f4 [300]
0	0xbd4470e8	-0.04795924
1	0x3cbb42e7	0.02285905
2	0x3d729b57	0.059230175
3	0x3cf0be03	0.02938748
4	0x3c9e9386	0.019357454
5	0xbd1c214c	-0.038117692
6	0x3d1c19c6	0.038110517
7	0xbcbe25f0	-0.02321145
8	0xbc898764	-0.016788192
9	0xbbde4d1e	-0.0067840954
10	0x3cf4d090	0.029884607
11	0xbbaec60f	-0.005333669
12	0x3d6e3a05	0.0581608
13	0x3a497980	0.00076856464
14	0x3c015248	0.007893153
15	0x3cb4a30c	0.022050403
16	0xbb641c83	-0.0034807033
17	0xbb8779b0	-0.0041343793
18	0x3d40801c	0.046997175
19	0x3d0aac76	0.033855878
20	0x3d26ba0a	0.040704764
21	0x3d02d091	0.031937186
22	0xbc6936fd	-0.014234302
23	0x3c0047c0	0.0078296065
24	0x3bf71f48	0.007541571
25	0x3d4d3250	0.05009681
26	0xba1c49d4	-0.0005961929
27	0x3d806bdf	0.06270575
28	0x3cc0a573	0.023516392
29	0x3d82abdd	0.063804366
30	0xbc8b8bee	-0.017034497
31	0x3d63a249	0.05557469
32	0x3c403958	0.011732422
33	0xbd1cb28f	-0.038256224
34	0xbcfef543	-0.03112281
35	0x3d40da13	0.04708297
36	0xbbdcb17d	-0.0067350254
37	0xbc4945b5	-0.012284686
38	0xbba78430	-0.0051121935
39	0xbc35b6eb	-0.011090974
40	0xbcab9413	-0.02094463
41	0x3d2e9641	0.042623762
42	0xbd05182c	-0.032493755
43	0xbd17d21f	-0.03706562
44	0xbbd3176d	-0.0064420016
45	0xbc02183a	-0.007940346
46	0x3ad96fee	0.0016589144
47	0x3d20c2c8	0.039248258
48	0x3d2dfc91	0.042477194
49	0xbcf46fed	-0.029838527
50	0xbd248943	-0.040169965
51	0x3c94ff35	0.018188098
52	0xbc8f3d4a	-0.01748528
53	0x3d178887	0.036995437
54	0x3cf06136	0.029343229
55	0x3d72dcaa	0.059292473
56	0xbb3bad99	-0.0028637408
57	0x3a55afb0	0.00081514847
58	0x3c0e65b8	0.008691244
59	0x3bc98385	0.0061497116
60	0x3a8810cf	0.0010380986
61	0x3c6611b3	0.014042306
62	0xbc7dd0c4	-0.015491668
63	0xb9938900	-0.00028140098
64	0x3c6c8cda	0.0144378785
65	0x3c88c421	0.016695084
66	0x3d2a6e95	0.041609365
67	0xbd48f11d	-0.04905807
68	0x3ced1a8d	0.028943324
69	0xbd0aa887	-0.033852126
70	0x3d1a2206	0.037630104
71	0xbc3e599b	-0.011618043
72	0xbd343a3c	-0.04400085
73	0x3cec9d99	0.028883742
74	0x3d214694	0.03937395
75	0x3d014df3	0.03156848
76	0xbc979b11	-0.018506559
77	0x3c54ff4a	0.013000319
78	0x3d136be3	0.03599156
79	0x3b3122d0	0.0027028807
80	0x3c360da8	0.011111654
81	0x3d31ff93	0.043456625
82	0x3cf484c4	0.029848464
83	0x3c8994ea	0.01679464
84	0xbcf2f0ea	-0.029655892
85	0xbd0a0dd6	-0.0337046
86	0x3c972ceb	0.018454036
87	0xbc364c20	-0.011126548
88	0x3d133032	0.035934635
89	0x3da7a6b7	0.08186095
90	0xbb9134c0	-0.004431337
91	0x3ce5ed8e	0.028067376
92	0xbd1067b2	-0.03525514
93	0x3d6cbd79	0.057797883
94	0xbb616d30	-0.0034397356
95	0x3d336b89	0.043803725
96	0x3d827011	0.06369031
97	0xbc61b555	-0.013776143
98	0x3cfd77c1	0.030940892
99	0xbc4f3236	-0.012646249
100	0xbc0f3099	-0.008739614
101	0x3d2a3921	0.04155839
102	0x3be130fa	0.0068722935
103	0x3d7b5bd1	0.06136686
104	0x3a6c2a80	0.00090090185
105	0xbc9b9360	-0.018991172
106	0x3d01aca7	0.031658795
107	0xbb725650	-0.0036977716
108	0x3d6c14b6	0.05763694
109	0xbd072ee0	-0.033003688
110	0x3cb1510a	0.021645088
111	0x3d820af8	0.063497484
112	0x3d6ecc38	0.058300227
113	0xbd4906bd	-0.04907869
114	0xbce3ee19	-0.027823495
115	0x3d160b49	0.036631856
116	0xbcebb00b	-0.028770467
117	0xbd2c1f6a	-0.042022146
118	0x3d24e47d	0.040256966
119	0x3ca67990	0.020321637
120	0x3d284b99	0.04108772
121	0xbc37f1ea	-0.01122711
122	0xbce1da4a	-0.027569909
123	0xbc9e7e58	-0.019347355
124	0x3d157431	0.036487762
125	0x3d194213	0.03741653
126	0xbd39df95	-0.04537924
127	0xbc995ca0	-0.018720925
128	0xbcca0035	-0.024658302
129	0x3d394474	0.045231298
130	0x3c09cae0	0.008410186
131	0x3d226daa	0.039655365
132	0xbbfb8259	-0.0076754508
133	0x3cccc59e	0.024996575
134	0xbba2a468	-0.0049634464
135	0x3d864cac	0.06557593
136	0x3cc4e7cf	0.024036316
137	0x3c39ebc0	0.011347711
138	0x3c86f662	0.016474906
139	0x3d19092c	0.037362263
140	0xbd4b80bf	-0.04968333
141	0x3d202d97	0.039105978
142	0x3d0399bf	0.032129046
143	0x3d4163cb	0.04721431
144	0x3d0c3753	0.03423245
145	0xbca06e8e	-0.019583967
146	0x3d2a64af	0.041599926
147	0x3d81b81e	0.06333946
148	0x3c984132	0.018585775
149	0x3c153dc9	0.009108969
150	0xbc989d37	-0.018629653
151	0x3d859d5f	0.06524157
152	0x3d855017	0.065094166
153	0xbcf2ec09	-0.029653566
154	0x3d03d027	0.03218093
155	0x3cce99bc	0.02521979
156	0x3d01a5fb	0.031652432
157	0x3ca8bcc6	0.020597827
158	0xbc810ce6	-0.01575322
159	0xbcaf47a7	-0.021396471
160	0xbc6e7bc7	-0.014555878
161	0x3d7250c8	0.05915907
162	0x3d03060f	0.0319882
163	0xbc0ff434	-0.00878625
164	0xbba0a310	-0.004902251
165	0x3d952bee	0.072837695
166	0x3c5198ef	0.01279281
167	0x3c8c0405	0.01709176
168	0xbc38ceec	-0.011279803
169	0x3d7a9b1f	0.06118309
170	0x3c4e921e	0.012608079
171	0x3cd30fb6	0.025764327
172	0xbca3172a	-0.019908506
173	0x3d459e1f	0.0482465
174	0x3d057992	0.03258664
175	0x3d1d9b41	0.03847814
176	0x3d69a811	0.057045046
177	0x3d26608d	0.04061942
178	0x3d0ee6ac	0.034887955
179	0xbcdc4488	-0.026888147
180	0xba925100	-0.0011163056
181	0x3afdaf00	0.0019354522
182	0x3d3ce1cd	0.046113778
183	0x3d782eec	0.060591623
184	0xbca83066	-0.02053089
185	0xbcdb1130	-0.026741594
186	0x3c2972ae	0.010342283
187	0x3bd1422d	0.0063860626
188	0x3cbc8be6	0.023015928
189	0x3d09769e	0.033560388
190	0x3c905f40	0.017623544
191	0xbd049098	-0.032364458
192	0x3ca3aa7c	0.019978754
193	0xbcb24f6b	-0.021766385
194	0x3d03d8d5	0.03218921
195	0x3d701bcd	0.058620263
196	0x3cffaf3d	0.03121149
197	0x3c2bda08	0.010488994
198	0x39833a80	0.00025029853
199	0x3d4f43cc	0.050601766
200	0xbb84f541	-0.004057557
201	0xbcce98ea	-0.0252194
202	0x3d0b144b	0.0339549
203	0x3a95d00a	0.0011429798
204	0x3d56d46b	0.05244867
205	0x3d70d871	0.058800165
206	0xbccad5d3	-0.024760162
207	0xbc9772aa	-0.018487293
208	0x3d6bf8e6	0.057610415
209	0x3a9fb400	0.0012184381
210	0xbc6fed6c	-0.014644008
211	0x3d7c7da7	0.06164327
212	0xbd3ce554	-0.04611714
213	0x3d35251e	0.04422485
214	0xbd461f40	-0.048369646
215	0xbc5a4d1c	-0.013324048
216	0xbd4079bb	-0.04699109
217	0x3d4771a5	0.048692364
218	0xbad4f310	-0.0016246755
219	0x3d827273	0.06369486
220	0x3b86f558	0.0041186027
221	0xbc11f75e	-0.008909075
222	0xbc885a18	-0.016644523
223	0xbcc1b7cd	-0.023647213
224	0xbb5c4cd0	-0.003361512
225	0xbceff5fa	-0.029292095
226	0x3c391e83	0.0112987785
227	0x3d784890	0.060616076
228	0x3c996c52	0.018728409
229	0xbbb14039	-0.0054092673
230	0x3d10fa3e	0.0353949
231	0xbc38bec9	-0.0112759555
232	0x3c61e186	0.013786679
233	0x3cfa8e5a	0.030585457
234	0x3d274c15	0.04084404
235	0xbb981398	-0.0046410076
236	0xbccbe3fd	-0.024888987
237	0x3d289719	0.041159723
238	0x3cf03003	0.029319769
239	0x3ca76d37	0.02043782
240	0xb9137cf7	-0.00014065565
241	0x3d28a298	0.041170686
242	0xbcf9bae1	-0.030484619
243	0x3c6471a4	0.01394311
244	0xbd051a5e	-0.03249585
245	0x3d4223c4	0.04739739
246	0xbd49d943	-0.049279463
247	0x3d040334	0.032229617
248	0xbba8b7f7	-0.0051488834
249	0xbc9b855c	-0.01898449
250	0x3d24883d	0.04016899
251	0x3ce0de7e	0.027449843
252	0x3d184e66	0.03718414
253	0xbcfa6698	-0.030566499
254	0xbd0c4766	-0.03424778
255	0x3c7ab1bd	0.015301165

fc3.weight f4 [1, 300]
0	0xba884c6b	-0.0010398751
1	0xbd0c81f4	-0.03430362
2	0xbcef96d0	-0.029246718
3	0xbc898574	-0.016787268
4	0xbc90559d	-0.017618949
5	0xb8767993	-5.8764195e-05
6	0xb92cdd3e	-0.00016485617
7	0xbcb33f75	-0.021880845
8	0x3a6aac04	0.0008952024
9	0xba0d26b8	-0.00053844927
10	0xbc8fde29	-0.017561989
11	0xbc7faa90	-0.01560463
12	0xbc7c4620	-0.0153975785
13	0xbb1afa4b	-0.0023647721
14	0xbb1534e2	-0.0022767116
15	0xbc87f3ca	-0.01659574
16	0xbc92dc0d	-0.017927194
17	0x3b2ccc5a	0.002636692
18	0xbc95f4ca	-0.018305201
19	0xbc72b8e2	-0.014814587
20	0xbc8ca1d2	-0.017167006
21	0xbaeaab0f	-0.0017903763
22	0x3ac76aa5	0.0015214278
23	0x3a014360	0.0004930999
24	0xbca9a698	-0.02070932
25	0xbc8ab9cd	-0.0169343
26	0xba8c628e	-0.0010710524
27	0xbc9720d9	-0.01844828
28	0xbd895abe	-0.06706761
29	0xbc8fef4b	-0.017570158
30	0xbd0f8812	-0.035041876
31	0xbcb26427	-0.021776272
32	0xbca48c0c	-0.02008631
33	0x3941b60f	0.00018473736
34	0x3ab26808	0.0013611326
35	0xbc8ab610	-0.016932517
36	0xbc9527d8	-0.018207476
37	0xbc74e7f1	-0.014947877
38	0xbc7ab4a8	-0.015301861
39	0xbc9b1759	-0.018932031
40	0x3ac84e18	0.0015282063
41	0xbaade8af	-0.0013268198
42	0x3b2b2c66	0.0026118993
43	0x3b442655	0.0029930074
44	0xbce814c3	-0.028330212
45	0xbc9ddeed	-0.019271338
46	0x398d4347	0.0002694374
47	0xbcb9a255	-0.022660414
48	0xbc8bd5d5	-0.017069736
49	0x3b22c5f0	0.0024837218
50	0x3ac727ac	0.0015194318
51	0xbc87ef8c	-0.016593717
52	0x3ad618aa	0.0016334255
53	0x389f0380	7.582363e-05
54	0xbca0ee37	-0.01964484
55	0xbd099d97	-0.033597555
56	0xbc9bfbac	-0.019040905
57	0xbc9a9a06	-0.018872272
58	0xbc90f954	-0.017697014
59	0xbcb6d28a	-0.02231719
60	0xbca00cee	-0.019537415
61	0xbc6e31c6	-0.014538234
62	0xbd0ed5e2	-0.034871943
63	0xba8aba1f	-0.0010584033
64	0xbd39c71f	-0.045355912
65	0xbcc959ad	-0.024578894
66	0xbaa6206c	-0.0012674457
67	0xba28e120	-0.00064422376
68	0xbd4d870d	-0.050177623
69	0xbc86f528	-0.016474321
70	0xba4f5c35	-0.0007910163
71	0x3a97302f	0.0011534746
72	0xb942a599	-0.00018562972
73	0xbcb3034c	-0.021852158
74	0xbc727ed2	-0.014800744
75	0x3a850122	0.0010147432
76	0xbc8ae05c	-0.016952686
77	0xbc8078ae	-0.015682545
78	0xb9793e5d	-0.00023769723
79	0x3b069b20	0.002053924
80	0xb9d6d3d0	-0.00040975073
81	0xbc85af7e	-0.016319033
82	0xbc928195	-0.017884055
83	0xbc8fdd93	-0.01756171
84	0xbc9d7192	-0.019219194
85	0x3b222edb	0.0024747166
86	0xbc928078	-0.017883524
87	0xbc863e2b	-0.016387066
88	0xbd1647ce	-0.036689572
89	0xbd8216fc	-0.0635204
90	0x3a9170cc	0.0011096238
91	0xb8df8c20	-0.00010659569
92	0x3aa6a648	0.0012714351
93	0xbc87d472	-0.016580794
94	0x3adc23a8	0.0016795294
95	0x3a1839d4	0.0005806957
96	0xbc953318	-0.01821284
97	0xbc90754c	-0.017634057
98	0xbc9383f5	-0.018007258
99	0xb89984c6	-7.3203395e-05
100	0x3aa1a269	0.0012331727
101	0xb9d7bf40	-0.00041150488
102	0x394f510e	0.00019771254
103	0xbc8fceff	-0.017554758
104	0x38e836e0	0.00011072843
105	0xb8b846c0	-8.786982e-05
106	0x3a732cf0	0.00092764106
107	0xbafe1b3f	-0.0019386782
108	0xbcba7889	-0.022762554
109	0x38e1e02b	0.000107705906
110	0xbb318155	-0.0027085145
111	0xbc8b3daa	-0.016997177
112	0xbcb434b8	-0.021997795
113	0x3b2db47c	0.0026505282
114	0xbcab68c4	-0.02092398
115	0xbb01fa5e	-0.0019833068
116	0xbca2cbbd	-0.01987254
117	0xbb0278ca	-0.0019908422
118	0x3b23d1d8	0.0024996903
119	0x3b1bece9	0.0023792333
120	0xbcb791b4	-0.022408344
121	0xbc9e5fba	-0.019332755
122	0x3b047d12	0.002021615
123	0xbc9d6f18	-0.019218013
124	0x39dbbeb4	0.0004191302
125	0xbc9973d4	-0.018731989
126	0xbb0a5f71	-0.0021114016
127	0xb9ba08b0	-0.00035483157
128	0x3941eb2d	0.00018493524
129	0xbc938ea7	-0.018012358
130	0xba8236c6	-0.0009934537
131	0xb94c9a67	-0.00019512475
132	0xbc91ee8f	-0.017813949
133	0xba23535c	-0.0006230378
134	0x3b24008e	0.0025024745
135	0xbc95f9ad	-0.018307531
136	0xbc9a4bbb	-0.01883494
137	0x3b24b814	0.0025134133
138	0xbb3a2e80	-0.0028409064
139	0xbc7b6e90	-0.015346184
140	0xba38b1f8	-0.00070455624
141	0xbc65026c	-0.013977628
142	0xbc7d2668	-0.015451051
143	0xbc91b969	-0.017788606
144	0x3b27a348	0.00255795
145	0xba68a289	-0.0008874317
146	0xbc7cb441	-0.015423835
147	0xbc9f61d9	-0.019455837
148	0x3b300daa	0.0026863613
149	0xbc92ec64	-0.017934985
150	0xb93fca6e	-0.0001829059
151	0xbc9403cf	-0.018068222
152	0xbc932ec0	-0.017966628
153	0xba14248b	-0.0005651197
154	0xbc8b1828	-0.016979292
155	0xbc8dbaa0	-0.017300904
156	0xbd1b7b90	-0.037959635
157	0xbc8a5238	-0.016884908
158	0x3b13a0cc	0.0022526262
159	0xba617dc4	-0.00086018094
160	0xbd22a048	-0.039703637
161	0xbca64d8a	-0.020300645
162	0xbc9c741f	-0.01909834
163	0xbca68c47	-0.020330561
164	0x3b2d9ffe	0.0026493068
165	0xbd0a5caf	-0.033779796
166	0xbce15353	-0.027505552
167	0x3aeaf0e5	0.0017924575
168	0xbb2f9270	-0.0026790164
169	0xbd66d131	-0.056351844
170	0x394f4fed	0.00019770833
171	0x3a810a50	0.0009844992
172	0xbcadae5a	-0.021201301
173	0xbc93671e	-0.017993506
174	0xbc95df11	-0.018294843
175	0xbd0a1851	-0.033714596
176	0xbd4e733f	-0.050402876
177	0x3a57d11c	0.0008232759
178	0xbca27423	-0.019830769
179	0xbc93e4be	-0.018053409
180	0x39c6ee50	0.0003794306
181	0x3a98ae00	0.0011648536
182	0x3b0bc61c	0.00213278
183	0xbc79d00b	-0.015247355
184	0x3ac19c81	0.0014771373
185	0xbc99a198	-0.018753812
186	0x3aad3d32	0.001321709
187	0xbc918529	-0.017763691
188	0x3a691d6d	0.00088926294
189	0xbc8a0fd1	-0.016853245
190	0xbc8e397a	-0.017361391
191	0x3a55ab58	0.00081508374
192	0xbd169675	-0.03676458
193	0xb77cfb4c	-1.507888e-05
194	0xbc97fc84	-0.018553026
195	0xbc82807e	-0.01593041
196	0xbc923fe6	-0.017852735
197	0xbcb7acab	-0.022421202
198	0xbaf7e010	-0.001891138
199	0xbc93031b	-0.017945817
200	0xbc86705c	-0.016410999
201	0xbc9f89cb	-0.019474884
202	0xbd105824	-0.035240307
203	0xbd1143c0	-0.035465002
204	0xbc8cadc5	-0.017172704
205	0xbc8f532f	-0.01749572
206	0xbc8a44df	-0.016878543
207	0xb9ed2e38	-0.00045238598
208	0xbca6c851	-0.02035919
209	0xbaae84da	-0.0013314739
210	0xbca91890	-0.020641595
211	0xbc8f7dab	-0.017515978
212	0xb859e608	-5.1951065e-05
213	0x3a801016	0.0009770419
214	0xbabc9580	-0.0014387816
215	0xbc6b8978	-0.014376037
216	0x3a46d1e8	0.0007584379
217	0xbc7b174a	-0.015325377
218	0xbc9aa354	-0.018876709
219	0xbc94f271	-0.018182011
220	0x3a8a5427	0.0010553644
221	0xbac9a861	-0.0015385264
222	0xbc8fe478	-0.017564997
223	0xbca6fb80	-0.020383596
224	0xba4fa4f8	-0.00079210056
225	0xb9dae4a0	-0.0004175054
226	0xbcbbcda8	-0.022925213
227	0xbc9e3e7a	-0.0193169
228	0x3a90fc88	0.0011061588
229	0xbc8a5472	-0.01688597
230	0xbc9991c3	-0.018746262
231	0xbc8faa73	-0.017537331
232	0xbc93414d	-0.017975474
233	0xbc849630	-0.016184896
234	0xbc88c772	-0.016696665
235	0xbb3ef20e	-0.0029135975
236	0x3a7a03c8	0.00095373066
237	0x3a9fac8c	0.001218216
238	0xbc80bd30	-0.015715212
239	0xbcc5151d	-0.02405792
240	0xbc9e1d79	-0.019301163
241	0xba2025e3	-0.0006109161
242	0xbc91c49f	-0.017793952
243	0xbb4402cc	-0.0029908894
244	0xbafb1f78	-0.0019159159
245	0xbc8f81b0	-0.017517895
246	0x39e53510	0.00043717818
247	0xbd12e7c2	-0.035865553
248	0xbcb94628	-0.02261646
249	0xbca84b76	-0.020543795
250	0xbc94ec77	-0.018179161
251	0xba926594	-0.0011169189
252	0xba82c9a4	-0.0009978306
253	0xbc9052ae	-0.01761755
254	0x3b3a7382	0.0028450196
255	0xbc7fa121	-0.015602381
