lab5/code/DDPG/checkpoint_critic.pth (torch, 491927 bytes, 5 tensors)

fcs1.weight f4 [400, 3]
-0.17053176 0.019033266 -0.07967936 0.015538247 0.005208474 -0.013698709 -0.04908804 -0.02430026
0.018065114 -0.13828179 0.048840232 0.0031902986 -0.051404964 -0.01143225 0.05553306 -0.15706275
0.06265696 0.03173854 -0.21753973 0.0032538036 0.05943097 -0.009633955 0.0060854433 -0.015359321
0.008166634 0.023470987 0.00070664287 -0.14236756 -0.020386295 0.05484872 -0.24659054 -0.055518303
-0.100249656 -0.036568873 0.0038089112 0.010098141 -0.006675571 0.013158921 0.023982633 -0.031366445
-0.0449964 0.019239847 0.045202274 0.003468614 0.032990526 -0.10354726 0.023811892 -0.01307682
-0.073495105 -0.025651213 0.03990537 -0.034775365 -0.019871406 0.03913522 -0.1162048 0.07711162
0.08185871 0.034860395 -0.0072997515 0.006823466 -0.17009504 -0.02941215 -0.08909619 -0.20544466
0.042827867 0.08516085 0.010482368 0.07688897 -0.0051141814 -0.052347623 0.063192315 0.013039223
0.016453523 -0.041938264 -0.0016615018 -0.043295033 -0.0007156012 -0.028768932 -0.0053967023 -0.018238947
-0.027934227 -0.041072525 0.06810303 -0.036084488 0.013752626 -0.006098507 -0.025293639 -0.1017396
0.058611758 -0.040873885 -0.047130056 -0.043456167 0.039358784 -0.24609964 0.06373143 0.050033864
-0.009891301 0.042708937 0.036198124 -0.02095793 0.054447815 -0.023188798 -0.09733007 -5.3969397e-05
0.0024481886 -0.18780418 0.00039270037 0.044369176 -0.23455727 0.018043078 0.07177991 -0.081198715
0.02544631 0.0046165837 -0.19354275 -0.02828901 -0.057484135 -0.029948644 0.0035033165 -0.009484137
-0.25019512 0.013167677 0.029050143 -0.03915172 -0.017013364 -0.010802876 -0.019119186 -0.015596615
0.01292256 -0.19538708 0.11595445 0.04642394 -0.24079537 0.007560272 -0.073281184 -0.0166456
0.024584588 -0.006038379 0.015934046 0.0008656954 0.018720727 -0.19227724 -0.012837435 -0.108561724
-0.00055965036 -0.032615084 0.038425226 -0.15132578 -0.022879459 0.07149049 -0.11521566 0.063621834
0.013173333 -0.17252459 0.029338825 -0.018409314 -0.31636772 0.024376314 0.014724778 -0.1688988
-0.01945226 0.053118836 -0.19228871 -0.09286631 0.021174876 -0.011741567 0.018732492 0.015890721
-0.23952776 -0.01118533 0.06480829 -0.21894729 0.45768774 -0.0009805997 -0.2533844 0.00024374486
0.030380884 -0.08510703 0.04261147 -0.040203907 0.04174347 0.011283435 -0.025724554 0.031658288
-0.009570636 0.010274105 -0.38252056 -0.009552907 0.004544078 -0.18166018 -0.019073745 0.048749704
0.03397328 -0.047561616 0.008538514 -0.011469308 -0.011522063 -0.020532468 -0.23569033 0.08424981
0.07466746 -0.010175712 0.030933846 -0.0116023235 -0.0010922849 -0.0031657703 -0.039919626 -0.14116977
0.04235863 -0.019137725 -0.13314797 -0.017980933 0.09514441 -0.21619779 -0.42659605 -0.005124943
-0.12565686 -0.01621718 0.05224213 -0.24115655 -0.022494946 0.03471904 -0.15472305 0.02401934
0.0023541285 -0.21865775 0.06842567 0.079606734 -0.15607996 0.08877151 0.03844953 -0.026674286
-0.0057085645 -0.019282566 0.029370258 -0.034088396 -0.027746987 -0.08497369 0.04269599 -0.026423907
-0.11484223 -0.044367746 0.098063804 -0.2173999 -0.025534388 -0.06799086 -0.23668872 -0.0019254993
-0.07840851 -0.02401177 -0.020263309 -0.0016174475 -0.21067433 -0.043971907 0.042579975 -0.1473367
00000000: e19f 2ebe a7eb 9b3c ef2e a3bd 2294 7e3c
00000010: d9ab aa3b 8d70 60bc 8a10 49bd 5711 c7bc
00000020: 4afd 933c be99 0dbe b20c 483d 5414 513b
00000030: 038e 52bd 554e 3bbc a276 633d 0fd5 20be
00000040: 4b52 803d 4500 023d bcc2 5ebe c43d 553b
00000050: e46d 733d bcd7 1dbc 6668 c73b a9a5 7bbc
00000060: 58cd 053c 3a46 c03c 003e 393a cdc8 11be
00000070: 2901 a7bc 0da9 603d 3b82 7cbe 2967 63bd
00000080: b14f cdbd 3ec9 15bd ed9e 793b ac72 253c
00000090: c0be dabb 8498 573c 3a77 c43c 1a7a 00bd
000000a0: 254e 38bd e29c 9d3c 0526 393d b051 633b
000000b0: 1321 073d 9610 d4bd 2811 c33c 2940 56bc
000000c0: 9a84 96bd 7e22 d2bc d073 233d 9d70 0ebd
000000d0: 5cc9 a2bc 414c 203d c8fc edbd b2ec 9d3d
000000e0: 8aa5 a73d c6c9 0e3d c132 efbb 6297 df3b
000000f0: 652d 2ebe c0f1 f0bc 1078 b6bd 1660 52be
00000100: 466c 2f3d d068 ae3d 3dbe 2b3c f777 9d3d
00000110: dd94 a7bb 766a 56bd f96a 813d 77a2 553c
00000120: 8ac9 863c 75c7 2bbd c0c6 d9ba 2256 31bd
00000130: 2f97 3bba d3ac ebbc d2d6 b0bb d869 95bc
00000140: 52d6 e4bc aa3b 28bd 9a79 8b3d 54cd 13bd
00000150: b252 613c fcd5 c7bb 9b34 cfbc da5c d0bd
00000160: e212 703d 606b 27bd 720b 41bd 18ff 31bd
00000170: ad36 213d 8b01 7cbe a085 823d 4ff0 4c3d
00000180: 200f 22bc 91ef 2e3d 7c44 143d f7af abbc
00000190: ac04 5f3d 6ff6 bdbc fd54 c7bd 335d 62b8
000001a0: ca71 203b bd4f 40be 5ae3 cd39 74bc 353d
000001b0: c82f 70be 14cf 933c 5801 933d 834b a6bd
000001c0: c874 d03c b646 973b 1230 46be 5bbe e7bc
000001d0: 7c74 6bbd dc56 f5bc e697 653b 5b63 1bbc
000001e0: 9319 80be 3ebd 573c 91fa ed3c 8e5d 20bd
000001f0: 9c5f 8bbc 8cfe 30bc d79f 9cbc f288 7fbc
00000200: 25b9 533c 8d13 48be 8779 ed3d 0827 3e3d
00000210: 1093 76be 28bc f73b 7214 96bd 5a5c 88bc
00000220: 9e65 c93c 98dd c5bb 1e88 823c d6ef 623a
00000230: 365c 993c 53e4 44be 1b54 52bc 9c55 debd
00000240: 80b5 12ba 6597 05bd c563 1d3d 25f5 1abe
00000250: b46d bbbc 9b69 923d 30f6 ebbd 2a4c 823d
00000260: f7d4 573c 49aa 30be fa57 f03c 21cf 96bc
00000270: f3fa a1be d6b0 c73c 3240 713c cff3 2cbe
00000280: 595a 9fbc 2393 593d 55e7 44be b130 bebd
00000290: ef76 ad3c b45f 40bc e274 993c 422d 823c
000002a0: c446 75be ad42 37bc 35ba 843d b833 60be
000002b0: 0c56 ea3e 7787 80ba 9abb 81be c395 7f39
000002c0: 55e1 f83c 984c aebd 5d89 2e3d daac 24bd
000002d0: 33fb 2a3d 28de 383c 4dbc d2bc 1fac 013d
000002e0: 28ce 1cbc b854 283c bcd9 c3be cc83 1cbc
000002f0: 7de6 943b 2005 3abe 8b40 9cbc c5ad 473d
00000300: 9127 0b3d f8cf 42bd 20e5 0b3c c4e9 3bbc
00000310: 09c7 3cbc b533 a8bc ce58 71be 2a8b ac3d
00000320: 41eb 983d 08b8 26bc fa68 fd3c ac17 3ebc
00000330: 002b 8fba d078 4fbb c382 23bd cf8e 10be
00000340: 3e80 2d3d b8c6 9cbc f157 08be c04c 93bc
00000350: 13db c23d f462 5dbe cc6a dabe 23ef a7bb
00000360: 31ac 00be e4d9 84bc d8fb 553d bef1 76be
00000370: 5247 b8bc 8d35 0e3d b86f 1ebe 35c4 c43c
00000380: b947 1a3b d1e7 5fbe c222 8c3d db08 a33d
00000390: 6dd3 1fbe d6cd b53d 417d 1d3d 0884 dabc
000003a0: e90e bbbb 79f6 9dbc e599 f03c 46a0 0bbd
000003b0: a64d e3bc b006 aebd fee1 2e3d f376 d8bc
000003c0: 6732 ebbd f4ba 35bd add5 c83d 149e 5ebe
000003d0: 7e2d d1bc cb3e 8bbd 875e 72be 0961 fcba
000003e0: a494 a0bd 55b4 c4bc 3dff a5bc 8800 d4ba
000003f0: 03bb 57be e31b 34bd 5768 2e3d 6fdf 16be

fcs1.bias f4 [400]
-0.17429847 -0.16716045 -0.2271125 0.20007506 0.5400402 0.1610029 0.09930538 0.25310913
-0.028875172 0.12011522 -0.0630809 0.16168632 -0.45355207 -0.48179504 -0.53682333 0.09597834
0.39619902 0.28760782 0.07483969 -0.0970561 0.15350167 -0.13300855 0.23818825 0.339486
-0.33674183 0.5417313 -0.36977524 0.57376593 0.33078045 0.41147885 -0.55439883 -0.21230109
0.51205117 0.5810111 0.47630233 0.052221764 -0.10728131 0.22808896 0.19055022 -0.12713034
-0.0019964697 -0.2655479 0.28421307 -0.013177537 -0.21938996 -0.50478935 -0.19361335 -0.06229499
-0.33888492 -0.19822274 0.51521903 0.12129097 -0.31226155 -0.11696274 0.04479621 -0.16111103
-0.23625243 -0.22622785 0.0036313736 0.5528516 -0.19961774 -0.28067753 -0.25143766 -0.20607299
-0.57431865 0.53998315 -0.16879019 -0.47488695 -0.54824877 0.17598185 0.06981464 -0.26551947
0.121958435 0.04655771 0.47185093 0.11903598 0.22142604 -0.19128947 -0.25273293 0.5349786
0.190911 -0.017678874 -0.31609687 0.5596992 0.114744544 -0.10490086 -0.48693576 -0.41578588
0.11105605 -0.47216284 -0.40333822 -0.25648206 0.24551064 -0.19711547 -0.5471174 0.41633108
-0.4256448 0.4863506 0.5385471 -0.26466313 0.26148158 -0.2531096 0.538788 -0.44371438
0.20456517 -0.2970547 -0.56260127 -0.46432734 0.052023612 0.5256537 0.25219014 0.20808017
-0.52144456 0.42278343 0.13204992 0.23668368 0.047074854 0.20656252 0.0059548463 -0.4656394
0.13360272 -0.1973727 -0.06854169 0.10305033 -0.32331258 0.5571186 0.49711135 -0.28158247
0.31326404 0.030737765 0.13392368 0.2903816 -0.20429459 -0.57238 -0.22225747 0.5390398
-0.3615144 0.3220727 -0.53651583 -0.39291137 0.4391854 0.5488615 0.41942185 -0.5287373
0.55785644 -0.37222242 -0.46025804 -0.027674293 0.12322225 0.28074422 -0.38049304 -0.18514206
-0.39529234 0.4765543 0.23947893 0.3361237 0.5471613 0.4569798 0.10154988 0.13177073
-0.44116694 -0.10308576 0.116003886 0.034516033 0.14913195 -0.12960401 -0.47690487 0.4381218
0.36648378 0.5372036 0.21846846 -0.43804225 0.06486989 0.494562 -0.31480315 -0.20808382
-0.5091724 -0.41996336 -0.4773662 0.42503667 0.45599887 0.44857422 0.33380476 -0.1501503
0.10416933 -0.47348195 0.17202267 0.20062284 0.09889841 -0.27764398 -0.17357294 0.53865665
-0.16001667 0.197109 -0.036520306 0.1632539 -0.44601798 0.36005643 0.45152232 -0.32650432
-0.065350436 0.568334 -0.23120645 0.21567322 0.24722414 -0.35716224 0.43505302 0.026488846
0.4333318 0.41707665 -0.29443157 -0.36776227 -0.25711387 -0.49512365 -0.17551051 0.14258477
-0.09111223 0.4594456 -0.004653781 0.5178177 -0.051477734 0.30517444 0.03727266 -0.33632773
0.05098768 -0.33692658 0.4997415 0.50426954 -0.4237282 -0.48305455 -0.44807 -0.023881089
-0.5505343 -0.22784439 -0.49303454 -0.26467302 0.406461 0.21392462 -0.17340237 -0.44630003
0.16433726 0.14646319 -0.06174458 -0.44458646 -0.38499722 0.4195365 -0.54885125 0.30954054
-0.28110448 -0.30735767 0.5290133 -0.39951524 0.5777474 -0.36178443 -0.10716739 0.36827314
00000000: 4c7b 32be 1c2c 2bbe 2e90 68be 7ae0 4c3e
00000010: 1340 0a3f f2dd 243e 9e60 cb3d 8597 813e
00000020: a08b ecbc f8fe f53d 8f30 81bd 1991 253e
00000030: fa37 e8be d7ad f6be 416d 09bf 4b90 c43d
00000040: 99da ca3e 5541 933e 8d45 993d 59c5 c6bd
00000050: 8b2f 1d3e 6533 08be 9fe7 733e 1cd1 ad3e
00000060: 6d69 acbe e7ae 0a3f 2e53 bdbe 53e2 123f
00000070: 0e5c a93e 5bad d23e 15ed 0dbf 7565 59be
00000080: c915 033f 25bd 143f e6dd f33e 7de6 553d
00000090: 4eb6 dbbd 2790 693e 991f 433e 752e 02be
000000a0: 34d7 02bb e5f5 87be 6084 913e 99e6 57bc
000000b0: c3a7 60be e039 01bf 9442 46be 0829 7fbd
000000c0: 5382 adbe e7fa 4abe 65e5 033f 6667 f83d
000000d0: bfe0 9fbe 298a efbd 3b7c 373d 4afa 24be
000000e0: 28ec 71be 46a8 67be 57fc 6d3b af87 0d3f
000000f0: 9868 4cbe f7b4 8fbe 70bc 80be cc04 53be
00000100: 8c06 13bf 563c 0a3f 56d7 2cbe 6224 f3be
00000110: 085a 0cbf 9634 343e fafa 8e3d 2bf2 87be
00000120: 58c5 f93d 4cb3 3e3d 7296 f13e 23c9 f33d
00000130: 82bd 623e 63e1 43be 3666 81be 5cf4 083f
00000140: 2c7e 433e 49d3 90bc 73d7 a1be 7248 0f3f
00000150: 30ff ea3d 43d6 d6bd a54f f9be e3e1 d4be
00000160: 5b71 e33d 54bf f1be 5982 cebe 9e51 83be
00000170: 2467 7b3e a3d8 49be e30f 0cbf 5929 d53e
00000180: 1dee d9be f202 f93e 39de 093f ed81 87be
00000190: eae0 853e 9597 81be 03ee 093f 882e e3be
000001a0: 8879 513e 8e17 98be a306 10bf 50bc edbe
000001b0: b616 553d 3e91 063f 111f 813e f812 553e
000001c0: 647d 05bf 1277 d83e 1838 073e 355d 723e
000001d0: 90d1 403d 2085 533e df20 c33b 4a68 eebe
000001e0: 27cf 083e 121c 4abe 965f 8cbd 0d0c d33d
000001f0: 3a89 a5be 539f 0e3f 6185 fe3e 942b 90be
00000200: 2564 a03e c4cd fb3c 4a23 093e e6ac 943e
00000210: 9a32 51be 7f87 12bf 7697 63be 83fe 093f
00000220: 6a18 b9be b7e6 a43e 1a59 09bf ae2b c9be
00000230: e9dc e03e 3082 0c3f 76be d63e 545b 07bf
00000240: aecf 0e3f f093 bebe f1a6 ebbe 33b5 e2bc
00000250: f25b fc3d b5bd 8f3e fccf c2be e195 3dbe
00000260: c263 cabe edfe f33e f739 753e 6818 ac3e
00000270: c312 0c3f 42f9 e93e 62f9 cf3d e8ee 063e
00000280: a2e0 e1be a01e d3bd 7293 ed3d af60 0d3d
00000290: 0cb6 183e eab6 04be e02c f4be 8051 e03e
000002a0: c3a3 bb3e 2d86 093f 32b6 5f3e 1347 e0be
000002b0: 81da 843d 3b37 fd3e e12d a1be ed13 55be
000002c0: 1f59 02bf 7005 d7be 5869 f4be 689e d93e
000002d0: af78 e93e 85ab e53e 75e8 aa3e 00c1 19be
000002e0: bb56 d53d 3a6c f2be b626 303e 1370 4d3e
000002f0: 408b ca3d 5a27 8ebe 1bbd 31be 67e5 093f
00000300: 69db 23be f1d6 493e 5196 15bd 082c 273e
00000310: 785c e4be 5159 b83e ef2d e73e 932b a7be
00000320: 73d6 85bd 567e 113f 62c1 6cbe 71d9 5c3e
00000330: 5328 7d3e f8dd b6be 45bf de3e 23ff d83c
00000340: aadd dd3e 128b d53e bcbf 96be 564b bcbe
00000350: 6ea4 83be d980 fdbe 07b9 33be be01 123e
00000360: 0d99 babd 743c eb3e bf7e 98bb b38f 043f
00000370: 51da 52bd d33f 9c3e 37ab 183d 2633 acbe
00000380: 75d8 503d a481 acbe 1ede ff3e cf17 013f
00000390: e7f2 d8be ed52 f7be 6e69 e5be 46a2 c3bc
000003a0: d1ef 0cbf 0a50 69be 066f fcbe 3983 87be
000003b0: a81b d03e 0e0f 5b3e 6490 31be 7081 e4be
000003c0: 0748 283e 72fa 153e e2e7 7cbd d6a0 e3be
000003d0: 5b1e c5be 7dcd d63e 8481 0cbf 197c 9e3e
000003e0: edec 8fbe fc5d 9dbe 6a6d 073f 438d ccbe
000003f0: 41e7 133f cf3b b9be 947a dbbd 4c8e bc3e

fc2.weight f4 [300, 401]
0.05368848 -0.052343234 0.025530204 0.0073438818 0.039287496 0.087174445 0.0023856924 0.008648498
0.028158978 0.08554408 0.02258589 0.06711165 0.0058345348 -0.038825594 -0.05748472 0.042634103
0.02023759 0.030222556 0.015524756 0.013358068 0.0130794365 0.09388431 -0.04662667 0.0023796249
-0.030057788 0.021940602 0.055481616 0.065728106 -0.04735967 0.021488873 0.046234146 0.084699705
0.049447935 0.06624796 -0.019697722 0.030706659 0.05031768 0.015191448 0.014962788 0.006617634
0.09507318 0.03484799 -0.03225681 0.034115057 0.13849886 -0.020881236 0.031564213 0.11752801
0.055188797 0.040559556 0.03213881 0.028139682 0.22834039 0.06790273 0.047589775 0.0078877285
0.16422637 -0.36426917 0.10610839 0.039767124 0.04538063 0.047383577 0.30645347 0.11719392
-0.044227105 -0.012534626 0.11908843 0.047970094 0.036563523 0.057682876 0.08025948 -0.40156916
0.01395656 0.014590056 0.068369925 0.066671066 0.02935892 -0.032769572 -0.052492067 -0.0040818686
-0.02526044 0.052252743 0.07642195 0.0365665 0.031920996 0.016010936 0.03085585 0.05259352
0.031476863 0.0073873177 0.0010487773 0.015282601 -0.036897615 -0.008113179 -0.044212926 -0.0120380325
-0.028767928 -0.027313614 -0.038128186 -0.2595649 0.04114918 0.07752258 -0.0363921 -0.029925484
0.0012594018 -0.045401562 0.03459409 0.04039623 0.096937165 -0.033170704 -0.022983223 0.0753982
-0.040844463 0.05897145 0.039102163 -0.0117179 0.042623382 0.061291117 -0.23277226 0.032271616
0.087763816 0.012437411 0.028784944 0.09898404 0.033940304 0.042789266 0.014222031 0.17084877
0.04477906 0.04226451 0.051857933 0.04554775 0.2784068 0.020838372 -0.013122946 0.03400216
0.0359011 0.0529983 -0.017531738 -0.022641558 -0.0061716014 0.06086356 0.028651 -0.05524085
0.054430302 0.005172029 0.03874304 0.12971006 0.00089696835 -0.0426535 -0.0028429553 -0.011252036
0.024564488 0.0064919814 -0.011802068 0.027208988 -0.001904483 0.01412322 0.026682904 0.015077379
0.03605979 0.0390966 -0.007608411 0.07762334 0.06964269 -0.045714457 0.028757267 0.07003206
0.06247623 -0.0204144 0.020498453 -0.025273405 0.078047715 0.04185006 -0.035954557 0.07894702
-0.024118565 -0.019977838 0.014354892 -0.047719263 0.066008426 0.0030721135 0.06405398 0.04898622
0.011384439 0.027115367 0.011031873 0.06625522 0.004431174 0.017906876 0.1310776 0.054506563
-0.2523292 0.053964168 0.032987624 0.07765568 0.042927057 0.044890117 0.04094592 0.080918245
0.094835535 -0.0173594 0.00073869154 -0.039950147 0.019457037 0.050416112 -0.028767759 0.042205505
0.033225674 0.057714123 0.012400605 -0.0049516186 0.04891654 0.01844322 0.036077537 0.045453936
0.09335264 0.03517451 0.11387208 -0.035850715 0.024517298 -0.011309609 0.112861186 -0.019970026
-0.31504098 -0.03595461 0.046193637 -0.00075654493 0.039042503 0.033407666 -0.050535243 0.036364492
-0.012008298 -0.056136325 -0.011600375 0.0730235 0.0106855985 0.03492812 0.12630251 0.00888513
0.03854151 0.05082698 0.04056601 -0.023079865 0.23673567 0.0597244 -0.055559006 0.011536167
-0.048184007 0.021948636 -0.024109198 -0.057092182 0.054691695 0.18771712 0.004288152 -0.034583453
00000000: 74e8 5b3d dc65 56bd b824 d13c f2a4 f03b
00000010: edeb 203d 8488 b23d 4759 1c3b 6eb2 0d3c
00000020: a8ad e63c bc31 af3d 0b06 b93c d571 893d
00000030: a02f bf3b 9607 1fbd 1975 6bbd 19a1 2e3d
00000040: 4dc9 a53c 4b95 f73c 8c5b 7e3c ccdb 5a3c
00000050: 224b 563c 6b46 c03d 9bfb 3ebd 7bf3 1b3b
00000060: c03b f6bc c7bc b33c b140 633d 759c 863d
00000070: 37fc 41bd 6f09 b03c 0460 3d3d 0a77 ad3d
00000080: eb89 4a3d 03ad 873d 1e5d a1bc 888c fb3c
00000090: e919 4e3d 8de5 783c 7b26 753c bdd8 d83b
000000a0: bab5 c23d c4bc 0e3d b81f 04bd 3bbc 0b3d
000000b0: a5d2 0d3e 200f abbc 7a49 013d 86b2 f03d
000000c0: a60d 623d c721 263d fca3 033d 3185 e63c
000000d0: 10d2 693e 9610 8b3d 7fed 423d 883b 013c
000000e0: f52a 283e 7d81 babe 5b4f d93d dae2 223d
000000f0: 0ae1 393d 4815 423d 78e7 9c3e 5e03 f03d
00000100: 7b27 35bd 085e 4dbc a3e4 f33d 4a7c 443d
00000110: a2c3 153d e144 6c3d 155f a43d 799a cdbe
00000120: 0eaa 643c 210b 6f3c 8805 8c3d d78a 883d
00000130: 1e82 f03c 6339 06bd ec01 57bd 32c1 85bb
00000140: fbee cebc f906 563d 1c83 9c3d c1c6 153d
00000150: 97bf 023d 5e29 833c 68c5 fc3c 4e6c 573d
00000160: e2ed 003d 5011 f23b 2077 893a e063 7a3c
00000170: f421 17bd 24ed 04bc 9d18 35bd 2b3b 45bc
00000180: b8aa ebbc cdc0 dfbc 4d2c 1cbd b1e5 84be
00000190: 0b8c 283d 29c4 9e3d e20f 15bd 4a26 f5bc
000001a0: 8312 a53a fdf6 39bd 88b2 0d3d 8476 253d
000001b0: fe86 c63d 01de 07bd 5047 bcbc 5f6a 9a3d
000001c0: 864c 27bd 0c8c 713d 9729 203d 6ffc 3fbc
000001d0: db95 2e3d 650c 7b3d da5b 6ebe 3e2f 043d
000001e0: 84bd b33d 48c6 4b3c 67ce eb3c 25b8 ca3d
000001f0: fd04 0b3d cc43 2f3d 8603 693c fbf2 2e3e
00000200: 3f6a 373d 8d1d 2d3d fc68 543d 4790 3a3d
00000210: 568b 8e3e 3cb5 aa3c a001 57bc d945 0b3d
00000220: 080d 133d bf14 593d b89e 8fbc ca7a b9bc
00000230: 253b cabb 114c 793d 80b5 ea3c 3b44 62bd
00000240: 4ff2 5e3d 207a a93b 06b1 1e3d b7d2 043e
00000250: 8722 6b3a 70b5 2ebd e050 3abb 765a 38bc
00000260: 773b c93c b0ba d43b 765d 41bc 62e5 de3c
00000270: d89f f9ba 1465 673c 1b96 da3c 1c07 773c
00000280: 6eb3 133d c223 203d fa4f f9bb fcf8 9e3d
00000290: d4a0 8e3d 153f 3bbd 5c94 eb3c f86c 8f3d
000002a0: 13e7 7f3d 1a3c a7bc 5fec a73c 2c0a cfbc
000002b0: 7bd7 9f3d f86a 2b3d 1645 13bd faae a13d
000002c0: 4c94 c5bc 90a8 a3bc c830 6b3c 4675 43bd
000002d0: 6d2f 873d 8355 493b bc2e 833d c6a5 483d
000002e0: cc85 3a3c 0c21 de3c 07bf 343c d1b0 873d
000002f0: 6233 913b 71b1 923c 3539 063e 4642 5f3d
00000300: 4b31 81be 8809 5d3d 081e 073d f109 9f3d
00000310: 48d4 2f3d b3de 373d e9b6 273d 77b8 a53d
00000320: 2239 c23d 4d35 8ebc c0a4 413a c4a2 23bd
00000330: 5d64 9f3c 2081 4e3d 5daa ebbc aedf 2c3d
00000340: a517 083d a565 6c3d e82b 4b3c 3041 a2bb
00000350: b65c 483d 3c16 973c 0ac6 133d e82d 3a3d
00000360: ab2f bf3d 2613 103d c435 e93d 33d8 12bd
00000370: 80d8 c83c f04b 39bc c423 e73d 2e98 a3bc
00000380: 0d4d a1be 2445 13bd 8a35 3d3d df52 46ba
00000390: 08eb 1f3d 7ad6 083d 0bfe 4ebd eff2 143d
000003a0: 74be 44bc 34ef 65bd 800f 3ebc 588d 953d
000003b0: a612 2f3c ca10 0f3d 7255 013e f092 113c
000003c0: b4dd 1d3d f42f 503d 8b28 263d fc11 bdbc
000003d0: d66a 723e 93a1 743d d791 63bd 3102 3d3c
000003e0: 985c 45bd a0cd b33c a780 c5bc 7ed9 69bd
000003f0: 6604 603d eb38 403e a083 8c3b 61a7 0dbd

fc2.bias f4 [300]
0.051523034 0.0043294653 -0.033856373 0.033810772 -0.043421064 -0.010415976 -0.039403692 0.023923172
0.030175032 0.024781657 0.009347028 -0.031032093 -0.0147772785 -0.017483896 0.039072722 0.039711438
-0.027767576 0.017619204 0.04978366 -0.044335615 0.021059612 0.014927948 -0.05841069 0.027154047
-0.04365664 -0.15246621 -0.013733672 -0.03601298 0.05400535 0.02005767 0.022165643 0.14249349
-0.09380853 0.015790591 0.04552457 0.02073842 0.055203836 -0.039961535 -0.017403921 0.017704416
0.014671265 0.025231715 0.0076032267 0.01778973 0.048313025 0.021200063 -0.012426926 -0.04737167
0.053916723 -0.022450129 -0.03975682 -0.027555687 0.031481713 -0.021970695 -0.035664674 0.016680261
0.028354857 0.046334766 -0.017707758 -0.029704358 0.018298035 0.04261679 0.012999517 -0.040777735
0.044558596 0.042964794 -0.015116892 -0.025189696 -0.044873953 0.017306779 0.023742339 0.004133433
-0.052970484 -0.0072185905 -0.015226243 0.008512657 -0.0029506227 0.0001869819 0.026685664 -0.016152507
-0.106451824 0.008908291 -0.00783373 -0.021359578 0.021084875 0.015176665 -0.055245176 -0.11254105
0.03940613 0.019517312 -0.029439067 -0.005638573 0.04357087 -0.016254313 -0.015476631 0.007793066
0.027773473 -0.019318402 -0.022856973 -0.04675253 -0.048164397 0.022978168 -0.018615924 -0.030061016
0.011817638 -0.0015593022 0.02988528 0.0026240444 0.042941287 0.04358211 0.031690497 0.0518287
-0.046330247 0.05019229 0.0025402233 -0.011686456 0.0679975 -0.036070798 -0.0108078495 -0.016203754
-0.043712534 -0.00311327 0.052392352 0.022197207 -0.02682563 0.033916578 -0.0026247962 0.038031034
0.03413476 -0.013440505 -0.0013953598 -0.018055495 0.048412 0.029172327 -0.04945206 0.024407655
-0.046594635 -0.027977742 0.027578505 -0.0095955925 0.03943254 -0.009494632 -0.040066395 -0.034254674
-0.024718953 0.0037344191 0.01749092 -0.03121082 -0.15196134 0.008329839 -0.016612824 0.037176486
-0.028486034 0.0075344234 -0.012038491 0.0026548528 -0.03930235 -0.0009900492 0.038667668 0.028368216
-0.015387733 -0.043124206 -0.030616792 -0.045881968 -0.024768943 0.00895823 -0.02108828 0.04198609
0.01629625 -0.033931606 -0.062031917 0.01728481 -0.047357406 -0.0057012746 0.04319715 -0.0037773072
-0.004048325 0.023278803 0.034188066 0.037237383 -0.03276941 -0.055879094 0.060551576 0.026319908
0.041430708 -0.013079654 -0.0002528491 -0.008174872 0.041579746 0.046833485 -0.027721673 -0.007060459
0.032819245 -0.027263025 -0.029521754 0.03544718 0.03110291 0.017499289 -0.18127546 0.00026053944
-0.032657403 -0.04134711 -0.01986329 0.00307193 0.03364614 0.008320966 -0.03325459 -0.031406283
0.03216588 -0.08975039 0.029597549 0.018109638 -0.032653555 0.04318891 -0.05050853 0.012268934
-0.012931369 0.027588595 -0.002565651 -0.008732519 0.04281999 0.028077152 -0.032414436 0.046701323
0.019986402 0.0307188 -0.0034296645 -0.02990892 0.010239104 -0.029424835 0.03299782 0.041725785
-0.03142375 -0.0076439604 0.025488233 -0.03472693 0.013066368 0.051322322 0.0019502573 0.032060776
-0.023091426 0.020874746 -0.00018084794 -0.05583622 0.0017112158 0.023247678 -0.01980848 0.006743613
-0.031306103 0.021813469 -0.032972366 -0.04444861 0.030344442 0.051905848 -0.17402424 -0.04551572
00000000: d109 533d 30de 8d3b fbac 0abd 2a7d 0a3d
00000010: 49da 31bd c5a7 2abc c465 21bd 87fa c33c
00000020: a131 f73c e702 cb3c 4724 193c 0437 febc
00000030: 661c 72bc 633a 8fbc b80a 203d 76a8 223d
00000040: d478 e3bc 2656 903c f3e9 4b3d 4399 35bd
00000050: 3585 ac3c 5a94 743c 0c40 6fbd 2a72 de3c
00000060: 4ed1 32bd 1a20 1cbe 3203 61bc 5982 13bd
00000070: b734 5d3d fc4f a43c b994 b53c d0e9 113e
00000080: b01e c0bd 455b 813c f977 3a3d 9ee3 a93c
00000090: 6b1d 623d b5ae 23bd ab92 8ebc da08 913c
000000a0: bf5f 703c beb2 ce3c 7d24 f93b c5bb 913c
000000b0: e1e3 453d c1ab ad3c 4e9a 4bbc cc08 42bd
000000c0: c8d7 5c3d 55e9 b7bc 0cd8 22bd 77bc e1bc
000000d0: f8f2 003d e3fb b3bc 1f15 12bd 0ba5 883c
000000e0: 7248 e83c 86c9 3d3d dc0f 91bc 8e56 f3bc
000000f0: c3e5 953c f18e 2e3d edfb 543c 8e06 27bd
00000100: 1383 363d dafb 2f3d d7ac 77bc 9f5a cebc
00000110: c0cd 37bd f2c6 8d3c 4b7f c23c c071 873b
00000120: 94f7 58bd ed89 ecbb 7e77 79bc ac78 0b3c
00000130: 3c5f 41bb 9210 4439 e59b da3c 4352 84bc
00000140: 6a03 dabd 15f4 113c 0c59 00bc 48fa aebc
00000150: 30ba ac3c 8ca7 783c c448 62bd ec7b e6bd
00000160: 5268 213d c5e2 9f3c 332a f1bc c7c3 b8bb
00000170: 5e77 323d c427 85bc b291 7dbc fa5c ff3b
00000180: 3285 e33c a041 9ebc 8c3e bbbc 957f 3fbd
00000190: 0848 45bd b63c bc3c 6c80 98bc 8542 f6bc
000001a0: c49e 413c 8061 ccba fad1 f43c 29f8 2b3b
000001b0: 34e3 2f3d 2883 323d e5cd 013d 554a 543d
000001c0: c9c4 3dbd 6e96 4d3d e079 263b 8d78 3fbc
000001d0: 4642 8b3d f9be 13bd 6813 31bc bcbd 84bc
000001e0: ea0b 33bd 0108 4cbb 5d99 563d ebd6 b53c
000001f0: 6cc1 dbbc 1cec 0a3d c604 2cbb 6ec6 1b3d
00000200: e4d0 0b3d 9035 5cbc 81e4 b6ba 1ee9 93bc
00000210: a94b 463d cefa ee3c 3e8e 4abd 90f2 c73c
00000220: 04da 3ebd 9431 e5bc 51ec e13c d536 1dbc
00000230: 0484 213d 5f8f 1bbc a91c 24bd a14e 0cbd
00000240: 677f cabc 28bd 743b 1e49 8f3c d5ad ffbc
00000250: c19b 1bbe e179 083c 9e17 88bc 5f46 183d
00000260: 8b5b e9bc 53e3 f63b 173d 45bc 0afd 2d3b
00000270: 80fb 20bd 8ac4 81ba fd61 1e3d 7664 e83c
00000280: d41c 7cbc 02a3 30bd 11d0 fabc bbee 3bbd
00000290: 3de8 cabc 8ac5 123c 54c1 acbc 9bf9 2b3d
000002a0: b77f 853c defb 0abd 2e15 7ebd e098 8d3c
000002b0: d7f9 41bd c2d1 babb 7fef 303d b38c 77bb
000002c0: d0a7 84bb 30b3 be3c c908 0c3d 3a86 183d
000002d0: 3839 06bd 7ae1 64bd ee04 783d d99c d73c
000002e0: 3fb3 293d 0c4c 56bc d590 84b9 e6ef 05bc
000002f0: 864f 2a3d 78d4 3f3d 9018 e3bc 6c5b e7bb
00000300: 796d 063d b556 dfbc 9bd7 f1bc 1031 113d
00000310: 88cb fe3c ab5a 8f3c 46a0 39be 0399 8839
00000320: c5c3 05bd 965b 29bd 57b8 a2bc 6f52 493b
00000330: 89d0 093d a954 083c f735 08bd e0a3 00bd
00000340: 5fc0 033d 0dcf b7bd 8f76 f23c aa5a 943c
00000350: bcbf 05bd dbe6 303d 08e2 4ebd a403 493c
00000360: 18de 53bc 7a01 e23c 7b24 28bb d712 0fbc
00000370: 0464 2f3d 0e02 e63c 00c5 04bd e349 3f3d
00000380: 86ba a33c fea5 fb3c 39c4 60bb 8d03 f5bc
00000390: eac1 273c 5a0c f1bc b928 073d a8e8 2a3d
000003a0: 31b6 00bd 307a fabb b3cc d03c d33d 0ebd
000003b0: 5214 563c 5b37 523d c79f ff3a 2952 033d
000003c0: 3b2a bdbc 8401 ab3c 00a2 3db9 85b4 64bd
000003d0: e04a e03a ea71 be3c 6545 a2bc 87f9 dc3b
000003e0: d43a 00bd 29b2 b23c 080e 07bd bf0f 36bd
000003f0: e894 f83c 3a9b 543d 6933 32be b16e 3abd

fc3.weight f4 [1, 300]
-0.029843386 -0.031195078 -0.030344293 -0.0056490703 -0.032300808 -0.006589673 -0.034550924 -0.029902408
-0.03417782 -0.005791743 -0.031574443 -0.0020399662 -0.027904853 -0.034013875 -0.029597966 -0.0043059126
-0.0006429248 -0.003242214 -0.032650296 -0.031144485 -0.031785827 -0.030665046 -0.009145789 -0.0025030794
-0.0057192347 -0.24977775 -0.0047426466 0.006369064 -0.030727452 -0.030634899 -0.0040798113 0.108916864
-0.25386193 -0.027908012 -0.03200504 -0.005003711 -0.032184087 -0.035672422 -0.0046243593 -0.00043199398
-0.031271886 -0.0014099282 -0.032734398 -0.029790428 -0.029252544 -0.042908028 -0.0036983883 0.01859124
-0.029760946 -0.0043938383 -0.0024445457 -0.004264047 0.009371614 -0.035157982 1.5896512e-05 -0.032458797
-0.0043006437 -0.031413 -0.032726336 0.0015071481 -0.029530322 -0.033671275 -0.032940842 -0.0012017774
-0.001024249 -0.005818185 -0.03453939 -0.034074053 -0.006111373 -0.03004253 -0.03187073 0.0011726986
-0.0054292055 -0.031991612 0.0014472429 -0.030344287 -0.0073113474 -0.030011756 0.0025586619 -0.0050715613
-0.23358196 -0.029390417 -0.009879502 -0.028709939 -0.0330639 0.0014768546 -0.008656298 -0.21362494
-0.011502903 -0.029625326 0.00023803208 -0.029315772 -0.031613186 0.0024679727 -0.034832973 -0.029078567
-0.00714499 -0.030875664 -0.03288093 -0.0014011152 0.008247825 -0.0045181713 -0.03209942 -0.0013707286
-0.0041438937 0.0018000938 0.0005550743 -0.031710748 -0.029941462 -0.029807985 -0.033457596 -0.034487255
-0.006270658 -0.032739587 0.0010715709 -0.0047477484 0.13231729 -0.0055285906 -0.035797413 0.0015064529
-0.033981264 -0.031839114 -0.032753866 -0.029570686 0.000106591964 -0.032760836 -0.030361861 -0.029581016
-0.031344056 0.009121222 -0.033578817 -0.033768978 0.00021053059 0.00059989933 -0.001166997 -0.029602174
-0.0013900967 -0.004404319 -0.03184319 -0.005414557 -0.031036193 -0.03320228 -0.0013798377 -0.0006998612
-0.00495372 -0.030585248 -0.0058701225 0.00038766582 -0.27322027 -0.028946893 0.0012062318 -0.004204772
-0.0323507 -0.0051598693 -0.0059524267 -0.031113321 -0.0051554306 -0.033130776 -0.002416153 -0.00073405006
-0.028973917 -0.004507848 -0.00092757144 -0.005776529 -0.0030344576 2.7656111e-05 -0.00036610966 0.0007091386
-0.031041672 -0.029124303 -0.14500886 -0.032660335 -0.033758212 -0.031898227 -0.03310977 -0.0053490894
0.0025698682 -0.004210199 -0.0028574606 -0.033905804 0.0026037353 -0.004128136 0.14864427 -0.007555421
-0.035087615 -0.0030780893 0.01760717 -0.0054182517 -0.03156756 -0.033940773 -0.0027775448 -0.004645548
-0.0021379278 -0.033874273 -0.032019816 -0.031682972 -0.034711935 -0.032894056 -0.26446843 -0.033224396
-0.0034830035 -0.010544024 -0.033508893 -0.004126732 -0.03220637 -0.03396936 -0.00528919 -0.0044017443
-0.031631872 -0.18367915 -0.030021608 -0.002412443 -0.03221866 0.0007615811 -0.009964513 -0.006995151
-0.0029817168 -0.0334258 -0.0056515955 -0.030359477 -0.030780487 -0.031906653 -0.029050454 -0.033112656
-0.030453434 0.0027333447 -0.0061717913 -0.0036145907 -0.0052039186 -0.00081100315 -0.0007486264 -0.030126058
-0.00349699 -0.030830743 -0.029643986 -0.0036256474 -0.20700628 -0.031579662 -0.029414376 -0.005360202
-0.030510915 0.19537948 0.0019278368 -0.004794932 0.0029218402 -0.0014526894 0.00044823717 -0.033623748
-0.0022824719 -0.032921836 -0.03280255 -0.008118521 -0.029014772 -0.0316768 -0.21442722 -0.0008728907
00000000: 1e7a f4bc d28c ffbc 9894 f8bc d61b b9bb
00000010: da4d 04bd 2fee d7bb 4585 0dbd e5f5 f4bc
00000020: 0bfe 0bbd a9c8 bdbb 3454 01bd f4b0 05bb
00000030: b898 e4bc 2252 0bbd 6f77 f2bc 9d18 8dbb
00000040: f489 28ba 537b 54bb 51bc 05bd b822 ffbc
00000050: db31 02bd 4335 fbbc 38d8 15bc b40a 24bb
00000060: 6b68 bbbb bdc5 7fbe 3468 9bbb 95b3 d03b
00000070: 23b8 fbbc 0af6 fabc f0af 85bb ce0f df3d
00000080: 31fa 81be 589f e4bc b817 03bd 2cf6 a3bb
00000090: 76d3 03bd 3f1d 12bd f087 97bb 407d e2b9
000000a0: f316 00bd 57cd b8ba 8114 06bd 0e0b f4bc
000000b0: 08a3 efbc 54c0 2fbd a960 72bb a84c 983c
000000c0: 3acd f3bc 30fa 8fbb ac34 20bb 6bb9 8bbb
000000d0: 668b 193c d101 10bd 8059 8537 84f3 04bd
000000e0: 6aec 8cbb ebaa 00bd 0d0c 06bd 808b c53a
000000f0: 93e9 f1bc e4ea 09bd faec 06bd f584 9dba
00000100: 1840 86ba 79a6 bebb 2d79 0dbd 3c91 0bbd
00000110: ea41 c8bb c01b f6bc e28a 02bd 3cb5 993a
00000120: 7ae7 b1bb a309 03bd 6ab1 bd3a 9594 f8bc
00000130: 0794 efbb 37db f5bc 39af 273b 572f a6bb
00000140: 1c30 6fbe 2cc4 f0bc a2dd 21bc 1b31 ebbc
00000150: 036e 07bd 0493 c13a 25d3 0dbc 7fc0 5abe
00000160: ac76 3cbc d0b0 f2bc 4098 7939 a127 f0bc
00000170: d47c 01bd b6bd 213b 05ad 0ebd 2d36 eebc
00000180: 8520 eabb f6ee fcbc 27ae 06bd a0a5 b7ba
00000190: e321 073c 2b0d 94bb ae7a 03bd 05aa b3ba
000001a0: 80c9 87bb 20f1 eb3a 6882 113a 21e3 01bd
000001b0: cc47 f5bc e02f f4bc d50a 09bd 8242 0dbd
000001c0: 187a cdbb f219 06bd f473 8c3a 0093 9bbb
000001d0: 2f7e 073e 2e29 b5bb 4fa0 12bd 2c74 c53a
000001e0: f02f 0bbd bb69 02bd eb28 06bd 393e f2bc
000001f0: 208a df38 3a30 06bd 70b9 f8bc e353 f2bc
00000200: a062 00bd 2e71 153c f189 09bd 5751 0abd
00000210: e0c1 5c39 9042 1d3a ecf5 98ba 4280 f2bc
00000220: e833 b6ba 1b52 90bb 016e 02bd 996c b1bb
00000230: 9d3f febc 1dff 07bd acdb b4ba e476 37ba
00000240: d152 a2bb ea8d fabc 285a c0bb a03f cb39
00000250: 87e3 8bbe 0922 edbc 6c1a 9e3a 2fc8 89bb
00000260: 2b82 04bd 1f14 a9bb 930c c3bb 5de1 febc
00000270: e3ee a8bb 23b4 07bd 5258 1ebb 446d 40ba
00000280: b55a edbc 92b6 93bb 4428 73ba 0a49 bdbb
00000290: c0dd 46bb 0cff e737 68f2 bfb9 7ce5 393a
000002a0: 1b4b febc 1796 eebc 347d 14be d8c6 05bd
000002b0: 0d46 0abd b7a7 02bd 1c9e 07bd 6a47 afbb
000002c0: 3c6b 283b b6f5 89bb 3c44 3bbb d0e0 0abd
000002d0: 6ea3 2a3b 5145 87bb 3436 183e 7793 f7bb
000002e0: 08b8 0fbd c5b9 49bb e93c 903c 978b b1bb
000002f0: fc4c 01bd 7b05 0bbd 7807 36bb ae39 98bb
00000300: 7a1c 0cbb c0bf 0abd 3627 03bd 01c6 01bd
00000310: 1a2e 0ebd ebbb 06bd 6868 87be 4e16 08bd
00000320: 1a43 64bb d8c0 2cbc 9f40 09bd 8939 87bb
00000330: d4ea 03bd 7523 0bbd f150 adbb 823c 90bb
00000340: 6c90 01bd 6316 3cbe e0ef f5bc 141a 1ebb
00000350: b7f7 03bd d8a4 473a 3242 23bc 9437 e5bb
00000360: e868 43bb 7ee9 08bd 0531 b9bb 70b4 f8bc
00000370: 5c27 fcbc 8db0 02bd 38fb edbc 23a1 07bd
00000380: 7b79 f9bc ea21 333b bd3c cabb c5e2 6cbb
00000390: a285 aabb 8099 54ba 783f 44ba ecca f6bc
000003a0: c22d 65bb c190 fcbc f2d7 f2bc 459c 6dbb
000003b0: 74f9 53be ad59 01bd 6bf6 f0bc a2a4 afbb
000003c0: 07f2 f9bc 8f11 483e 78af fc3a ce1e 9dbb
000003d0: 587c 3f3b 2b68 beba 6001 eb39 0eb9 09bd
000003e0: 8695 15bb 0cd9 06bd f75b 06bd 8c03 05bc
000003f0: 63b0 edbc 88bf 01bd cf92 5bbe b4d2 64ba
