lab5/code/DDPG/critic_save.pth (torch, 491927 bytes, 5 tensors)

fcs1.weight f4 [400, 3]
0	0xbe3572ef	-0.17719625
1	0x3bcec9a4	0.0063106585
2	0xbda53e2d	-0.080685
3	0x3c7e9422	0.015538247
4	0x3baaabd9	0.005208474
5	0xbc60708d	-0.013698709
6	0xbd49108a	-0.04908804
7	0xbcc71157	-0.02430026
8	0x3c93fd4a	0.018065114
9	0xbdfbb5d2	-0.12290539
10	0x3d3a75b4	0.045522407
11	0x3bb27d25	0.0054470473
12	0xbd672a6f	-0.056436952
13	0xbb66f326	-0.0035240143
14	0x3d63bac2	0.055598028
15	0xbe1f66d5	-0.15566571
16	0x3d337866	0.043815993
17	0x3cad0dd7	0.021124763
18	0xbe48a957	-0.19595848
19	0x3c518719	0.012788557
20	0x3d985f2e	0.07440029
21	0xbc93ffa7	-0.01806624
22	0x3c309364	0.010777328
23	0xbcb3006b	-0.021850785
24	0x3c05cd58	0.008166634
25	0x3cc0463a	0.023470987
26	0x3a393e00	0.00070664287
27	0xbdfc4523	-0.12317874
28	0xbc321843	-0.010870042
29	0x3d9b9355	0.07596461
30	0xbe74f097	-0.23919903
31	0xbcaaa68c	-0.020831369
32	0xbdc349bd	-0.09535549
33	0xbd111b04	-0.035426155
34	0x3c1e5eed	0.009666187
35	0x3c255c48	0.010092802
36	0xbbdabec0	-0.006675571
37	0x3c579884	0.013158921
38	0x3cc4773a	0.023982633
39	0xbd007a1a	-0.031366445
40	0xbd384e25	-0.0449964
41	0x3c9d9ce2	0.019239847
42	0x3d392605	0.045202274
43	0x3b6351b0	0.003468614
44	0x3d072113	0.032990526
45	0xbda97716	-0.08274667
46	0x3c652da0	0.013987929
47	0xbc08efc0	-0.008357942
48	0xbd98e7df	-0.07466101
49	0xbc91e66b	-0.017810067
50	0x3d1c6566	0.03818264
51	0xbd25c26f	-0.04046863
52	0xbc2447ed	-0.010026914
53	0x3d19353d	0.037404288
54	0xbdf05b92	-0.11736216
55	0x3d269968	0.040673643
56	0x3daddcd9	0.08489389
57	0x3d0fa97d	0.035073746
58	0xbbf63045	-0.0075130784
59	0x3bd89652	0.0066097165
60	0xbe094e3e	-0.13408753
61	0xbccd4ae1	-0.02506012
62	0xbdc8e6a2	-0.09809615
63	0xbe4c17df	-0.19930981
64	0x3cc2da47	0.023785723
65	0x3dbf4f4b	0.09341296
66	0xbbd3b16a	-0.0064603584
67	0x3daf98f7	0.085740976
68	0xbc3475a9	-0.0110143805
69	0xbd6fddb9	-0.05856106
70	0x3d8efb47	0.06981521
71	0x3c6c942e	0.014439626
72	0x3c86c98a	0.016453523
73	0xbd2bc775	-0.041938264
74	0xbad9c6c0	-0.0016615018
75	0xbd49d30b	-0.049273532
76	0x3bae0873	0.005311066
77	0xbd144dd5	-0.03620704
78	0xbbb225b4	-0.0054366235
79	0xbc951644	-0.018199094
80	0xbce52a11	-0.02797416
81	0xbd456c31	-0.048198882
82	0x3d977180	0.07394695
83	0xbd248c4a	-0.040172853
84	0xbab306ae	-0.0013658607
85	0x3b81b811	0.00395871
86	0xbd0712be	-0.03297686
87	0xbdc93e4c	-0.09826335
88	0x3d6fb08d	0.05851798
89	0xbd2e744d	-0.04259138
90	0xbd410b72	-0.047130056
91	0xbd31ff18	-0.043456167
92	0x3d2136ad	0.039358784
93	0xbe6e0158	-0.232427
94	0x3d72fbce	0.05932217
95	0x3da1e589	0.079051085
96	0xbc9e0a02	-0.019291881
97	0x3d55efd6	0.05223068
98	0x3d0d88b4	0.0345542
99	0xbd0246a3	-0.031805646
100	0x3d83d90c	0.06437883
101	0xbcebb735	-0.028773883
102	0xbdc6e2b5	-0.0971121
103	0x3b5fd296	0.0034152619
104	0x3984ac4c	0.00025305373
105	0xbe2ea757	-0.17056023
106	0xbab419b8	-0.0013740575
107	0x3d6588e6	0.05603876
108	0xbe65557c	-0.22395891
109	0x3b8fbc2e	0.0043864464
110	0x3daa522f	0.083164565
111	0xbd9667d1	-0.0734402
112	0x3cdabcbf	0.02670133
113	0x3bbde146	0.005794677
114	0xbe2bbb3d	-0.16770644
115	0xbce1da71	-0.027569981
116	0xbd07c335	-0.03314515
117	0xbcf556dc	-0.029948644
118	0x3b6597e6	0.0035033165
119	0xbc1b635b	-0.009484137
120	0xbe5deeed	-0.21673174
121	0x3bad9728	0.0052975602
122	0x3bc758c2	0.006083579
123	0xbd205d8e	-0.03915172
124	0xbc8b5f9c	-0.017013364
125	0xbc30fe8c	-0.010802876
126	0xbcca8ea8	-0.024726227
127	0xbbce5ffe	-0.0062980643
128	0x3c489bde	0.012244193
129	0xbe374753	-0.17898302
130	0x3d83c43c	0.06433913
131	0x3d73bc10	0.059505522
132	0xbe7b48ac	-0.24539441
133	0xbba2fc6d	-0.004973939
134	0xbda7ae7d	-0.08187578
135	0xbc885c5a	-0.0166456
136	0x3cc9659e	0.024584588
137	0xbbc5dd98	-0.006038379
138	0x3c82881e	0.015934046
139	0x3a62efd6	0.0008656954
140	0x3c995c36	0.018720727
141	0xbe3ec28a	-0.18628898
142	0x3bcd1eae	0.006259761
143	0xbdd541cd	-0.10412941
144	0xba12b580	-0.00055965036
145	0xbd059765	-0.032615084
146	0x3d1d63c5	0.038425226
147	0xbe139c86	-0.14415178
148	0xbc2b7e9a	-0.010467196
149	0x3db39af2	0.08769788
150	0xbde7c0df	-0.11316084
151	0x3d8a4df9	0.06753153
152	0x3c627356	0.013821444
153	0xbe2ca199	-0.1685852
154	0x3c855a3c	0.016278379
155	0xbb9d68cb	-0.004803752
156	0xbe696ea2	-0.2279611
157	0x3c05b84b	0.008161615
158	0x3d3924e1	0.045201186
159	0xbe25d595	-0.16194756
160	0xbc00f823	-0.00787166
161	0x3d8a9612	0.06766905
162	0xbe2f3ab4	-0.17112237
163	0xbca60c19	-0.02026944
164	0x3bbec67c	0.005822001
165	0xbc405fb4	-0.011741567
166	0x3c9974e2	0.018732492
167	0x3c822d42	0.015890721
168	0xbe699b4f	-0.22813152
169	0x3bbb8e8f	0.0057237814
170	0x3db83504	0.08994487
171	0x3d4405bc	0.04785703
172	0x3e450ade	0.19242427
173	0xbd1d3911	-0.0383845
174	0xbe64acec	-0.2233159
175	0x3b3b48df	0.002857737
176	0x3bc69a91	0.006060906
177	0xbdb58570	-0.08863342
178	0x3d4a10d0	0.04933244
179	0xbd3d6bb0	-0.046245277
180	0x3d2afb33	0.04174347
181	0x3c38de28	0.011283435
182	0xbcd2bc4d	-0.025724554
183	0x3d01ac1f	0.031658288
184	0xbc1cce28	-0.009570636
185	0x3c2854b8	0.010274105
186	0xbe961cc5	-0.29318824
187	0x3cbbdb07	0.022931589
188	0x392657a5	0.00015863644
189	0xbe2d313a	-0.1691331
190	0xbc193e39	-0.009353214
191	0x3d9b9180	0.07596111
192	0x3d0b2791	0.03397328
193	0xbd42cff8	-0.047561616
194	0x3c0be520	0.008538514
195	0xbcd03042	-0.025413636
196	0xbb0f5412	-0.0021870178
197	0xbcdf0974	-0.027226187
198	0xbe66f938	-0.22556007
199	0x3d52e31c	0.05148612
200	0x3db7317c	0.08944985
201	0xbc26b808	-0.010175712
202	0x3cfd68fa	0.030933846
203	0xbc3e17ac	-0.0116023235
204	0xba8f2b00	-0.0010922849
205	0xbb4f78d0	-0.0031657703
206	0xbd2382c3	-0.039919626
207	0xbdf9ca52	-0.12196793
208	0x3d19087f	0.037361618
209	0xbc7406b5	-0.014894177
210	0xbe0737e7	-0.13204919
211	0xbc9a8526	-0.018862318
212	0x3dc9dfa7	0.098571114
213	0x3d55a663	0.052160632
214	0xbe2a55cd	-0.16634293
215	0xbd2c19ed	-0.042016912
216	0xbddf190d	-0.1089345
217	0xbc120aa7	-0.0089136725
218	0x3d94fbf0	0.07274616
219	0xbe609a04	-0.21933752
220	0x3a151dbf	0.00056883314
221	0x3bc533da	0.006018144
222	0xbe175724	-0.14779335
223	0x3ccb0136	0.02478085
224	0x3aaaf14b	0.0013041882
225	0xbe4e2c4f	-0.2013409
226	0x3d3c6307	0.045992877
227	0x3dc470fc	0.095918626
228	0xbe0ef90b	-0.1396219
229	0x3d90114d	0.0703455
230	0x3cca5634	0.024699308
231	0xbcda8408	-0.026674286
232	0xbbbb0ee9	-0.0057085645
233	0xbc9df679	-0.019282566
234	0x3cf099e5	0.029370258
235	0xbd0ba046	-0.034088396
236	0xbce34da6	-0.027746987
237	0xbdaffcc3	-0.08593132
238	0x3d406f37	0.046981063
239	0xbcf5824e	-0.02996936
240	0xbdcb032b	-0.099127136
241	0xbd1a1f64	-0.037627593
242	0x3dd4b525	0.10386113
243	0xbe574566	-0.21022567
244	0xbbd59f75	-0.006519253
245	0xbd7f2c18	-0.06229791
246	0xbe77ca5c	-0.24198288
247	0xbc832230	-0.016007513
248	0xbdc38885	-0.095475234
249	0xbcee52b5	-0.029092172
250	0xbc53b30e	-0.012921108
251	0xbb995639	-0.004679468
252	0xbe4ebaff	-0.20188521
253	0xbc7880a0	-0.015167385
254	0x3bfc6be6	0.007703292
255	0xbe13cd17	-0.14433704

fcs1.bias f4 [400]
0	0xbe1b482f	-0.15164255
1	0xbe2b2c1c	-0.16716045
2	0xbe68902e	-0.2271125
3	0x3e4c70c2	0.19964889
4	0x3f098563	0.53719157
5	0x3e164e91	0.14678408
6	0x3d8c375b	0.06846496
7	0x3e80d69e	0.2516374
8	0xbcec8ba0	-0.028875172
9	0x3db59c68	0.08867723
10	0xbda00e8b	-0.07815274
11	0x3e2324fd	0.15932079
12	0xbee837fa	-0.45355207
13	0xbef6add7	-0.48179504
14	0xbf096d41	-0.53682333
15	0x3dc55614	0.09635559
16	0x3ec9434e	0.39309162
17	0x3e918eb6	0.28429192
18	0x3d796c9d	0.060894597
19	0xbdc6556d	-0.096842624
20	0x3e18b30e	0.14912054
21	0xbdfd81e8	-0.12378293
22	0x3e71447c	0.23561281
23	0x3eac7914	0.33686125
24	0xbeac696d	-0.33674183
25	0x3f0a2a5c	0.53970885
26	0xbebd4df5	-0.3697354
27	0x3f125a43	0.5716898
28	0x3ea79359	0.32729605
29	0x3ed233bc	0.41055095
30	0xbf0ded15	-0.55439883
31	0xbe2a323c	-0.16620725
32	0x3f024cf8	0.50898695
33	0x3f13e3e4	0.5776961
34	0x3ef2eab4	0.4744469
35	0x3cfea103	0.031082636
36	0xbdc4b9c0	-0.096057415
37	0x3e6893bd	0.22712608
38	0x3e4c66d6	0.19961104
39	0xbe022e75	-0.12713034
40	0x3d217b06	0.039423965
41	0xbe87f5e5	-0.2655479
42	0x3e8fe367	0.28103182
43	0xbcc4e184	-0.024033315
44	0xbe3817cb	-0.17977826
45	0xbf0139e0	-0.50478935
46	0xbe464294	-0.19361335
47	0xbd977d59	-0.07396955
48	0xbead8253	-0.33888492
49	0xbe2eab0e	-0.1705744
50	0x3f03626d	0.5132206
51	0x3dd6fc39	0.104973264
52	0xbe8f0f72	-0.2794147
53	0xbdc1b017	-0.094574146
54	0x3d7674c1	0.06016994
55	0xbe24fa4a	-0.16111103
56	0xbe468d72	-0.19389895
57	0xbe502627	-0.20327054
58	0x3d268ac4	0.04065968
59	0x3f0ce383	0.55034655
60	0xbe4c6898	-0.19961774
61	0xbe8fb4f7	-0.28067753
62	0xbdd3658e	-0.103221044
63	0xbe271d72	-0.16319826
64	0xbf13068c	-0.57431865
65	0x3f097ccc	0.5370605
66	0xbe1905ed	-0.14943667
67	0xbef32462	-0.47488695
68	0xbf0c5a08	-0.54824877
69	0x3e33c55b	0.17555754
70	0x3d5fc7df	0.05463397
71	0xbe830410	-0.25589037
72	0x3dc2b570	0.09507263
73	0x3d82960b	0.06376275
74	0x3ef10b77	0.4707906
75	0x3db9cd30	0.090723395
76	0x3e64030a	0.22266784
77	0xbe43e163	-0.19128947
78	0xbe816636	-0.25273293
79	0x3f088100	0.5332184
80	0x3e3a2278	0.18177211
81	0xbd1c2852	-0.03812439
82	0xbe859793	-0.26092204
83	0x3f0e9436	0.556949
84	0x3df1a291	0.11798585
85	0xbdcc2041	-0.099670894
86	0xbef94fa5	-0.48693576
87	0xbed4e1e3	-0.41578588
88	0x3dca79f8	0.09886545
89	0xbef1bf54	-0.47216284
90	0xbece8259	-0.40333822
91	0xbe83519e	-0.25648206
92	0x3e798f73	0.24371128
93	0xbe49d8a3	-0.19711547
94	0xbf0c0fe3	-0.5471174
95	0x3ed373d8	0.4129932
96	0xbed9ee1d	-0.4256448
97	0x3ef74d2f	0.48301074
98	0x3f094fb8	0.53637266
99	0xbe9489c5	-0.2901136
100	0x3e85225a	0.2600277
101	0xbe5775e0	-0.2104106
102	0x3f08edf3	0.5348808
103	0xbee32e88	-0.44371438
104	0x3e52a972	0.20572451
105	0xbe98178e	-0.2970547
106	0xbf1006a3	-0.56260127
107	0xbeedbc50	-0.46432734
108	0x3d0dae6b	0.034590166
109	0x3f05f900	0.5233307
110	0x3e802f45	0.25036064
111	0x3e54c981	0.20779993
112	0xbf057d64	-0.52144456
113	0x3ed7be70	0.4213748
114	0x3dd427e4	0.10359171
115	0x3e71ea98	0.23624647
116	0x3cfa7519	0.030573415
117	0x3e303cb0	0.1721065
118	0xbcc6312f	-0.024193374
119	0xbeee684a	-0.4656394
120	0x3e094bef	0.13407873
121	0xbe4a1c12	-0.1973727
122	0xbd9d1389	-0.07669742
123	0x3d927384	0.07150939
124	0xbea57ea2	-0.32323176
125	0x3f0e0c75	0.5548776
126	0x3efc77c2	0.49310118
127	0xbe7a30e3	-0.24432711
128	0x3e9f4a39	0.31111315
129	0x3c8fdcd9	0.017561363
130	0x3e0975de	0.13423869
131	0x3e9421fd	0.2893218
132	0xbe246d3e	-0.16057298
133	0xbf12877f	-0.57238
134	0xbe639776	-0.22225747
135	0x3f096c53	0.53680915
136	0xbeb9186a	-0.3615144
137	0x3ea3da74	0.32002604
138	0xbf09591a	-0.53651583
139	0xbec92bae	-0.39291137
140	0x3edfb1af	0.4369025
141	0x3f0c19ba	0.54726756
142	0x3ed56cce	0.41684574
143	0xbf075b54	-0.5287373
144	0x3f0e38ea	0.55555594
145	0xbebe93f0	-0.37222242
146	0xbeeba6f1	-0.46025804
147	0xbd457c2c	-0.048214123
148	0x3de5aa9d	0.112141825
149	0x3e8e7d94	0.27830184
150	0xbec2cffc	-0.38049304
151	0xbe3d8e9e	-0.18511435
152	0xbeca5e89	-0.3952525
153	0x3ef33ea5	0.4750873
154	0x3e72e578	0.23720348
155	0x3eabad58	0.33530688
156	0x3f0b20c9	0.543469
157	0x3ee8a9a7	0.45441934
158	0x3db8eb68	0.09029275
159	0x3ddd07c7	0.10792499
160	0xbee1e0a2	-0.44116694
161	0xbdd31ea0	-0.10308576
162	0x3da7cd96	0.08193509
163	0x3cbefc39	0.023313629
164	0x3e0c1f07	0.13683711
165	0xbe04b6ea	-0.12960401
166	0xbef42ce0	-0.47690487
167	0x3edfabc6	0.4368574
168	0x3eba5f76	0.36400956
169	0x3f08ed24	0.5348685
170	0x3e5936b2	0.21212271
171	0xbee04713	-0.43804225
172	0x3d6f3049	0.058395658
173	0x3efbfda3	0.49216947
174	0xbea12de1	-0.31480315
175	0xbe139e1e	-0.14415786
176	0xbf02591f	-0.5091724
177	0xbed70570	-0.41996336
178	0xbef46958	-0.4773662
179	0x3ed80421	0.4219065
180	0x3ee7d890	0.45282412
181	0x3ee4b3e7	0.44668505
182	0x3ea8e437	0.32986614
183	0xbe04812f	-0.12939905
184	0x3dda86d0	0.10670245
185	0xbef26c3a	-0.47348195
186	0x3e2ee0ac	0.17077893
187	0x3e4a5df5	0.19762404
188	0x3da3410c	0.07971391
189	0xbe8e1c3c	-0.27755916
190	0xbe215358	-0.1575445
191	0x3f094b45	0.5363048
192	0xbe3540cf	-0.17700504
193	0x3e4657dc	0.19369453
194	0xbd19f1be	-0.03758406
195	0x3e05f201	0.13080598
196	0xbee45c78	-0.44601798
197	0x3eb7066a	0.3574708
198	0x3ee625b2	0.44950634
199	0xbe8e43ea	-0.2778619
200	0xbd9793b5	-0.0740122
201	0x3f10b103	0.565201
202	0xbe6cc162	-0.23120645
203	0x3e5abf8d	0.21362133
204	0x3e7ca594	0.24672538
205	0xbeb6ddf8	-0.35716224
206	0x3edd068a	0.4316905
207	0x3d5b89d2	0.053598233
208	0x3edce75a	0.43145257
209	0x3ed48c22	0.41513163
210	0xbe96bfbc	-0.29443157
211	0xbebc4b56	-0.36776227
212	0xbe83a46e	-0.25711387
213	0xbefd80d9	-0.49512365
214	0xbe33b200	-0.1754837
215	0x3dff4f87	0.124663405
216	0xbdc746f5	-0.09730331
217	0x3ee9919e	0.4561891
218	0xbcc0fab5	-0.023557046
219	0x3f03f0df	0.51539415
220	0xbd52da51	-0.051477734
221	0x3e9b7cd5	0.30368677
222	0x3c017c9e	0.007903246
223	0xbeac3326	-0.33632773
224	0xba9b2a55	-0.0011838177
225	0xbeac81a4	-0.33692658
226	0x3efe3bab	0.49654898
227	0x3f000379	0.500053
228	0xbed8f2e7	-0.4237282
229	0xbef752ed	-0.48305455
230	0xbee5696e	-0.44807
231	0xbd207118	-0.039170355
232	0xbf0cefd1	-0.5505343
233	0xbe69500a	-0.22784439
234	0xbefc6f06	-0.49303454
235	0xbe624ac2	-0.2209883
236	0x3eceeb7c	0.40414035
237	0x3e5a8eda	0.21343556
238	0xbe12d108	-0.14337552
239	0xbee48170	-0.44630003
240	0x3e28413b	0.16431133
241	0x3e09b842	0.13449195
242	0xbd764ad3	-0.06012995
243	0xbee3a0d6	-0.44458646
244	0xbeb3b30a	-0.35097533
245	0x3ed5a0b0	0.41724157
246	0xbf0c8184	-0.54885125
247	0x3e9cee7d	0.30650702
248	0xbe8feced	-0.28110448
249	0xbe9d5dfc	-0.30735767
250	0x3f06a883	0.5260088
251	0xbecc8d43	-0.39951524
252	0x3f130879	0.57434803
253	0xbea6e57b	-0.32596955
254	0xbddb7a94	-0.10716739
255	0x3ebb553d	0.3658847

fc2.weight f4 [300, 401]
0	0x3d56f932	0.052483745
1	0xbd5665dc	-0.052343234
2	0x3cd124b8	0.025530204
3	0x3b8ad45e	0.004236742
4	0x3d1aa533	0.037755203
5	0x3daa78e4	0.08323839
6	0xba471e05	-0.0007595721
7	0x3be6ad05	0.0070396685
8	0x3ce6ada8	0.028158978
9	0x3da88735	0.08228914
10	0x3ca95c25	0.02067382
11	0x3d857575	0.06516544
12	0x3bbf2fa0	0.0058345348
13	0xbd1f0796	-0.038825594
14	0xbd6b7519	-0.05748472
15	0x3d1d8154	0.038453415
16	0x3c9704b9	0.01843487
17	0x3cea14d7	0.02857439
18	0x3c5f9b22	0.013647826
19	0x3c59deb9	0.01329773
20	0x3c08eb6d	0.008356911
21	0x3dc498a8	0.09599429
22	0xbd448711	-0.047980372
23	0x3a399c03	0.00070804375
24	0xbcf63bc0	-0.030057788
25	0x3ca6b8db	0.020351818
26	0x3d632eca	0.055464543
27	0x3d836b1d	0.064169146
28	0xbd475270	-0.048662603
29	0x3c9f4269	0.019440847
30	0x3d3d6004	0.046234146
31	0x3dabaf60	0.083830595
32	0x3d45037b	0.048099022
33	0x3d84b598	0.06479949
34	0xbcb0d0cb	-0.021583935
35	0x3ce3f7ab	0.027828058
36	0x3d567824	0.05236067
37	0x3c5406d4	0.012941081
38	0x3c343b05	0.0110003995
39	0x3bd8d8bd	0.006617634
40	0x3db30f65	0.08743171
41	0x3d0ebcc4	0.03484799
42	0xbd0a8282	-0.03381587
43	0x3d099ffe	0.033599846
44	0x3e0cd666	0.13753662
45	0xbcab0f20	-0.020881236
46	0x3d01497a	0.031564213
47	0x3ded9498	0.11600608
48	0x3d620da6	0.055188797
49	0x3d2a867b	0.041632157
50	0x3cf7ad38	0.030233964
51	0x3ccd5df9	0.025069224
52	0x3e1c5576	0.15266976
53	0x3d8f7640	0.07004976
54	0x3d2f2860	0.042763114
55	0x3c013b88	0.0078877285
56	0x3e2770fb	0.16351692
57	0xbd109d81	-0.035306457
58	0x3dcaf398	0.09909743
59	0x3d1b8cf3	0.037976217
60	0x3d39e10a	0.04538063
61	0x3d421548	0.047383577
62	0x3e009698	0.12557447
63	0x3decf3da	0.115699485
64	0xbd35277b	-0.044227105
65	0xbc648730	-0.013948247
66	0x3df6d98e	0.12053214
67	0x3d447c4a	0.047970094
68	0x3d15c3a2	0.036563523
69	0x3d5e68fe	0.054299347
70	0x3da32494	0.07965961
71	0xbdb0d629	-0.08634598
72	0x3c25cb8c	0.01011933
73	0x3c2e6464	0.010644052
74	0x3d878a66	0.06618194
75	0x3d84af05	0.06478695
76	0x3cd304c7	0.025759114
77	0xbd063963	-0.032769572
78	0xbd5701ec	-0.052492067
79	0xbbc023f8	-0.005863663
80	0xbcee22da	-0.029069353
81	0x3d4c40b9	0.04986641
82	0x3d91e152	0.071230546
83	0x3d0fe141	0.03512693
84	0x3cec54eb	0.028849086
85	0x3c977e88	0.018492952
86	0x3cfcc568	0.03085585
87	0x3d576c4e	0.05259352
88	0x3ce945df	0.0284757
89	0x3bf21150	0.0073873177
90	0x3a897720	0.0010487773
91	0x3c7a63e0	0.015282601
92	0xbd1f5464	-0.03889884
93	0xbc04ed24	-0.008113179
94	0xbd35189d	-0.044212926
95	0xbc5bfe09	-0.013427266
96	0xbcebaab8	-0.028767928
97	0xbceba58f	-0.028765468
98	0xbd2356ec	-0.039877817
99	0xbbc6d836	-0.006068255
100	0x3d1e1fd9	0.03860459
101	0x3d9ae175	0.07562534
102	0xbd19ae66	-0.037519835
103	0xbcf5264a	-0.029925484
104	0xbb0643ef	-0.002048727
105	0xbd39f6fd	-0.045401562
106	0x3d0db288	0.03459409
107	0x3d257684	0.04039623
108	0x3dc14c56	0.09438388
109	0xbd106a50	-0.035257638
110	0xbccc220e	-0.024918582
111	0x3d925467	0.07145005
112	0xbd274c86	-0.040844463
113	0x3d697281	0.056993965
114	0x3d0825a3	0.03323902
115	0xbc73ed45	-0.014888112
116	0x3d1c7731	0.038199607
117	0x3d686302	0.056735046
118	0xbe52328e	-0.20527098
119	0x3d042f3e	0.032271616
120	0x3dab076f	0.08351027
121	0x3c4bc648	0.012437411
122	0x3ce2d374	0.02768872
123	0x3dc54341	0.09631968
124	0x3d0b5a4a	0.034021653
125	0x3d27e15c	0.040986404
126	0x3c52bd39	0.012862497
127	0x3e2b3c36	0.16722187
128	0x3d2d976f	0.042380746
129	0x3d2a34a6	0.041554116
130	0x3d46d259	0.048540447
131	0x3d328481	0.043583397
132	0x3d740bc3	0.05958153
133	0x3caab53c	0.020838372
134	0xbc5701a0	-0.013122946
135	0x3d04176a	0.032248892
136	0x3d130d08	0.0359011
137	0x3d51a9a7	0.051187184
138	0xbc8f9eb8	-0.017531738
139	0xbcb97aca	-0.022641558
140	0xbc051795	-0.008123298
141	0x3d715a08	0.05892375
142	0x3cdc5757	0.026897116
143	0xbd62443b	-0.05524085
144	0x3d576f5f	0.052596446
145	0x3ba97a20	0.005172029
146	0x3d1eb106	0.03874304
147	0x3e02ecee	0.12785694
148	0xbb6ddfd3	-0.003629674
149	0xbd35e3b8	-0.044406623
150	0xbb3a50e0	-0.0028429553
151	0xbc37ea4e	-0.011225296
152	0x3cc8ecd9	0.024527
153	0x3b911208	0.0044271983
154	0xbc6b2d95	-0.014354129
155	0x3ccbde6c	0.024886332
156	0xbb525a00	-0.0032097101
157	0x3c4e8543	0.012605014
158	0x3cb8c045	0.022552619
159	0x3c2a351e	0.010388641
160	0x3d13b36e	0.03605979
161	0x3d2023c2	0.0390966
162	0xbc284e39	-0.010272556
163	0x3d9e107b	0.07717987
164	0x3d867ba1	0.06566549
165	0xbd3b3f15	-0.045714457
166	0x3ceb945c	0.028757267
167	0x3d8addde	0.06780599
168	0x3d786c65	0.060650248
169	0xbcb53dbb	-0.022124162
170	0x3c8a27f9	0.016864764
171	0xbccf0a2c	-0.025273405
172	0x3d9340c5	0.07190088
173	0x3d23f9c8	0.04003313
174	0xbd134516	-0.035954557
175	0x3d9b7781	0.07591153
176	0xbcc5944c	-0.024118565
177	0xbca3a890	-0.019977838
178	0x3c6b30c8	0.014354892
179	0xbd48d513	-0.04903133
180	0x3d83d9fe	0.06438063
181	0x3a76c64b	0.0009413703
182	0x3d80171e	0.06254409
183	0x3d4edf0e	0.05050569
184	0x3c07d839	0.008291298
185	0x3cde210c	0.027115367
186	0x3c0c8482	0.008576514
187	0x3d84c6ae	0.06483208
188	0xba34d77a	-0.00068985636
189	0x3c931f2f	0.017959205
190	0x3e046099	0.12927474
191	0x3d5934da	0.05302892
192	0xbe631be0	-0.22178602
193	0x3d5a8be8	0.05335608
194	0x3d06f741	0.032950643
195	0x3d97cb22	0.074117914
196	0x3d2fd448	0.042927057
197	0x3d308205	0.043092746
198	0x3d1f40e4	0.038880244
199	0x3d9ff2be	0.07809971
200	0x3dc03f9f	0.09387135
201	0xbc9a679e	-0.018848237
202	0x3a41a4c0	0.00073869154
203	0xbd2ad947	-0.041711118
204	0x3c866403	0.016405111
205	0x3d4e8120	0.050416112
206	0xbcf7004c	-0.030151509
207	0x3d18bd1f	0.037289735
208	0x3cfee3e1	0.03111452
209	0x3d652515	0.055943567
210	0x3c4b2be8	0.012400605
211	0xbba24130	-0.0049516186
212	0x3d485cb6	0.04891654
213	0x3c97163c	0.01844322
214	0x3d13d645	0.036093015
215	0x3d2ba059	0.041900966
216	0x3dbddfaa	0.09271176
217	0x3d09f601	0.033681873
218	0x3de3e742	0.11128093
219	0xbd1ad804	-0.037803665
220	0x3cc8d880	0.024517298
221	0xbc5cb682	-0.013471248
222	0x3dd7760c	0.105205625
223	0xbca3982e	-0.019970026
224	0xbe9787be	-0.2959575
225	0xbd134524	-0.03595461
226	0x3d37275a	0.044715263
227	0xbb0804b1	-0.002075475
228	0x3d1feb08	0.039042503
229	0x3d08d67a	0.033407666
230	0xbd4efe0b	-0.050535243
231	0x3d0b3273	0.03398366
232	0xbc44be74	-0.012008298
233	0xbd65ef34	-0.056136325
234	0xbc3e0f80	-0.011600375
235	0x3d93cce8	0.07216817
236	0x3c10a0d6	0.008827409
237	0x3d064763	0.032782923
238	0x3e02c96c	0.12772149
239	0x3c1192f0	0.00888513
240	0x3d0b44d3	0.034001183
241	0x3d3f19f1	0.0466556
242	0x3d2fd6b3	0.042929363
243	0xbcbd11fc	-0.023079865
244	0x3e32428d	0.174082
245	0x3d6cd875	0.057823617
246	0xbd6391d7	-0.055559006
247	0x3c250023	0.010070833
248	0xbd455c98	-0.048184007
249	0x3cb3cda0	0.021948636
250	0xbcd415ed	-0.025889361
251	0xbd69d97e	-0.057092182
252	0x3d5a34e3	0.053273093
253	0x3def571f	0.11686539
254	0x3b8c83a0	0.004288152
255	0xbd15fb89	-0.036616836

fc2.bias f4 [300]
0	0x3d4e0f5e	0.050307624
1	0x3b1dc544	0.0024073878
2	0xbd10bdee	-0.03533738
3	0x3d0a7d2a	0.033810772
4	0xbd384712	-0.044989653
5	0xbc2aa7c5	-0.010415976
6	0xbd285ba6	-0.041103028
7	0x3cb8577f	0.022502659
8	0x3ce9e970	0.028553694
9	0x3ccb02e7	0.024781657
10	0x3c02026f	0.0079351505
11	0xbcfe3704	-0.031032093
12	0xbc8ada72	-0.016949866
13	0xbc9cc55a	-0.019137073
14	0x3d1a9c32	0.037746616
15	0x3d22a876	0.039711438
16	0xbce378d4	-0.027767576
17	0x3c905626	0.017619204
18	0x3d4680f3	0.04846282
19	0xbd3b5928	-0.045739323
20	0x3c9d5974	0.019207694
21	0x3c5c6450	0.013451651
22	0xbd6f400c	-0.05841069
23	0x3cde722a	0.027154047
24	0xbd32d14e	-0.04365664
25	0xbdfc92f1	-0.12332714
26	0xbc610332	-0.013733672
27	0xbd138259	-0.03601298
28	0x3d57f4cf	0.052723702
29	0x3c9936ab	0.018702826
30	0x3cb594b9	0.022165643
31	0x3e1d0e23	0.15337424
32	0xbd769956	-0.060204826
33	0x3c6de7ca	0.014520595
34	0x3d350256	0.04419168
35	0x3ca9e39e	0.02073842
36	0x3d5c6a54	0.05381234
37	0xbd2c38d2	-0.042046376
38	0xbc8e92ab	-0.017403921
39	0x3c9108da	0.017704416
40	0x3c5a8b2b	0.013338844
41	0x3cceb2be	0.025231715
42	0x3bc6b75d	0.006064339
43	0x3c861092	0.016365323
44	0x3d406bb2	0.046977706
45	0x3cc625d8	0.024187967
46	0xbc4b9a4e	-0.012426926
47	0xbce13846	-0.027492654
48	0x3d574f1a	0.05256567
49	0xbcb7e955	-0.022450129
50	0xbd22d80c	-0.03975682
51	0xbce1bc77	-0.027555687
52	0x3d00f2f8	0.031481713
53	0xbcc178ea	-0.023617227
54	0xbd12151f	-0.035664674
55	0x3c782b97	0.015147111
56	0x3ce84872	0.028354857
57	0x3d383752	0.044974633
58	0xbc9e2304	-0.019303806
59	0xbcf3568e	-0.029704358
60	0x3c8ab6e3	0.01693291
61	0x3d26239a	0.040561296
62	0x3c3c30e6	0.011486268
63	0xbd27068e	-0.040777735
64	0x3d368313	0.044558596
65	0x3d2ffbda	0.042964794
66	0xbc8ae803	-0.016956335
67	0xbcd9b8c2	-0.026577357
68	0xbd37cdc0	-0.044873953
69	0x3c8288ef	0.015934436
70	0x3cb80112	0.022461448
71	0x3b8771c0	0.004133433
72	0xbd58f794	-0.052970484
73	0xbc0c57f2	-0.00856589
74	0xbc78c7cb	-0.015184353
75	0x3bebfa04	0.007201435
76	0xbb415f3c	-0.0029506227
77	0xba9fce39	-0.0012192196
78	0x3cda9be5	0.026685664
79	0xbc845243	-0.016152507
80	0xbda9ed0f	-0.082971685
81	0x3bf6721f	0.0075209285
82	0xbc00590c	-0.00783373
83	0xbcbc76de	-0.023005899
84	0x3ca05d45	0.019575724
85	0x3c78a78c	0.015176665
86	0xbd6248c4	-0.055245176
87	0xbdbda9b4	-0.09260884
88	0x3d216852	0.03940613
89	0x3c94e2ab	0.01817449
90	0xbcf12a33	-0.029439067
91	0xbbfc4f9e	-0.007699921
92	0x3d2c3936	0.042046748
93	0xbc8527c4	-0.016254313
94	0xbc3a70d2	-0.0113794375
95	0x3bd07038	0.006361034
96	0x3ce38532	0.027773473
97	0xbca98a14	-0.020695724
98	0xbcc8633b	-0.02446138
99	0xbd3f7f95	-0.04675253
100	0xbd454808	-0.048164397
101	0x3cbc3cb6	0.022978168
102	0xbca51d73	-0.020155644
103	0xbcf64285	-0.030061016
104	0x3c419ec4	0.011817638
105	0xbacc6180	-0.0015593022
106	0x3cf4d1fa	0.02988528
107	0x3a8c60c1	0.0010709987
108	0x3d29422c	0.041322872
109	0x3d2cbaf0	0.042170465
110	0x3cf86256	0.030320328
111	0x3d4e65c5	0.050390024
112	0xbd3dc4c9	-0.046330247
113	0x3d4798c9	0.04872969
114	0x3b2679e0	0.0025402233
115	0xbc3f788d	-0.011686456
116	0x3d0636cb	0.0327671
117	0xbd13bef9	-0.036070798
118	0xbc491684	-0.012273435
119	0xbc84bdbc	-0.016203754
120	0xbd3ac237	-0.045595374
121	0xbb99aa71	-0.0046895077
122	0x3d509de6	0.050931834
123	0x3ca67bde	0.020322736
124	0xbcdbc16c	-0.02682563
125	0x3d04f818	0.032463163
126	0xbb8a5c40	-0.004222423
127	0x3d166cb6	0.03672477
128	0x3d059958	0.032616943
129	0xbc5c3590	-0.013440505
130	0xbb3586c2	-0.002769873
131	0xbca0a3dc	-0.019609384
132	0x3d464ba9	0.048412
133	0x3ceeface	0.029172327
134	0xbd4a8e3e	-0.04945206
135	0x3cbcf3ac	0.02306541
136	0xbd3eda04	-0.046594635
137	0xbce53194	-0.027977742
138	0x3cd6adff	0.026206015
139	0xbc1d36d5	-0.0095955925
140	0x3d1ad179	0.037797425
141	0xbc364c19	-0.0111265415
142	0xbd241ca9	-0.040066395
143	0xbd0c4ea1	-0.034254674
144	0xbcca7f67	-0.024718953
145	0x3b1102db	0.0022126946
146	0x3c8f491e	0.01749092
147	0xbcffadd5	-0.03121082
148	0xbdf49fb2	-0.11944522
149	0x3bcd8f23	0.0062731667
150	0xbc88179e	-0.016612824
151	0x3d18465f	0.037176486
152	0xbcf8751e	-0.030329283
153	0x3bf6e353	0.0075344234
154	0xbc453d17	-0.012038491
155	0x3a95b579	0.0011421881
156	0xbd20fb80	-0.03930235
157	0xbb2e21db	-0.0026570472
158	0x3d1e61fd	0.038667668
159	0x3ce86476	0.028368216
160	0xbc89f5ff	-0.016840933
161	0xbd30a302	-0.043124206
162	0xbcfad011	-0.030616792
163	0xbd3beebb	-0.045881968
164	0xbccae83d	-0.024768943
165	0x3c2a6484	0.010399941
166	0xbcacc154	-0.02108828
167	0x3d2bf99b	0.04198609
168	0x3c69eda8	0.014277853
169	0xbd10f7a9	-0.035392437
170	0xbd2b4c17	-0.04182061
171	0x3c817ea9	0.015807467
172	0xbd48c48f	-0.049015578
173	0xbbf22639	-0.0073898104
174	0x3d2b296d	0.041787554
175	0xbb778cb3	-0.0037773072
176	0xbb84a7d0	-0.004048325
177	0x3cbeb330	0.023278803
178	0x3d0c08c9	0.034188066
179	0x3d126a1c	0.035745725
180	0xbd063938	-0.03276941
181	0xbd64e17a	-0.055879094
182	0x3cd9082d	0.026493156
183	0x3cd79cd9	0.026319908
184	0x3d238fe9	0.039932165
185	0xbc564c0c	-0.013079654
186	0x3c8f268e	0.017474439
187	0xbc05efe6	-0.008174872
188	0x3d246747	0.040137555
189	0x3d3a2b65	0.04545154
190	0xbce31890	-0.027721673
191	0xbbe75b6c	-0.007060459
192	0x3d066d79	0.032819245
193	0xbceae165	-0.02867193
194	0xbcfea565	-0.031084726
195	0x3d0afb24	0.033930913
196	0x3cf2cf7c	0.029639952
197	0x3c808136	0.015686613
198	0xbe140657	-0.14455543
199	0xbaa2e8b4	-0.001242897
200	0xbd05c3c5	-0.032657403
201	0xbd295b8d	-0.041347075
202	0xbcadb98a	-0.021206636
203	0x3b49526f	0.00307193
204	0x3d045dc8	0.032316
205	0x3bcb1f56	0.006198804
206	0xbd0835f7	-0.03325459
207	0xbd00a3e0	-0.031406283
208	0x3cfb4246	0.03067125
209	0xbd96371f	-0.07334732
210	0x3ce738fe	0.028225418
211	0x3c945aaa	0.018109638
212	0xbd0b349c	-0.03398572
213	0x3d30e6db	0.04318891
214	0xbd4ee208	-0.05050853
215	0x3c4903a4	0.012268934
216	0xbc53de18	-0.012931369
217	0x3cd4b6f9	0.025966154
218	0xbb28247b	-0.002565651
219	0xbc27b220	-0.010235339
220	0x3d29dba3	0.041469228
221	0x3cdb67b2	0.026782844
222	0xbd09a1f9	-0.033601735
223	0x3d386a2b	0.045023125
224	0x3c9773f9	0.018487917
225	0x3cfba5fe	0.0307188
226	0xbb60c439	-0.0034296645
227	0xbcf5038d	-0.02990892
228	0x3c27c1ea	0.010239104
229	0xbcf10c5a	-0.029424835
230	0x3d0728b9	0.03299782
231	0x3d24a6ca	0.040198125
232	0xbd00b631	-0.03142375
233	0xbc123443	-0.008923593
234	0x3cc65120	0.024208605
235	0xbd0e3dd3	-0.03472693
236	0xbb100e3c	-0.002198114
237	0x3d4d1182	0.050065525
238	0xb98aa3ba	-0.00026443397
239	0x3d035229	0.032060776
240	0xbcc9b6a6	-0.024623226
241	0x3c7ba069	0.015358069
242	0xb93da200	-0.00018084794
243	0xbd64b485	-0.05583622
244	0x3ae04ae0	0.0017112158
245	0x3cbe71ea	0.023247678
246	0xbca24565	-0.01980848
247	0x3ba091b8	0.0049001835
248	0xbd003ad4	-0.031306103
249	0x3ca53722	0.020167891
250	0xbd0df1ea	-0.034654535
251	0xbd360fbf	-0.04444861
252	0x3cedd8e6	0.02903409
253	0x3d4e76d5	0.050406296
254	0xbe17bce2	-0.14818147
255	0xbd3a6eb1	-0.04551572

fc3.weight f4 [1, 300]
0	0xbcdb457d	-0.026766533
1	0xbcdc2722	-0.026874129
2	0xbcd3c585	-0.02585102
3	0xbbb91bd6	-0.0056490703
4	0xbceb81e4	-0.02874846
5	0xbbd7ee2f	-0.006589673
6	0xbcfb7be9	-0.030698733
7	0xbcdc2ce1	-0.026876869
8	0xbcecdafa	-0.02891301
9	0xbbbdc8a9	-0.005791743
10	0xbceb1347	-0.028695716
11	0xbb05b0f4	-0.0020399662
12	0xbcb81692	-0.0224717
13	0xbcf62275	-0.030045727
14	0xbcdbcb03	-0.026830202
15	0xbb8d189d	-0.0043059126
16	0xba2889f4	-0.0006429248
17	0xbb547b53	-0.003242214
18	0xbcee987d	-0.029125446
19	0xbce4e285	-0.027940044
20	0xbce1c651	-0.027560385
21	0xbce0fcb9	-0.027464258
22	0xbc15d838	-0.009145789
23	0xbb240ab4	-0.0025030794
24	0xbbbb686b	-0.0057192347
25	0xbe2b7034	-0.16742021
26	0xbb9b6834	-0.0047426466
27	0x3bd0b395	0.006369064
28	0xbce01670	-0.027354449
29	0xbcd719bb	-0.026257386
30	0xbb85aff0	-0.0040798113
31	0x3df158a1	0.11784483
32	0xbe2b1a31	-0.1670921
33	0xbcc38425	-0.023866722
34	0xbcebc7fe	-0.028781887
35	0xbba3f62c	-0.005003711
36	0xbce85e4b	-0.028365275
37	0xbd002816	-0.03128823
38	0xbb9787f0	-0.0046243593
39	0xb9e27d40	-0.00043199398
40	0xbce5a8ca	-0.028034586
41	0xbab8cd57	-0.0014099282
42	0xbceddb8d	-0.029035354
43	0xbcd2686c	-0.025684558
44	0xbcd7b41b	-0.026330998
45	0xbcdaeece	-0.0267252
46	0xbb7260a9	-0.0036983883
47	0xbae1e1c8	-0.0017233426
48	0xbcd9194f	-0.026501326
49	0xbb8ffa30	-0.0043938383
50	0xbb2034ac	-0.0024445457
51	0xbb8bb96b	-0.004264047
52	0x3c198b63	0.009371611
53	0xbcfa939e	-0.030587967
54	0x37855980	1.5896512e-05
55	0xbce956a8	-0.028483704
56	0xbb8cec6a	-0.0043006437
57	0xbce6f77c	-0.028194182
58	0xbced4220	-0.028962195
59	0x3ac58b80	0.0015071481
60	0xbcd07669	-0.025447087
61	0xbce7f6d6	-0.028315943
62	0xbceb1ce8	-0.028700307
63	0xba9d84f5	-0.0012017774
64	0xba864018	-0.001024249
65	0xbbbea679	-0.005818185
66	0xbcf69483	-0.030100113
67	0xbcf97c20	-0.030454695
68	0xbbc841ea	-0.006111373
69	0xbcd3dece	-0.025863077
70	0xbce685aa	-0.028139908
71	0x3a99b53c	0.0011726986
72	0xbbb1e77a	-0.0054292055
73	0xbce8e64c	-0.028430127
74	0x3ac0cf68	0.0014710249
75	0xbce17c9f	-0.027525244
76	0xbbef9407	-0.0073113474
77	0xbcd83b40	-0.02639544
78	0x3b27af39	0.0025586619
79	0xbba62f57	-0.0050715613
80	0xbe1f0403	-0.15528874
81	0xbcd9c43e	-0.026582833
82	0xbc21dda2	-0.009879502
83	0xbcc2f541	-0.023798587
84	0xbcee4bc6	-0.029088866
85	0x3ac19304	0.0014768546
86	0xbc0dd325	-0.008656298
87	0xbe18ed52	-0.1493428
88	0xbc3c76ac	-0.011502903
89	0xbcd7ee32	-0.026358698
90	0x39799840	0.00023803208
91	0xbcc66c4a	-0.024221558
92	0xbcdcf299	-0.026971148
93	0x3b21bdb6	0.0024679727
94	0xbcaffcea	-0.021482904
95	0xbccbb63b	-0.024867168
96	0xbbea2085	-0.00714499
97	0xbce6f68f	-0.02819374
98	0xbce7e945	-0.028309474
99	0xbab7a5a0	-0.0014011152
100	0x3c0721e3	0.008247825
101	0xbb940d2b	-0.0045181713
102	0xbce88fed	-0.028388942
103	0xbab3aa05	-0.0013707286
104	0xbb87c980	-0.0041438937
105	0x3aebf120	0.0018000938
106	0x3a118268	0.0005550743
107	0xbce72a67	-0.028218461
108	0xbcd3b7cc	-0.025844477
109	0xbccfa29e	-0.025346097
110	0xbcf8ec90	-0.03038624
111	0xbd01404f	-0.03155547
112	0xbbcd7a18	-0.006270658
113	0xbcf20ccf	-0.029547123
114	0x3a8c73f4	0.0010715709
115	0xbb9b9300	-0.0047477484
116	0x3c80bc74	0.015714861
117	0xbbb5292e	-0.0055285906
118	0xbd02b56f	-0.03191131
119	0x3ac5742c	0.0015064529
120	0xbceb602e	-0.028732385
121	0xbceabeb3	-0.028655386
122	0xbcf24375	-0.029573182
123	0xbcca0391	-0.024659904
124	0x38df8a20	0.000106591964
125	0xbcec9e4a	-0.028884072
126	0xbcd8bc7c	-0.026457064
127	0xbcd81369	-0.026376443
128	0xbcda9b16	-0.026685279
129	0x3c15712e	0.009121222
130	0xbcf3c7d8	-0.029758379
131	0xbcf5e0f6	-0.030014496
132	0x395cc1e0	0.00021053059
133	0x3a1d4290	0.00059989933
134	0xba98f5ec	-0.001166997
135	0xbcd39eee	-0.02583262
136	0xbab633e8	-0.0013900967
137	0xbb90521b	-0.004404319
138	0xbce89db1	-0.028395506
139	0xbbb16c99	-0.005414557
140	0xbcd46929	-0.02592905
141	0xbcf3efdd	-0.029777462
142	0xbab4dbac	-0.0013798377
143	0xba3776e4	-0.0006998612
144	0xbba252d1	-0.00495372
145	0xbcd1ca6e	-0.025609221
146	0xbbc05a28	-0.0058701225
147	0x39cb3fa0	0.00038766582
148	0xbe26bd90	-0.1628325
149	0xbcc53ed9	-0.02407782
150	0x3a9e1a6c	0.0012062318
151	0xbb89c82f	-0.004204772
152	0xbcea7a87	-0.028622879
153	0xbba9141f	-0.0051598693
154	0xbbc30c93	-0.0059524267
155	0xbcd899a7	-0.026440455
156	0xbba8eee3	-0.0051554306
157	0xbcf3ca0e	-0.029759433
158	0xbb1e5852	-0.002416153
159	0xba406d44	-0.00073405006
160	0xbcc16c74	-0.023611285
161	0xbb93b692	-0.004507848
162	0xba732844	-0.00092757144
163	0xbbbd490a	-0.005776529
164	0xbb46ddc0	-0.0030344576
165	0xb9cc5ce0	-0.0003897911
166	0xb9bff268	-0.00036610966
167	0x3a39e57c	0.0007091386
168	0xbcca3053	-0.024681246
169	0xbcd3ce65	-0.025855253
170	0xbd3fcdf2	-0.046827264
171	0xbcf11748	-0.029430047
172	0xbcf5a25a	-0.029984642
173	0xbce84f59	-0.028358148
174	0xbcead001	-0.028663637
175	0xbbaf476a	-0.0053490894
176	0x3b286b3c	0.0025698682
177	0xbb89f5b6	-0.004210199
178	0xbb3b443c	-0.0028574606
179	0xbcf960b4	-0.03044162
180	0x3b2aa36e	0.0026037353
181	0xbb874551	-0.004128136
182	0x3cc3589b	0.023845961
183	0xbbf79377	-0.007555421
184	0xbd01b391	-0.03166539
185	0xbb49b9c5	-0.0030780893
186	0xb9fec6e0	-0.0004859483
187	0xbbb18b97	-0.0054182517
188	0xbce6769d	-0.028132731
189	0xbcf75cf6	-0.030195694
190	0xbb360778	-0.0027775448
191	0xbb9839ae	-0.004645548
192	0xbb0c1c7a	-0.0021379278
193	0xbcf61334	-0.030038454
194	0xbce378d5	-0.027767578
195	0xbce5c1af	-0.028046457
196	0xbcf81b9d	-0.030286605
197	0xbcdc04c2	-0.026857737
198	0xbe483852	-0.19552734
199	0xbce77c71	-0.02825758
200	0xbb64431a	-0.0034830035
201	0xbc2cc0ad	-0.010543984
202	0xbcf118d6	-0.029430788
203	0xbb873989	-0.004126732
204	0xbcee7479	-0.029108273
205	0xbcf43abc	-0.029813163
206	0xbbad50f1	-0.00528919
207	0xbb903c82	-0.0044017443
208	0xbce74d8c	-0.02823522
209	0xbe1b697c	-0.15176958
210	0xbcda60a5	-0.026657412
211	0xbb1e1a14	-0.002412443
212	0xbceb7017	-0.028739972
213	0x3a47a4d8	0.0007615811
214	0xbc234232	-0.009964513
215	0xbbe53794	-0.006995151
216	0xbb4368e8	-0.0029817168
217	0xbcf37cdf	-0.02972263
218	0xbbb93105	-0.0056515955
219	0xbcd18a95	-0.025578776
220	0xbcdca0ce	-0.026932146
221	0xbcea11ce	-0.028572943
222	0xbccce11b	-0.025009682
223	0xbce4c19a	-0.027924348
224	0xbcd7c1a1	-0.026337447
225	0x3b3321ea	0.0027333447
226	0xbbca3cbd	-0.0061717913
227	0xbb6ce2c5	-0.0036145907
228	0xbbaa85a2	-0.0052039186
229	0xba549980	-0.00081100315
230	0xba443f78	-0.0007486264
231	0xbcd3033e	-0.025758382
232	0xbb652dc2	-0.00349699
233	0xbce3c2a8	-0.02780278
234	0xbcd08eb2	-0.025458667
235	0xbb6d9c45	-0.0036256474
236	0xbe2fd828	-0.17172301
237	0xbce221ac	-0.027603947
238	0xbcc2ef53	-0.02379576
239	0xbbafa4a2	-0.005360202
240	0xbcd8138d	-0.02637651
241	0x3e21fa70	0.1581819
242	0x3afcaf78	0.0019278368
243	0xbb9d1ece	-0.004794932
244	0x3b3f7c58	0.0029218402
245	0xbabe682b	-0.0014526894
246	0x39eb0160	0.00044823717
247	0xbcea4377	-0.028596623
248	0xbb159586	-0.0022824719
249	0xbcef614a	-0.029221196
250	0xbcf0fbca	-0.029416937
251	0xbc05038c	-0.008118521
252	0xbccbaea9	-0.024863558
253	0xbce65a88	-0.02811934
254	0xbe29d925	-0.1658674
255	0xba64d2b4	-0.0008728907
