lab5/code/DDPG/ddpg_actor.pth (torch, 490711 bytes, 5 tensors)

fc1.weight f4 [400, 3]
00000000: 53d6 a4be ee6f a33d e1b5 3ebe 7a3c 893c
00000010: 12cf e13c 309e 81bc a70a 973e a149 9cbc
00000020: 71a8 bf3d c357 c83d 6d5d b33b ce14 49bd
00000030: f294 8abe fb90 873d b15e 58bd eb36 1dbd
00000040: a6d9 afbe 7bfa 53bd cb01 823b 49fe d23e
00000050: 0adc 4bbe aac6 33bd 5b34 e3bd 893b 17bd
00000060: 294e 4f3e b163 073e 1c4f 7d3d 5fc2 d83d
00000070: 800d a83d 31c4 b4bd 29ef 1d3e c03e 98bd
00000080: 3e01 e93c e69a 03bf eeb4 803d b783 a3bc
00000090: fb70 3b3d 0aad 993c 005c 0e3b a210 bf3c
000000a0: e968 0d3d d336 323d a281 e43c c058 bd3b
000000b0: e07c adbc 506a 1ebe 86c3 30bd 4e61 3a3b
000000c0: 5e1a 52be be5d a3bd a7e6 963d f0de b43d
000000d0: 4dcc 263e 41ea 1cbd e012 403e c07e 09be
000000e0: 3e42 67be 1b08 223d 3856 cabc 356c f53b
000000f0: be6f a3bd 2f17 94be 1a18 25bd 2287 603e
00000100: b36d 8b3e 9c24 ba3d d865 b73d e57f 8e3e
00000110: 0af7 7f3c a8cd 84bd 6afe 9a3e 6f79 eebc
00000120: a8ec 5bbc 19fa 2f3d 191a 093d f5b1 54be
00000130: e47e 553e d9eb 0dbd f44a c33d 8dc0 b1bd
00000140: ec61 d63d 9d05 48be 58e1 ffbb 7c61 9fbd
00000150: 98e3 c33d 087f 91be 51d6 b2bd d194 fdbe
00000160: 2ebf dd3d 19c9 c33c 426e bd3c e907 413d
00000170: 22c6 be3c aa4d 613e b392 09bf 9e64 48be
00000180: 93d7 f8bd b77b 8e3e 2b14 25bd 3c19 1fbe
00000190: f7f0 163b 73a4 24be 1944 0dbe 43a3 42be
000001a0: 7afb 6ebd f7c0 a3bd 7eaf fc3c d747 853c
000001b0: adc6 683d 439f 0abf 5400 35be be07 393d
000001c0: ee48 823e 4a1a 60be 915e 50be 4a00 1bbe
000001d0: 4583 3dbd 387b 933e 1de7 5fbd 7700 9a3d
000001e0: 9577 06bd e438 433e facc 00be e4b9 cc3d
000001f0: 49c6 04bd dd2e b63d 8ba2 b2be bc7e 263e
00000200: 7b87 9bbc 4c8e 1a3e 2bee 9a3e 919d ae3d
00000210: ad35 8b3c c968 323b 8544 93bc b067 e23b
00000220: 7499 633c d2ff c83c 7f62 6a3e daf8 edbe
00000230: 2b14 11be 743a 433e a609 943e 740c bb3d
00000240: fe20 ef3c ca2a e83c ec34 3cbc 4e79 863e
00000250: 67a1 a7bc 5ffd e8bd c66b 75bc 1f12 5e3e
00000260: ff97 cfbc 3d32 78bd 8151 b2be c23b 4ebc
00000270: fd90 1bbc dea5 2c3e 3c96 b9bd 8e1b 6c3e
00000280: cc35 113e bbc6 8e3d 4c3b 463e 835e 943e
00000290: 2f12 d1bd 792b 223e f01b f5be ca50 bcbd
000002a0: c9ce 283d 900c b2bb bd5b a4bc 0034 e6b8
000002b0: 00a6 9cba b04a a7bb 78c8 463e 11f9 973d
000002c0: e439 62bc 783d 58be 0806 603d c728 5abd
000002d0: 5d4c e9bc 005c f3bb 1e2e 8c3c bc72 2c3e
000002e0: e735 683e 19cc 6fbd 4088 f23d e734 2abe
000002f0: 77af fd3c 55dc 9c3d 8a8d 503d 506d 603d
00000300: d005 a7bc 5bc4 283d dac1 943c 55d6 843d
00000310: 63b5 bebd d2d6 6ebd 4243 a03c 108c f63b
00000320: a48a 5b3c ce63 dc3c c0ac 5e3a e148 223d
00000330: 40c5 7fba bd7f 1abd 6d38 3cbd ff93 debd
00000340: b3c3 0dbe b98b 4ebd 0c31 943d ccaa 59bc
00000350: 18f4 cdbc 3b72 a63e b147 fbbc a754 d93d
00000360: 6e94 943e b100 e63d 684c 7ebd 29be 31bd
00000370: 375a 313f 6905 263c e551 1cbe 5275 8d3d
00000380: a116 f5bc 4720 2c3d 1f81 5a3d ec32 2cbe
00000390: b961 25be 5089 17be 6092 4ebd 3fc8 7fbe
000003a0: 1fad e53e 23e6 66be 2f99 b73e 2a36 5cbe
000003b0: f00a f7bd 226c 36be f671 e1ba 78f7 02bd
000003c0: 660a ecbd 19df 11be 1544 3abd cd2b 5dbe
000003d0: d94e efbd c1dc 90bd 8194 3d3d 6259 5f3e
000003e0: b11a 90bd c3a9 0bbc ac53 7d3e 1a61 65bd
000003f0: 84cb 59be 175f b6bc 4b81 60bd 8c0a 6d3e
-0.32194766 0.07980333 -0.18624069 0.01675247 0.02756456 -0.0158225 0.29500315 -0.019078078
0.093582995 0.09782364 0.0054737837 -0.049092107 -0.2706676 0.0661945 -0.05282468 -0.038382452
-0.3434574 -0.05175255 0.003967499 0.4120963 -0.19908157 -0.043890633 -0.110939704 -0.03692201
0.2024466 0.13221623 0.061843023 0.10583948 0.082057 -0.08826483 0.15423264 -0.074338436
0.028442975 -0.5140823 0.062845096 -0.019960267 0.045762043 0.01875927 0.0021722317 0.02332336
0.03452388 0.043509316 0.027893845 0.005778402 -0.02117771 -0.15470243 -0.043155216 0.0028439346
-0.20517871 -0.07976864 0.07368212 0.088315845 0.16288872 -0.03830934 0.187572 -0.13427258
-0.22583863 0.03955851 -0.024699315 0.007489706 -0.079802975 -0.28923938 -0.04030619 0.21926549
0.2723213 0.09089014 0.08954972 0.2783195 0.015622864 -0.06484538 0.30272228 -0.029110638
-0.013423122 0.04296312 0.033472154 -0.2077101 0.20849186 -0.03464875 0.095357805 -0.08679304
0.10467896 -0.19533391 -0.0078088455 -0.077822655 0.095648944 -0.2841723 -0.08732284 -0.495276
0.1082748 0.023899602 0.023123864 0.047126684 0.023287836 0.22002283 -0.5373947 -0.19569632
-0.121504925 0.27828762 -0.040302437 -0.1553697 0.002303181 -0.16078357 -0.13795508 -0.19007592
-0.058345295 -0.079957895 0.0308454 0.016269607 0.056830097 -0.54149264 -0.17675906 0.0451734
0.25446266 -0.21885028 -0.20348574 -0.15136829 -0.046267767 0.28804946 -0.054663766 0.0751962
-0.032828886 0.19064671 -0.12578192 0.09996393 -0.032415662 0.08895657 -0.34889635 0.16259283
-0.0189855 0.15093344 0.30259833 0.08526147 0.016993368 0.0027223101 -0.017977009 0.006909333
0.013891567 0.024536047 0.22889136 -0.4647892 -0.1416785 0.19065267 0.2891361 0.091332346
0.029190537 0.028340716 -0.011487227 0.26264423 -0.020462705 -0.11376452 -0.0149793085 0.216866
-0.025341032 -0.060594786 -0.34827808 -0.01258749 -0.009495017 0.16860148 -0.09061858 0.23057386
0.14180678 0.069714986 0.19358557 0.28978357 -0.10208546 0.15836896 -0.47872877 -0.09195097
0.04121283 -0.0054336265 -0.020063275 -0.000109769404 -0.0011951327 -0.005105339 0.1941241 0.074205525
-0.0138077475 -0.21117198 0.05469325 -0.053261545 -0.028478796 -0.0074267387 0.017111834 0.16840643
0.22676812 -0.058544252 0.11842394 -0.16621743 0.030967457 0.076592125 0.050916232 0.05479175
-0.020388514 0.041202884 0.018158842 0.06486193 -0.093119405 -0.058310337 0.019563321 0.007524021
0.013399754 0.02690306 0.00084943697 0.039620284 -0.00097568706 -0.037719477 -0.04595225 -0.10868072
-0.13844185 -0.05042622 0.072359174 -0.01328535 -0.025140807 0.32509026 -0.030673834 0.10611849
0.29019493 0.112306006 -0.062084585 -0.04339424 0.6927828 0.010133126 -0.15265615 0.06907143
-0.029918017 0.04202297 0.053345796 -0.168163 -0.1615056 -0.14798474 -0.050432563 -0.24978732
0.44858643 -0.22548728 0.35859057 -0.21505037 -0.12062633 -0.17814687 -0.0017200101 -0.031974286
-0.11525421 -0.14245261 -0.045475084 -0.2159874 -0.11684961 -0.070733555 0.046284202 0.2181144
-0.07036341 -0.008524361 0.2473895 -0.056000806 -0.21269041 -0.02226214 -0.054810803 0.23148555

fc1.bias f4 [400]
00000000: d703 e43d fc88 1fbe 5a39 9cbe acaf 2c3e
00000010: beb0 bb3e af66 da3d 6f39 80bc e597 ae3d
00000020: 3fbc 4fbe 6362 253e 4042 bbbd d0cd 0d3e
00000030: fa37 e8be d7ad f6be 416d 09bf 2b92 053e
00000040: 1db9 b73e 2ed1 373e c818 81bd e5a7 afbd
00000050: ca2b 893d 3333 5cbe 0db0 ed3d c3fa 873e
00000060: 6d69 acbe 1575 aa3e 54dc f1be 9588 ee3e
00000070: 667c a43d b346 963e 15ed 0dbf 4cce a8bd
00000080: 566b 8b3e 52fa bb3e f8fd 413e 39eb 963d
00000090: dc4d 95bd 77f7 7b3d 770d 653e 9863 60be
000000a0: 2a86 f33d 901d d1be c0a5 543e b7bf 04be
000000b0: 35ea 11be e039 01bf fb90 0bbe c9a1 3cbe
000000c0: 5382 adbe 4825 43be 2cca 903e 5db5 113e
000000d0: b779 cabe ca7f 6abe feb0 14be 4352 b8bd
000000e0: 7e45 46be 2ad0 70be 8816 d9bd 77f0 bb3e
000000f0: 9868 4cbe 7687 cabe bc71 31be b412 88be
00000100: 8c06 13bf f154 933e 38e0 0bbe 6224 f3be
00000110: 085a 0cbf b6d0 083e bfbb 68bd fd05 a9be
00000120: 611a 933d f739 093d 7ec3 7d3e fd2d 113e
00000130: 3f56 3d3e 5250 32bd 2328 81be 86b6 e33e
00000140: 4452 0c3e 9274 3f3e 2f73 bbbe 32b6 9d3d
00000150: 211e 283e 5edc 63be a54f f9be e3e1 d4be
00000160: 8d70 863d 54bf f1be 5982 cebe 9e51 83be
00000170: a48e 26bd 70b9 a6be e30f 0cbf 6566 813e
00000180: 1dee d9be 19e2 0e3e ed25 603e be9e a3be
00000190: 45ae 663e 0a6a 75bd ddd1 a43e 882e e3be
000001a0: 73e1 283e 8e17 98be a306 10bf 50bc edbe
000001b0: 6768 9d3d e05c 563e 669b 833e f8cd 793d
000001c0: 647d 05bf 31bf 6a3e a000 21bd d860 053e
000001d0: 640a 723d 6d4d 86bd 9471 88be 4a68 eebe
000001e0: 79a7 153e b21b bcbe ad0a 643e a303 38bc
000001f0: 2550 9cbe ae72 7f3e eb21 983e 15b0 3cbe
00000200: 0af8 1a3e 4a62 d0bd 0750 3e3e f0fe 4b3e
00000210: ce91 8ebe 7f87 12bf 7697 63be 6f85 ba3e
00000220: 4088 07bf 8f13 0d3e 1a59 09bf ae2b c9be
00000230: 8bce 9c3e 27ff b73e 55e1 873e 545b 07bf
00000240: ad5f 893e f093 bebe f1a6 ebbe 9a0e 0bbe
00000250: fda2 fe3d 010f a93d fccf c2be e257 2ebe
00000260: 9117 c3be f0f7 503e 0de1 263e dd2b fb3d
00000270: 8529 aa3e a61b a13e f1bc 733d 4d66 f53d
00000280: a2e0 e1be a01e d3bd 63ac fb3d 9e84 a9bd
00000290: 68a2 90bb 535c 5abe e02c f4be 5496 b13d
000002a0: 2511 883e 8e87 ba3e 2b74 4e3e 1347 e0be
000002b0: 56d3 0ebe dd68 a33e e12d a1be 5893 3abe
000002c0: 1f59 02bf 7005 d7be 5869 f4be 2c5a db3d
000002d0: d2a3 4c3d a195 873e 5e99 683e d07e d4bd
000002e0: c757 49bb 3a6c f2be 1ab8 a23d 0509 6f3d
000002f0: 0801 da3d 3c4c 83be 5cc1 eebd 3922 c83e
00000300: 7cca 84be 3900 733e 7c69 cebd 51c0 2e3e
00000310: 785c e4be d90e 663e 5f9c 753e a4fc 57be
00000320: dfca 12be 475a ec3e 62c1 6cbe 3ddb 583e
00000330: c001 df3d f8dd b6be 76c8 453e 7adb ab3d
00000340: b699 953e 78e3 a63e bcbf 96be 564b bcbe
00000350: 6ea4 83be d980 fdbe 4813 47be 9004 013e
00000360: 422e 32be 8f5d 983e 30a6 5b3e a9c8 6a3e
00000370: a085 70be 9cc7 313e 4bdd fdbd 2633 acbe
00000380: 417e 503d a568 a6be f3bf a63e 2669 6a3e
00000390: e7f2 d8be ed52 f7be 6e69 e5be 239f e3bc
000003a0: d1ef 0cbf 10e6 a8be 066f fcbe 1c8a 5cbe
000003b0: 71ba 563e 2e98 0e3e 84a1 903d 7081 e4be
000003c0: 5f3a 073e ca65 4c3d bb54 903d d6a0 e3be
000003d0: bc3d aabe 0d2f 983e 8481 0cbf a0df 0e3e
000003e0: 7915 e6be fc5d 9dbe 2a7e 973e 438d ccbe
000003f0: 7962 043f 37a4 9dbe cce0 83be e89e 523e
0.11133545 -0.15579599 -0.30512506 0.16863889 0.3665828 0.106641166 -0.015652386 0.08525065
-0.20286654 0.16150813 -0.091434956 0.13848042 -0.45355207 -0.48179504 -0.53682333 0.1304404
0.35883418 0.1795089 -0.06303555 -0.08576945 0.06697805 -0.21503906 0.11605845 0.26558504
-0.33674183 0.33292452 -0.4723841 0.4658858 0.080315396 0.29350814 -0.55439883 -0.08242473
0.27230328 0.36714417 0.18944538 0.07369084 -0.07290241 0.061515298 0.22368418 -0.21912992
0.11890824 -0.40842867 0.20766354 -0.12963758 -0.14249499 -0.50478935 -0.13629524 -0.18421091
-0.33888492 -0.1905719 0.28279245 0.14229341 -0.39545986 -0.2290031 -0.14520642 -0.09000065
-0.19362447 -0.23516908 -0.106000006 0.36706898 -0.19961774 -0.39556473 -0.17328542 -0.2657677
-0.57431865 0.28775743 -0.13659751 -0.47488695 -0.54824877 0.13360867 -0.056819674 -0.3301238
0.07182766 0.033502545 0.24781606 0.141777 0.18489932 -0.04353363 -0.25225934 0.44475192
0.13703257 0.18696812 -0.36611316 0.077007666 0.16417743 -0.22252032 -0.48693576 -0.41578588
0.06564436 -0.47216284 -0.40333822 -0.25648206 -0.040663376 -0.32563353 -0.5471174 0.25273433
-0.4256448 0.13953437 0.21889468 -0.31957048 0.22527416 -0.05991558 0.32191363 -0.44371438
0.16492252 -0.2970547 -0.56260127 -0.46432734 0.07685929 0.20933867 0.25704497 0.060987443
-0.52144456 0.22924496 -0.039307237 0.13025224 0.05909194 -0.065577365 -0.26649153 -0.4656394
0.14614667 -0.3673988 0.22269697 -0.011231336 -0.30529895 0.2494609 0.29713377 -0.18426545
0.15133682 -0.10174997 0.18585216 0.1992147 -0.27845615 -0.57238 -0.22225747 0.36429927
-0.52942276 0.13776992 -0.53651583 -0.39291137 0.3062633 0.35936853 0.26539102 -0.5287373
0.26830807 -0.37222242 -0.46025804 -0.13579789 0.12433431 0.08254815 -0.38049304 -0.17025712
-0.38103917 0.2040708 0.16296788 0.12264226 0.33234802 0.31466407 0.05950636 0.11982403
-0.44116694 -0.10308576 0.122887395 -0.08277248 -0.0044138916 -0.21324281 -0.47690487 0.08671251
0.2657558 0.36431545 0.20161502 -0.43804225 -0.13947806 0.31915942 -0.31480315 -0.1822027
-0.5091724 -0.41996336 -0.4773662 0.10710558 0.04996092 0.26481345 0.22714755 -0.1037575
-0.0030722485 -0.47348195 0.07945271 0.05835821 0.10644728 -0.256441 -0.11657974 0.3908861
-0.25935733 0.23730554 -0.10078713 0.1706555 -0.44601798 0.22466601 0.23985432 -0.21092469
-0.14335202 0.46162626 -0.23120645 0.21177383 0.10889006 -0.35716224 0.19314751 0.08391471
0.29218835 0.3259542 -0.29443157 -0.36776227 -0.25711387 -0.49512365 -0.19440949 0.12599397
-0.17400458 0.2975888 0.21450114 0.22928108 -0.23488474 0.17361301 -0.12395724 -0.33632773
0.050901655 -0.32501712 0.3256832 0.22891673 -0.4237282 -0.48305455 -0.44807 -0.027785843
-0.5505343 -0.32988024 -0.49303454 -0.2153706 0.20969559 0.1392524 0.07062057 -0.44630003
0.1320586 0.04990176 0.07047411 -0.44458646 -0.33250225 0.29723397 -0.54885125 0.13952494
-0.44938257 -0.30735767 0.29588443 -0.39951524 0.5171276 -0.30789348 -0.25757444 0.2056843

fc2.weight f4 [300, 400]
00000000: 6145 6d3e a4da a0bc 1b48 493e 4910 513c
00000010: af16 fabc 89a0 24bd 37fa 3d3e 2eff 97bc
00000020: 8c0b 523d a984 223b 7e6b 26be b13b 2abd
00000030: 7222 1c3d 86c1 1a3d 167c 5c3d e519 b2bd
00000040: f748 1abe 118a 52bd cb98 2f3e b04a 043b
00000050: 7839 b9bd 87d2 333e c8b9 5abd 0ae3 0b3c
00000060: 5474 c73c dd4d 62bd 64dd 553e 3fd2 0b3c
00000070: e7d7 6d3b 3102 8ebd 2423 33bd cc92 b93d
00000080: 4c88 a23c ad8f 2b3c 8372 353c d424 97bd
00000090: 5a26 923d 2b69 d73d 199d 233d f9b2 183e
000000a0: 9525 f53d cb9b 803e 5740 c0bc 4ae9 d63d
000000b0: b295 2bbd d840 023d 8a17 d83b aabb d83d
000000c0: d048 a63c 0f82 d5be 2905 99bd 99b8 0fbc
000000d0: 8faf d4be 0374 aa3d b219 7fbd 2337 b2bd
000000e0: 10bb b83b 181a 053d e8ec 0abe a5fa 8bbd
000000f0: 3a08 333d dc22 4fbe fd50 54be bfcb 503c
00000100: 4187 1fbd 64e0 d1bd 685b c2bb 3813 b6bb
00000110: faa6 42bd 78e7 853c fc68 65bc 2eab 1a3e
00000120: 3ff8 9abd 434a 0dbe 65ae 86bd 0324 9f3d
00000130: 708e 083d 64f2 303d 1db8 88bd 0657 7fbd
00000140: 2d78 c3bb d3ca 1e3e 3a06 0fbf b228 fdbc
00000150: 2f9a a93d 2626 df3d f87a 6e3c b064 3ebc
00000160: f238 91bb 79a6 31bd d0b1 ff3c 4057 c4ba
00000170: 1bac b73d 92b0 193e 70c0 2ebd 31f4 53ba
00000180: 900a cc3c a13c bb3c 5c5a 4f3d 7098 583c
00000190: 7575 a93c ba1a 283e 905d babd 5609 5b3d
000001a0: 34f1 d9bb c6d4 253d ea1e 243d 70a4 e33b
000001b0: cb9a d8bd 31fd d63c 2cf5 c2bd 6ac4 c33d
000001c0: 075b 5dbd e0de 163d cd9a 3cbd 880c b43d
000001d0: 95ce f63d d1ae 3c3d 49c6 b93d 6cd1 3c3d
000001e0: 300f 3f3d 154a 623e a294 963d f62c 343c
000001f0: 244d d63c bddd 75bc 67fc dc3c 3a23 1a3e
00000200: a876 653d 6aed c23d 93f9 12be 172d cbbd
00000210: 93cb 203e 3bee 0bbd 80ee 3e3c 65d4 c8bd
00000220: 0d3d 5c3e 8cf6 8a3c 3846 1bbc 70b8 0e3c
00000230: c4f8 0ebd 7e14 9bbd ffbe fc3b 0cb8 64bd
00000240: ee66 6dbd fdc4 5fbd d8ee 0cbd 3114 08bd
00000250: 685d 84bd f8c5 3ebd 5a01 253d da59 0ebd
00000260: e007 693c 79d2 40bd f807 013d 468f 8eba
00000270: 875e 41bd 3f92 a73b b2f4 593c 5e54 e13c
00000280: d880 613c f889 96bc dcdc 54bd cf48 13bd
00000290: 0e5a 183d 3c83 28be 7812 dfbb f2c6 b6bc
000002a0: e99b 7bbd 1126 adbd 8b8a f6bd 804b 2a3b
000002b0: 1615 453e 0dd2 97bd 60f2 8dba cb20 d33d
000002c0: 2c59 e03c 9ad4 2a3d 440b 08bc a276 d4bc
000002d0: 039b 963d 97f1 723d 4f02 8bbc 3182 16bd
000002e0: f7d6 45bd 92f6 a6bc e095 f3bc f242 923d
000002f0: e356 043d e41f 68bc d20a 1dbd e0ad afbd
00000300: 87a0 fe3d d633 4b3c 5cdb a7bd 5ebb 7c3c
00000310: 1095 3f3c 761d 943d e77e 6cbd b007 923d
00000320: ef48 7ebd 3bae 80bd ca9a 2bbd d12c 25be
00000330: 90bf b93d 6415 2cbc ec27 2bbd fe1f aebd
00000340: 43a6 94bd 49a5 17bb 8060 c13c aa8f adbc
00000350: 16ca 19bd f6aa 583d 2729 c7be a547 55bc
00000360: d9ed 7abe 91a3 2dbd 8c4f ea3d d788 a83c
00000370: 5ea5 c4be a882 f0bd 9515 e63d 4c9f 1dbc
00000380: fbc2 e63d b0ba f13c 64b2 7e3d 3126 563d
00000390: fc77 ce3c 4e50 153d 28df 823c 5dfb f4bd
000003a0: 60a3 533d cd4f f73d 003b c43a 4076 db3c
000003b0: f048 06bc 9b6b ac3d a313 313e dc4a 243d
000003c0: 02de 703d 213c a7bc 6f6e d5bd 6c24 1c3d
000003d0: 4498 563d eccb 0fbd 2873 2b3c 56da 5d3d
000003e0: 17d5 03bf 102b b2bc f57a 4dbd 9c84 543d
000003f0: 1c5c 9ebb 1252 343d 9ef5 393e e946 d139
0.23170997 -0.019635506 0.19656412 0.01276023 -0.030528395 -0.04019216 0.1855248 -0.018554296
0.051280543 0.002479831 -0.16251943 -0.041560832 0.038118787 0.037782215 0.053829275 -0.08696345
-0.15066896 -0.0514012 0.1714813 0.0020186119 -0.090441644 0.17560779 -0.05339983 0.008538017
0.024347462 -0.055250037 0.20885235 0.008534013 0.0036292018 -0.06934012 -0.043734685 0.090612024
0.019840382 0.010471267 0.011074665 -0.07380071 0.07136221 0.10518106 0.039944742 0.14912023
0.11970059 0.2511886 -0.02346818 0.10493715 -0.041890807 0.03180012 0.006594603 0.10582669
0.020298392 -0.4170079 -0.07471687 -0.008772039 -0.4154019 0.08322909 -0.062280364 -0.08701923
0.005637534 0.032495588 -0.13566935 -0.06834916 0.043709017 -0.20228142 -0.2073402 0.012743889
-0.038947348 -0.10247877 -0.0059313066 -0.0055564903 -0.047522523 0.016345724 -0.014002081 0.15104362
-0.075668804 -0.1379786 -0.06576232 0.077705406 0.033338964 0.04319991 -0.06675742 -0.06233885
-0.005965254 0.15507059 -0.55868876 -0.030903194 0.08281361 0.10895948 0.014555685 -0.011620685
-0.0044318372 -0.04337165 0.031212717 -0.0014979616 0.089683734 0.15008762 -0.04266399 -0.00080853986
0.02490738 0.022856059 0.050623283 0.013219938 0.02068589 0.16416445 -0.09099877 0.0534757
-0.006651068 0.04048612 0.040068544 0.0069470927 -0.105763994 0.026243778 -0.09519419 0.095589474
-0.05404189 0.036833644 -0.046046067 0.08791453 0.12051121 0.046065155 0.09071023 0.046098158
0.046645343 0.22098573 0.07352568 0.010997048 0.02615983 -0.01500648 0.026975824 0.150525
0.056021363 0.095179394 -0.14353018 -0.099207096 0.15702657 -0.03416274 0.0116535425 -0.09806136
0.21507664 0.016963266 -0.009477191 0.0087109655 -0.03490521 -0.07572268 0.007713198 -0.055839583
-0.05795949 -0.054631222 -0.034407467 -0.03322238 -0.06463128 -0.046575516 0.040284492 -0.034753658
0.014223069 -0.047075722 0.03150174 -0.0010876439 -0.04720929 0.0051138694 0.013302969 0.02750605
0.013763629 -0.018376336 -0.05196844 -0.035958108 0.037195258 -0.16456312 -0.0068076216 -0.022311661
-0.061427984 -0.08454526 -0.12038144 0.0025984943 0.19246325 -0.07413111 -0.001082968 0.10308989
0.02738627 0.04170666 -0.008303467 -0.025935475 0.07353785 0.05931243 -0.016968874 -0.036745254
-0.04830071 -0.020381246 -0.029734552 0.07141675 0.032309424 -0.01416776 -0.038340397 -0.08578086
0.12432962 0.012402495 -0.08196136 0.015425531 0.011693254 0.07232182 -0.05773821 0.071303725
-0.062081274 -0.06283232 -0.041895665 -0.16130377 0.09069741 -0.010503147 -0.04178612 -0.08502196
-0.072582744 -0.002313929 0.023605585 -0.021186668 -0.03754624 0.052897416 -0.38898584 -0.01301757
-0.24504794 -0.042392317 0.114409536 0.020573063 -0.38407415 -0.11743671 0.11234585 -0.009620499
0.11267658 0.029507965 0.062181845 0.052282516 0.025203697 0.036453538 0.01597555 -0.11962006
0.05166948 0.12075768 0.0014971197 0.026789784 -0.008196101 0.084189616 0.17292647 0.040110454
0.058805473 -0.020414414 -0.10421454 0.038120672 0.052391306 -0.035106584 0.010464467 0.0541633
-0.51497024 -0.02174905 -0.05016609 0.05188428 -0.0048327576 0.04402358 0.18160102 0.0003991642

fc2.bias f4 [300]
00000000: 5d17 1abe 9dd7 5ebc dd2f 30bc ecb9 f23c
00000010: 472f 74bb 3ef4 37bd dda9 e33c 3bd9 5abd
00000020: 58a9 e0bc 2f05 1f3d 9911 8c3c 8fcb 10bd
00000030: b0ea fb3c b87c 96bb 8f7e cdbd 7969 91bc
00000040: 03b3 1ebe b079 87bb 36d5 d43c 8fdc 00bb
00000050: 250a e63c 44f0 70bd 46bc 58bd 16fd 353b
00000060: b5ae 67bc a0d8 d03c 4937 93bd 04cb cfbb
00000070: 5d69 88bc 53f9 853d c199 3abd 937a 0a3d
00000080: a10a 2ebc 5a21 8d3d c36c 0d3d de0a 233c
00000090: 0c5e 97bc 373b bdbd 5392 b8bd 06e5 36be
000000a0: 1394 abbc 3704 fb3c 05b6 09bd 3d67 1dbd
000000b0: fc75 18bd fb27 00bd b693 78bd 3f8f 8c3d
000000c0: 3a92 553b b279 11bd 9b47 2ebd 3801 a3bd
000000d0: 617c f1bc c182 813d 7365 cc3b 82a7 b63c
000000e0: 3b30 20bd bd4a 9ebd 0c29 c93c 9ae3 4f3b
000000f0: c1aa a0bc 3a6e a3bd 485d fabd 63f6 a33b
00000100: eb83 cbbc 4c4b 9dbc 212d 083d f805 60bd
00000110: 75c2 86bc fec6 17be 2974 f0bc 9194 993b
00000120: 0fe3 b0bd 2366 fe3b 2e68 623d f81c bf3d
00000130: 145b a6bd ebe5 e4bd 5948 5abd 68fc 04bb
00000140: 2d33 08be da40 933d e58a 073c 1b65 283c
00000150: 1796 07be 3959 15bd ef58 e9bd 3e70 9bbb
00000160: 70b7 72bb 71f2 70bd c034 91bb 165d d23c
00000170: 9500 2bbd dc48 ae3d cf1e dcbb 12ac 67bc
00000180: 9632 8b3d 14b3 7dbc 28c2 3bbc f8a1 69bc
00000190: f9f9 46bc 48c3 fa3c 81e3 243d 4ee3 ff3c
000001a0: 272a 3eba 5c17 f8bc d12d f23c d689 e0bb
000001b0: c126 d03c 96dc 10bd 6850 b3bc 2408 013d
000001c0: cf15 ee3c 7138 58bd 81f6 4bbd 8a99 0c3d
000001d0: 7fb5 1ebe 4167 a0bd 3480 413d 6019 4a3d
000001e0: 07e4 a03c bee9 cfbd 4ada e1bc 65a0 f5bd
000001f0: 68ff 923d cf5b 983c e6c2 52bd d7b7 d5bc
00000200: add8 a1bc df35 903d ad86 cdbd 687f 0d3d
00000210: 779c 813c a1b0 f93c c80c 29bc 8d7e a63d
00000220: a264 b33b fa99 2b3d 982c 093b f8fc 053c
00000230: e3d3 53bd a9f8 adba 4e22 b7bc 6513 aa3c
00000240: cb97 023d 1c9e cdbc f741 afbd 5fbb c2bd
00000250: 7f9a 4c3c f79e f73c 443e a3bc e2a2 c6bd
00000260: 7b53 243d cb07 5fbd c02b 183d 691e 823b
00000270: b2db b9bd 24fa dabc 6b4e bcbd 5eed eebd
00000280: a792 9f3c f61b 0b3d d765 56bb fe7c 05bd
00000290: dc8b 2abc 9213 093d 5315 ad3c d663 663c
000002a0: 15aa 4cbc 7009 3d3d 44e8 1b3c 1569 b13c
000002b0: 9be6 24bd 631b 5ebd 0da6 6cbd 0708 b3bd
000002c0: 9aed 9a3b e9b4 143d f033 6abd 564c 44bd
000002d0: 0051 92ba 06c1 073d 411e 183d 6153 353c
000002e0: 301c 793c 8f60 43bd 70a2 5e3d 81bf 4bbc
000002f0: 3fac 3b3d 77c9 91bd 78ae 113d 3489 29be
00000300: d10b d8bd e3f2 bbbd be4b 193c d5f8 923d
00000310: 103c 0c3c 1009 1bbe c611 b5bb 4f9b 783c
00000320: ce87 0a3c 9739 10be 6cf1 acbd 103f b1bd
00000330: 662f e13c 4fa0 60bd 04e5 ecbd b6dd 953c
00000340: 256b 803d c05f 9bbb 4f72 14bd 4bb3 a03d
00000350: b72a 3ebe 53d1 0e3d 37d8 48bd a6a6 f2bb
00000360: 32e9 4fbd f884 fc3b aae5 06bd 51d5 893d
00000370: aa8e 4ebb e35b 3bbc ae49 bdbd efa3 70bc
00000380: 5af2 afbc 7b67 0abd 6f52 28bc 8ea0 163d
00000390: 526c 993c 2350 fcbd 6afa 593c 3e00 66bd
000003a0: a409 c9bd 5fbd c1bd b1c2 bebd 9813 98bb
000003b0: 9cd7 f9bc 4314 a5bc 0f24 84bd 9379 963c
000003c0: 8933 bfbc 8ffc 153d 3368 1dbe 7513 313c
000003d0: b23e 0fbd 1649 363d 63b7 53bd da55 cfbd
000003e0: 788d ad39 3bec 2dbd fcb1 a13d 00cc c83c
000003f0: ae06 b8bc 9e09 8cbc 6647 0cbd b4b8 eebd
-0.15047975 -0.013601211 -0.010753599 0.02962967 -0.0037259625 -0.044910662 0.027790958 -0.053429823
-0.0274245 0.038823303 0.017098235 -0.03535038 0.030751556 -0.0045925044 -0.10033905 -0.017750489
-0.15497975 -0.0041343793 0.025980573 -0.0019662713 0.02808101 -0.058822885 -0.052913927 0.002776926
-0.0141407745 0.02549392 -0.07188279 -0.00634134 -0.016651804 0.065416954 -0.045556787 0.033808302
-0.010622651 0.06891127 0.03452755 0.009951321 -0.018477462 -0.0923981 -0.09012284 -0.17860803
-0.02094463 0.030641658 -0.033620853 -0.038428534 -0.037221894 -0.03128813 -0.060687743 0.068632595
0.0032588379 -0.03551645 -0.042548757 -0.07959217 -0.029478254 0.063237675 0.0062376796 0.02229667
-0.039108496 -0.07729099 0.024555705 0.0031721354 -0.019612672 -0.079800084 -0.12224823 0.005003737
-0.024843177 -0.019200943 0.033246163 -0.054693192 -0.016450146 -0.14822003 -0.029352264 0.0046869
-0.08637058 0.0077636405 0.055275135 0.09331697 -0.081228405 -0.11176666 -0.053291652 -0.0020292047
-0.13300772 0.07190104 0.008272861 0.010278012 -0.13240848 -0.036462042 -0.11393916 -0.004743605
-0.0037035607 -0.05882496 -0.004431337 0.025679152 -0.041748602 0.085099906 -0.00671754 -0.014140146
0.06796758 -0.01548459 -0.011459865 -0.014259808 -0.012144559 0.030610695 0.040256027 0.031236317
-0.0007254206 -0.030284576 0.029562863 -0.006852369 0.025409104 -0.035366617 -0.021888927 0.031501904
0.029063134 -0.0527882 -0.04979563 0.034326114 -0.15498923 -0.07832194 0.047241405 0.049340606
0.019639982 -0.10152005 -0.027569909 -0.119934835 0.07177621 0.018598465 -0.0514554 -0.026088638
-0.01975664 0.07041525 -0.10035453 0.034545332 0.015821679 0.030479731 -0.010317989 0.081296064
0.005474643 0.04189489 0.002093112 0.008177988 -0.051715743 -0.0013272959 -0.022355225 0.020761201
0.031883042 -0.025099806 -0.08557504 -0.095083944 0.012488007 0.030227168 -0.019927152 -0.09699036
0.040118676 -0.05445079 0.0371511 0.0039709103 -0.09075107 -0.026730604 -0.091946445 -0.11666368
0.019479109 0.033962213 -0.003271451 -0.032589905 -0.010409322 0.03346593 0.021128332 0.014061889
-0.012491723 0.04615158 0.009515826 0.021656552 -0.040258985 -0.054225337 -0.057775546 -0.087417655
0.0047280313 0.036305342 -0.057178438 -0.047924362 -0.0011163056 0.033143066 0.037138227 0.011067242
0.015204474 -0.047699507 0.05435413 -0.012435795 0.045818564 -0.071185045 0.035566777 -0.16556245
-0.10549129 -0.09177186 0.009356437 0.07176367 0.008559242 -0.15140176 -0.0055258004 0.015173747
0.00845523 -0.14084469 -0.08444485 -0.08654606 0.027488422 -0.054840382 -0.11567119 0.018294197
0.06270436 -0.004741639 -0.036241826 0.078466974 -0.18570982 0.034867596 -0.049034324 -0.00740512
-0.0507595 0.007706281 -0.03293387 0.0673014 -0.003151814 -0.011435482 -0.09242569 -0.014687522
-0.021477867 -0.033790093 -0.01027356 0.03677421 0.018728409 -0.12319972 0.013304332 -0.056152575
-0.09816292 -0.09459948 -0.09314478 -0.0046410076 -0.030498318 -0.020151263 -0.0645219 0.018368518
-0.023340004 0.03661781 -0.1537178 0.010807862 -0.0349719 0.044503294 -0.051688563 -0.10123797
0.00033102534 -0.042461615 0.07895276 0.024511337 -0.022464123 -0.01709443 -0.03424778 -0.11656323

fc3.weight f4 [1, 300]
00000000: b528 e8bc 4b0b cebb 359a 84bf 38d6 fd3f
00000010: 5e42 f7ba 9b45 abba 867e a6bb 5377 49be
00000020: 3020 d53e aec1 713e 3747 cdbe af51 073e
00000030: 4a5d 47bb f5f4 063b 80aa c23e 5a2c 793d
00000040: 834b bfbe 5acc 2c3b 6ebd 41b9 6097 e43c
00000050: 716c 353f 7bfa 82be 2bfd 2c3f c587 013b
00000060: c6f9 043e 1234 053e 3e93 e9be f7ec 823d
00000070: c0ec 1b3f 94af 8440 9119 1840 1474 84ba
00000080: 5cc4 eb3a c172 c93d b4fd 7c3e 59bf 9f3d
00000090: d78f ad3f 563d bdbe 27dc 74c0 2676 88be
000000a0: 184e c83a 5719 e73a 6eb2 1d3b a107 0d3f
000000b0: fcd9 94ba ce19 7038 62ed 04bf 419d 133e
000000c0: 2242 bb3d 10e6 dd3a 3895 d23a 3d3b 20be
000000d0: 3587 843b 1511 993d 053e 6b39 b72d 22bb
000000e0: 4f73 073f 66b6 5bbc 203a 5240 f2bb bcbd
000000f0: d3ad 99b9 1172 a9bd 58aa 47bb a5eb d03d
00000100: cc06 bf3c 3731 8a3d d625 ec3a 4101 db3a
00000110: c543 d63d ea53 9dbf f45b 77bf 50f0 9d3f
00000120: abec c2be 5b9b 303b 1962 8e3e 2de8 f93d
00000130: 20c0 263f ec46 9dbf ebf4 33c0 fafa 193a
00000140: bb83 73be 5f85 4d3e 4a7b 2639 b2ef 333f
00000150: 5123 2fbe 289c 933b 0dbb 8fbe 7ef1 e43f
00000160: 0da3 3bbb 80fc eabd cc70 913a 5761 4f3b
00000170: 01cc 023b 3576 603e d5fa 76ba bddf 4a3e
00000180: a8c3 b33e db27 6d3f 8719 cab8 ffc8 f5ba
00000190: 5952 1dbb a588 8a3a 6ac0 b43f be38 f13d
000001a0: d7ab ef3a 931c 04bb 9f44 c8ba 19f4 48ba
000001b0: 9fd1 94ba a6e9 7aba 761d 2ebe c15b 9cba
000001c0: dfd9 483b 74a6 00b9 cc91 973a 04f7 1e3b
000001d0: 766c 9dbe 53a1 96bc 3a03 9f3f 5e81 493e
000001e0: 2f1c 47ba 0a61 27bf 127d 043b fbb0 32be
000001f0: a4e8 0140 f346 13bb 02f3 4c3a 2b4d b13a
00000200: c924 243f d01a 233e c808 153e b1bb ad3a
00000210: bed6 bc3f a29b 633f 1950 39bb a881 6640
00000220: 243a 03bb 2700 ad3f ee84 3eb9 6ea4 9c3e
00000230: d42b aabb db90 abbe 2aef f3bc 5f0d afba
00000240: abf6 fbb8 5f55 24bb d52d ddbe 0b7d 86be
00000250: b6aa 00ba 1036 133f 16c2 5d3a 38ba aabe
00000260: 5f7f c8ba fcd9 cbbf 88d4 5d40 e6f2 10bb
00000270: 0551 59bd 609e 8d3d 888a 72be aa25 8cbe
00000280: e9f2 4bbe 576d 07bb ae94 9abd 7a49 57bb
00000290: 9c0c 643a 236f 0b3b 2062 723f c546 b33b
000002a0: b8a6 33bb a9a6 2d3e e726 e3ba 4511 433a
000002b0: 6e18 e43a 626e 9cbe 102e 28c0 88f9 c6bd
000002c0: a863 6e39 aee4 753a 9e4d ebbe 912b f9b9
000002d0: 50ee c639 3ab5 4a3d 4a88 d0bc 7847 8b3d
000002e0: 213e 9c3e d7e1 2abb 4e7b 213e b404 643a
000002f0: 2e69 743e 516a 24bd 84be c93f 21e6 72bf
00000300: e3e7 17be 0d24 813f 3aca 0b3b f888 ed3d
00000310: 3b46 c3ba d5f8 8cbe e431 9c3a 9ae0 bb3d
00000320: 6479 d43d ee70 b93d 0fea 13be a0ae 62be
00000330: 84b0 d339 2082 fcbe 918a 533e 7098 58bd
00000340: c89a ac3f 828f 4a3b ce37 4d3a 24e5 933e
00000350: 80fe 72be 560b 20b7 d22b 8cba 3cd0 0f3e
00000360: fb4b 0240 7766 073e 83ab 2f3b f5d2 8c3f
00000370: 958c d738 0e3f d03a d46a 8e3f 7b12 9f3f
00000380: 2342 6f3d 4b2b c5b9 2287 39bb 4f61 ea3a
00000390: 88fc 903a f957 afbe 7d35 1a3b 2c9b 743d
000003a0: b2c2 60be 05e8 a8be a876 c5be 0ef2 3ebb
000003b0: 6285 81bb f9ec 5e3f 40bf e0be 5e7a d33d
000003c0: b799 2bbb 20f3 483a 851b 5dbf 06a0 59ba
000003d0: d37e 933a c2bf 703f 4a32 2e3b 76d7 093e
000003e0: 5a7c e4bd 80d2 f03a 1af5 fc3d 7386 a7ba
000003f0: 6b57 3a3e 81b1 703f 8273 3a3b 53de eabe
-0.028339723 -0.0062879673 -1.035956 1.9830999 -0.0018864383 -0.0013067009 -0.0050810007 -0.19674425
0.4162612 0.23609039 -0.40093395 0.13214754 -0.0030420595 0.0020592783 0.38020706 0.060833313
-0.37362298 0.002636692 -0.00018476482 0.027904212 0.70868593 -0.25581726 0.67573804 0.0019764763
0.12985906 0.13008144 -0.4562015 0.06392854 0.60908127 4.146433 2.3765604 -0.0010105395
0.0017987597 0.09836341 0.24706155 0.078001685 1.3559521 -0.36960858 -3.825937 -0.2665264
0.0015282063 0.0017631453 0.0024062651 0.55089766 -0.0011356468 5.724449e-05 -0.5192472 0.14415456
0.09143473 0.0016929526 0.0016066199 -0.15647598 0.0040444382 0.07473961 0.0002243445 -0.0024746486
0.5291032 -0.013410186 3.2847977 -0.09215535 -0.00029311943 -0.082737096 -0.0030466523 0.102011956
0.02331867 0.06747668 0.0018016647 0.0016708748 0.10462145 -1.2291234 -0.96624684 1.2338963
-0.38071188 0.0026948068 0.27809218 0.12202487 0.6513691 -1.2287269 -2.8118236 0.0005873885
-0.2378072 0.20070408 0.00015876922 0.7028762 -0.17103316 0.0045046993 -0.28072396 1.7886198
-0.0028631121 -0.11473942 0.0011096238 0.0031643712 0.0019958022 0.21920092 -0.0009421532 0.19811912
0.3511021 0.9263894 -9.6368654e-05 -0.0018751918 -0.0024005382 0.0010569288 1.412122 0.11778401
0.0018285465 -0.0020158633 -0.001527924 -0.0007665768 -0.0011353976 -0.00095715595 -0.17003426 -0.00119292
0.003064744 -0.0001226904 0.0011563837 0.002425612 -0.30746812 -0.018387472 1.242286 0.19678256
-0.0007595447 -0.65382445 0.002021615 -0.17450325 2.0298243 -0.002247271 0.00078181934 0.0013527026
0.6411863 0.15928197 0.14554131 0.0013254789 1.4753034 0.8890935 -0.0028276502 3.6016636
-0.0020023668 1.3515671 -0.00018169332 0.305942 -0.005193213 -0.33508953 -0.029777128 -0.0013355425
-0.00012014558 -0.00250753 -0.4319903 -0.26267275 -0.00049082504 0.5750437 0.0008459402 -0.333452
-0.0015296749 -1.5925899 3.4660969 -0.0022117435 -0.053055782 0.06914973 -0.23685658 -0.27372485
-0.19916882 -0.0020664537 -0.0754789 -0.0032850192 0.00086993887 0.002127596 0.94680977 0.005471083
-0.0027412605 0.16958107 -0.0017330319 0.0007441233 0.00174023 -0.30552965 -2.6278114 -0.09715563
0.00022734574 0.0009380084 -0.45957655 -0.0004752544 0.0003794306 0.049489237 -0.025455613 0.06800741
0.3051615 -0.0026074552 0.15769693 0.00086982106 0.23868248 -0.040140454 1.5761266 -0.948824
-0.14834552 1.0089127 0.0021330253 0.1159839 -0.001489825 -0.27533594 0.0011916724 0.09173699
0.10374716 0.09054743 -0.14444755 -0.22136927 0.0004037657 -0.49318027 0.20658328 -0.05287975
1.3484735 0.0030908291 0.0007828445 0.28885758 -0.23729897 -9.5393825e-06 -0.0010694212 0.14044279
2.0358875 0.13222681 0.002680511 1.1001879 0.00010278184 0.0015887932 1.1126351 1.2427515
0.058412682 -0.00037607024 -0.0028309305 0.0017881783 0.0011061588 -0.34246805 0.0023530417 0.059718296
-0.2194927 -0.32989517 -0.3856709 -0.0029135975 -0.003952668 0.8708034 -0.43895912 0.10326074
-0.002618415 0.0007665623 -0.86370116 -0.00083017384 0.0011253007 0.940426 0.0026580268 0.13461098
-0.11156531 0.0018373281 0.12351437 -0.0012781158 0.1819741 0.9402085 0.0028450196 -0.45872745
