lab5/code/DDPG/ddpg_critic.pth (torch, 491927 bytes, 5 tensors)

fcs1.weight f4 [400, 3]
00000000: cbc1 163f 5009 cebf bc8d b5be 453e 7c3f
00000010: 6410 3c3f 73af 7e3e fea7 cd2f 2e12 fd2f
00000020: 15eb 8cb3 6b1c 47bd 9706 e83c 0053 ccba
00000030: 74fb 393f 6e24 863e 3a51 06bd bb45 d4be
00000040: 81f6 29be c0ff 07be 49f4 02bf 82dc 513d
00000050: 5935 0f3e 0d1b 4ebf 6099 133f 377e 0c3d
00000060: 36f3 72be dbf8 0bc0 9a76 0a3e 32eb aebe
00000070: cb10 d63e e5ec eebd 9d81 c0be bbe8 82bf
00000080: ba42 8abe 5e8b 9c38 19a7 04b8 2904 29ba
00000090: f284 ac3c e0d9 a4ba ecc3 efbb e9d3 103d
000000a0: 54e9 34bd cbb8 b8bb f618 bd39 a676 fb36
000000b0: 12ab 76ba 3524 fa3b 5407 013d a300 d938
000000c0: 84dc 6bbe 5baa 233e 0a25 d6bc 31bd cfbe
000000d0: 98fa edbc d840 fe3e 43bd d232 fea3 4e30
000000e0: 100c 5e33 fd1a 98be 9816 cd3f b3ed 35bf
000000f0: 697b 65bf 49f9 d9be 35f4 8ebe 4762 9bbc
00000100: 1b84 453d 5916 4e3a 4021 013f b4fa edbf
00000110: 2b26 11bf ee62 ed3e b448 043f df55 07be
00000120: 4b51 323c 35eb db3c 35b4 a23b 535e 81bc
00000130: 804f 1abc 7cde 773b 6450 833a cb67 9339
00000140: 246b 6839 df8d 8e3b c9be 6938 02f4 413a
00000150: 7345 2dbf 7ae0 02be 52cb 193e a714 1fbf
00000160: 31b1 29be 6ba3 60be 75d7 8939 16be ef38
00000170: 6ed6 2139 0eb4 1cbc 0ef6 af3c 74a6 82bb
00000180: 80a1 3c3f 87ff 9b3e 3f16 943c 1f6a ebba
00000190: e709 85ba 8fce a03a ad30 083f 7520 2ebf
000001a0: fc96 a63e 8107 8abb cd1e 01bc 7fb4 29bc
000001b0: 4292 17bf e4bb 3b3f ff49 dcbd d4a7 563f
000001c0: 5a57 68be 073c 90be 878f bbbe 2389 cebd
000001d0: ab0f 0bbe 17a8 213b 785e fc3c fe95 683b
000001e0: 4099 c5bd 7f34 afbf 78ae f6be dab6 3bbc
000001f0: 51be ea3c 510b 46ba f6c7 803c cec1 ae3b
00000200: 345d a5bb 66cf 1cbf 1d12 3a3f 7b5e 01be
00000210: e0c5 d5bd b927 04c0 d6c0 9ebe 3263 4636
00000220: 9cfe a135 7e85 68b6 0671 d0bc 6efb c93b
00000230: 20e0 b1ba ef9e d2be 890b 8abf fede 8dbe
00000240: 6bf5 d937 8013 5739 57f3 87b9 811d 293f
00000250: 5b9e b33f 3451 213e 5f98 1039 4b44 bab8
00000260: 9017 05b7 7c5f 4dbe b6ea 53bd 7e50 6bbd
00000270: 1edf a3be 2b26 8abf f72d 0cbf f021 6d3b
00000280: 7a1b 96bb 0c43 c239 8012 28bf 314c 69bf
00000290: 7e97 8cbe b304 c8be 6d37 423e c47e 0bbf
000002a0: b978 1f3f c2c3 b03f 317f 893e 9d0e 4739
000002b0: e2a6 b739 45e7 b1b9 1107 1dbf ef97 303f
000002c0: c523 2bbd 0cff fa39 b09d ca3a 979e e2ba
000002d0: d3f9 1cb7 08af c72f 4b9c 62b4 d625 273a
000002e0: b79a 4337 f75e 48b9 e1ac 84bc b4cb 21bc
000002f0: 2307 3d3b 5053 633f fde0 843f 3040 933e
00000300: 0009 e43a b364 c539 982a 9d3a 7f4b 33bc
00000310: 3151 ba3c f58e b6b8 be95 033b 891f c73b
00000320: b736 fbb8 e8dc 283a 3a36 7c3b d86f 87ba
00000330: e38b 2c38 4716 8c38 51e8 a938 71f3 89be
00000340: 3922 3b3d 7e5b 9ebd af83 5c38 cece 1eb6
00000350: bdfd 9cb7 2eba fc38 26fc 78b7 e2c5 2339
00000360: 0997 69be 7b5f c53e 46fe 8cbd 0fb1 2cbf
00000370: 78a7 76bf 3bdf 8fbe 5d3c 0bbc 966c e13a
00000380: bad6 dcba 4980 00bf b479 ce3e 9b28 153e
00000390: 4a62 25bb b19f e93b 82c2 983b 8fc5 d83c
000003a0: 9cd7 afba d89f 333c 4121 f73d 042b 37be
000003b0: 8aec 86be f663 c53a 8961 ff3b c0cc b03a
000003c0: cb83 f1be 57a6 333d 4bda 013e c4f4 8dbe
000003d0: ce0d 1abf e9af 1bbd 9fac 1b3e f79f 07c0
000003e0: 6f50 edbe 28fe 50bc a8cf 52bb a5ff 9739
000003f0: 4ab1 1ebf ca10 60be 21af 4cbe f02e 813e
0.58889455 -1.6096592 -0.35459697 0.98532516 0.7346251 0.24871616 3.7408648e-10 4.603335e-10
-6.562019e-08 -0.048611086 0.028323455 -0.0015588701 0.7264931 0.2619967 -0.032792307 -0.4145945
-0.1659794 -0.13281155 -0.51154 0.051235683 0.13985194 -0.80510026 0.57655907 0.034300055
-0.2372559 -2.187064 0.13521805 -0.34163815 0.41809687 -0.11666278 -0.37598887 -1.0227274
-0.27004033 7.464619e-05 -3.1626874e-05 -0.0006447458 0.021059487 -0.0012577139 -0.007317057 0.035358343
-0.04416783 -0.0056372634 0.00036067487 7.4941954e-06 -0.0009409647 0.0076337107 0.03150113 0.00010347485
-0.23033339 0.15982954 -0.026140708 -0.4057403 -0.029050156 0.49658847 2.4533284e-08 7.517541e-10
5.1699374e-08 -0.2970809 1.602252 -0.71065825 -0.89641434 -0.42573002 -0.2792069 -0.01896776
0.04822169 0.00078616064 0.5044136 -1.8592134 -0.56698865 0.4636454 0.51673436 -0.13216351
0.01088364 0.026845554 0.00496533 -0.015792048 -0.009418368 0.003782182 0.0010018465 0.00028115357
0.00022165157 0.0043504084 5.572921e-05 0.0007398726 -0.67684096 -0.12780944 0.15018967 -0.6214089
-0.165715 -0.21937339 0.00026291204 0.00011431814 0.00015434038 -0.009564413 0.021479633 -0.003987128
0.7368393 0.3046839 0.018077014 -0.0017960704 -0.0010150046 0.001226859 0.53199273 -0.68018275
0.32537067 -0.0042123203 -0.007880879 -0.010357975 -0.59207547 0.73333573 -0.10756301 0.83849835
-0.22689572 -0.28170797 -0.3663294 -0.100847505 -0.13580196 0.002466684 0.030806765 0.0035489793
-0.09648371 -1.3687896 -0.48179984 -0.011457169 0.028655203 -0.0007554787 0.015720349 0.005333162
-0.005046511 -0.61253965 0.7268389 -0.12633698 -0.10438132 -2.0649245 -0.31006497 2.9562038e-06
1.2069536e-06 -3.4648397e-06 -0.025444519 0.006164006 -0.0013570823 -0.41136882 -1.078477 -0.27709192
2.5982697e-05 0.00020511262 -0.0002593051 0.66060644 1.4032701 0.15753633 0.00013789673 -8.881892e-05
-7.932904e-06 -0.20055956 -0.05173751 -0.05744981 -0.32006162 -1.0792898 -0.54757637 0.0036183558
-0.004580912 0.00037052517 -0.6565323 -0.91131884 -0.2745933 -0.39066085 0.18966456 -0.54490304
0.62293583 1.380974 0.26854852 0.00018983563 0.00035028817 -0.0003393238 -0.6133891 0.6898183
-0.04178216 0.0004787374 0.0015458371 -0.0017289695 -9.356491e-06 3.6322256e-10 -2.1104749e-07 0.00063761824
1.1658928e-05 -0.00019108863 -0.016195716 -0.009875227 0.0028843365 0.88799 1.0381161 0.2875991
0.0017397702 0.00037649795 0.0011990843 -0.010943293 0.022743793 -8.705064e-05 0.0020078267 0.0060767573
-0.00011978804 0.0006441609 0.003848447 -0.0010333015 4.1138275e-05 6.67987e-05 8.10182e-05 -0.26943544
0.045686934 -0.077322945 5.2574727e-05 -2.366421e-06 -1.8714805e-05 0.00012050975 -1.484066e-05 0.00015618608
-0.22811522 0.38549408 -0.06884436 -0.6745767 -0.9634929 -0.281 -0.008498278 0.0017198499
-0.0016848661 -0.5019575 0.40327227 0.14566271 -0.0025235587 0.0071296324 0.004661859 0.02646139
-0.0013415697 0.010963403 0.120668896 -0.17887503 -0.2635234 0.0015059698 0.0077936095 0.0013488755
-0.47170863 0.043859806 0.12680928 -0.27725804 -0.60177314 -0.038009558 0.15202568 -2.1191385
-0.46350428 -0.012755908 -0.003216723 0.00028991434 -0.6198927 -0.21881405 -0.19988681 0.25231123

fcs1.bias f4 [400]
00000000: 88ca f2be 7586 60bf 6cae 6eb5 b244 a2bd
00000010: 54e0 d73e 55a3 033f 6538 f83e 61a6 9dbe
00000020: 47eb d5be 1fdf a03e 759f 8b3e 9669 a2bb
00000030: 4156 22bd 2018 41bd 0a68 e7bb 941b 26bd
00000040: 7801 c6bd bfef 0cbf 68d9 d8b4 03e8 cebe
00000050: f1cb 823f 7fc9 97bd db03 5b3e 2ef5 20be
00000060: 08f7 52bd 6b86 57bd b4f1 b2bb 90e6 e9bb
00000070: 0668 45bf f8e9 713f e95d ffba 3aa3 60bd
00000080: cf23 f03e 8244 85bc 8bb6 8ebf 2b99 9cbd
00000090: 40a0 f33d ea39 03bf 9f06 153f 82d2 9ebd
000000a0: dc77 88be 655a 12bd 5695 33bd c90b 353e
000000b0: 9b22 94be f20d 06b9 85a2 2bbd 68c6 983e
000000c0: 14ea 49bb b95c b7be bc9f 8eba 7c38 f23e
000000d0: 2693 cabe 6d31 d2bc a058 0e3f 39d4 14bf
000000e0: b9ba c6be 54b6 48bb 855c 97bd 09e3 b2bc
000000f0: 08de dbb7 ac9e 87bb cbaa 6abd e672 3ebf
00000100: 664a 24bc 1766 08bd 4731 38bc 7ab7 29bc
00000110: 6389 84ba 782d e23e e93d 32ba 1ecc c0ba
00000120: 22e3 383e 2f15 0b3f 3cae c0bc b567 073f
00000130: 1fd3 44bd 05a3 9dbd e3af 9ebf 47bc a0bc
00000140: cea7 e33e ba8c b93d 089f ddbd cf58 38bd
00000150: 7de0 4a3f 5a1a b03e 4453 edbd 28cc f9bf
00000160: 7d5b 933e 6e20 0dbb ccf3 e0bb f0b8 01bf
00000170: a867 36bd 2f10 8cbd ee11 95bd 3734 4b3e
00000180: 428f 09bf 03ec 4fbe bdd8 11bd 14a4 9dba
00000190: 4fce 88b7 c1d3 d3be c0a5 853e a45a e9be
000001a0: 3e1c 07be 7556 e1bb 9827 fcb1 b648 24bd
000001b0: 5415 8f3e 3b4e 44bd 9aec 2bbc 62d5 2a3f
000001c0: 270c 76bd 9a8b 2fbd 5b52 683f 600c 203f
000001d0: d0b2 e9bb 23ea 1b3f d86f fbbc a8fe 33bd
000001e0: 9ab0 6f3f e75e 6dbf 22ae ec3e 9e13 a13e
000001f0: af33 34bd 3602 adbc 0941 05bd ced4 fabe
00000200: 5506 27bd c0b6 5a3d 4e5e 5e3f 5051 743f
00000210: 4b59 b2b3 350f 78bf 54f4 80bd 1185 39bf
00000220: 329c 20bd 26a4 f6be fbca 2abd 7ab7 2abd
00000230: 70d6 923e de8d de3e 3c00 5ebd 64d1 96bc
00000240: b80f 14bd 578d a0bb 0754 38bd 993c bd3e
00000250: 2f9b 7a3f dfe1 193f 5cfe 39b6 af12 03bd
00000260: 7540 7ebd fc5c 1fba 4aa1 853d 9c8a bcbc
00000270: 2f19 85bd 1be4 8cbe e73a 803e 2144 7d3f
00000280: 4eb6 7dbd 72d1 623d 093d 0c3f fa6c 373e
00000290: be30 063f bf2e 20bf b84f 59bd 04e2 6cbb
000002a0: 530d 0cbf 57a0 1bbf be12 c83e 5e37 b9bf
000002b0: 6cfc 1a3e b008 92bc 520d 72bb 0a20 1c3e
000002c0: a812 8cbd 0314 82bb 8bc7 a5bc f44a 30bd
000002d0: e60e 5fbd be79 143f 695d 90bd cb5d acbc
000002e0: a10c 413f 57f9 12bd 67c8 05bd b85b eabe
000002f0: 196c 353f 8b74 fbbc 5205 fcbe dfa7 52bb
00000300: d908 eab7 6b60 64be e568 8e3d fe80 153f
00000310: 1fbe 71ba 8823 c0be 7c72 25bd 5a9a 3abf
00000320: 6fb7 2e3e 15c6 0abd 55cd e2bb c160 17bf
00000330: 9dec 6abd 1be5 57bd 69b4 b4bd 687b 00bd
00000340: fd4a 3b3f 090b 83bc 03e1 65bf 3995 99bd
00000350: 1730 b2bc e451 e5bc 163e 02bb ba5e bd3e
00000360: 5d1a 5b3e 6610 3ab9 61db 2d3f 9dd4 02ba
00000370: c284 16bf 8819 06bf 8c8c 633e 5e13 8abd
00000380: 94df 4dbc 8722 1f3e 4fe2 b4bc 8771 51be
00000390: 948e 9dbc 16c1 4dba 97cc 63bd 956f f93e
000003a0: b916 ebbc 07dc 21ba 6ace 51bd 89a9 cd3d
000003b0: 6e9b 233f 1211 583f 02fb d0bb 5b8c 9abd
000003c0: aa7f 2e3f f5df 083f c883 f5bc 6366 44bd
000003d0: 140a 3eba d452 5b3e 733f c2ba ae71 c8b4
000003e0: d117 4ebd 4a86 8dbd 89b0 18ba 3c50 f4bd
000003f0: e2a3 143f d7ba 74bf c648 aabc 4250 063c
-0.47420144 -0.87705165 -8.8915726e-07 -0.07923259 0.42163336 0.514211 0.48480526 -0.30791
-0.41781065 0.31420228 0.27270094 -0.0049564345 -0.03963304 -0.047142148 -0.007061963 -0.040553644
-0.09668249 -0.55053324 -4.039132e-07 -0.40411386 1.0218488 -0.07411479 0.2138819 -0.15718529
-0.05150512 -0.052618425 -0.005460942 -0.007138081 -0.7711185 0.94497633 -0.0019482943 -0.054843165
0.4690232 -0.016268019 -1.1149458 -0.07646402 0.118958 -0.51260245 0.5821323 -0.07754995
-0.26653945 -0.03573074 -0.04384359 0.17680277 -0.28932652 -0.00012784431 -0.041903038 0.29838872
-0.0030809687 -0.3581293 -0.0010881345 0.4730872 -0.3956539 -0.025658334 0.5560398 -0.58136326
-0.38814333 -0.0030626254 -0.073906936 -0.021836774 -2.6210226e-05 -0.004138788 -0.057291787 -0.7439407
-0.010027504 -0.033300485 -0.011242217 -0.010358686 -0.0010111745 0.44175315 -0.00067993865 -0.0014709269
0.18055394 0.543292 -0.023520581 0.5289262 -0.048052903 -0.07697109 -1.2397426 -0.019621028
0.44463962 0.090600446 -0.108213484 -0.04500657 0.7924879 0.34395105 -0.11588147 -1.9515429
0.28780738 -0.0021534222 -0.0068650004 -0.5067282 -0.044532448 -0.06839024 -0.072788104 0.19844137
-0.5373422 -0.20304875 -0.03560709 -0.0012027049 -1.6308533e-05 -0.41372493 0.2610302 -0.45576966
-0.13194367 -0.0068767616 -7.3386666e-09 -0.040108405 0.2794596 -0.04792617 -0.010493422 0.66731846
-0.060070183 -0.042857744 0.90750664 0.6251888 -0.007131912 0.6090414 -0.03069298 -0.04394403
0.9362885 -0.92722934 0.46226603 0.3146028 -0.0439946 -0.021119218 -0.032532725 -0.48990482
-0.040777523 0.05339694 0.8686265 0.95436573 -8.305013e-08 -0.96898204 -0.06296602 -0.7246867
-0.03921146 -0.4817211 -0.041697484 -0.041678883 0.28679228 0.4346761 -0.054199442 -0.018410392
-0.036147803 -0.0048996615 -0.04500201 0.36960295 0.9789304 0.60110277 -2.7715205e-06 -0.03200024
-0.06207319 -0.00060792244 0.06524904 -0.023015313 -0.06498944 -0.2751778 0.2504494 0.9893208
-0.061941437 0.055375524 0.5478063 0.17912665 0.52418125 -0.6257133 -0.05305454 -0.0036145458
-0.5470783 -0.60791534 0.390768 -1.4470022 0.15135354 -0.017826408 -0.003693421 0.15246597
-0.06839496 -0.0039696707 -0.020236751 -0.04304023 -0.054457568 0.57998264 -0.070490666 -0.021040818
0.75409895 -0.03588232 -0.03266182 -0.457731 0.7086807 -0.03069522 -0.4922281 -0.0032143516
-2.7899094e-05 -0.22302406 0.06953601 0.5839995 -0.00092217507 -0.37527108 -0.040392384 -0.7289177
0.17062162 -0.033880312 -0.00692145 -0.5913201 -0.05735456 -0.052708726 -0.08823473 -0.03136769
0.731613 -0.015996473 -0.89796466 -0.07499165 -0.021751447 -0.02799315 -0.0019873432 0.36986333
0.21396776 -0.00017744451 0.6791287 -0.00049907883 -0.5879632 -0.5238271 0.22221583 -0.06741975
-0.012565512 0.15540515 -0.022080569 -0.20453463 -0.019233026 -0.00078489014 -0.055615034 0.48717943
-0.028697358 -0.0006174449 -0.051222242 0.10042102 0.6390904 0.8440105 -0.0063775787 -0.07546302
0.6816355 0.5346673 -0.029970065 -0.047949206 -0.00072494266 0.21418315 -0.0014819935 -3.7335616e-07
-0.05031568 -0.06910379 -0.00058246456 -0.11929366 0.58062565 -0.95597595 -0.020786654 0.008197846

fc2.weight f4 [300, 401]
00000000: 5581 6fb3 c5f0 2bb4 abde 8031 0755 a227
00000010: 78ec 82b4 3550 57b6 4f08 f2b6 4691 40a6
00000020: dac2 abb7 ed16 b9b6 2586 8434 f965 be33
00000030: 6bd2 0faf 702b 81b3 f50d ce2a 2400 0080
00000040: b482 4db0 d8b3 3cb6 dec2 21b2 7117 14b8
00000050: cb66 81b8 e2d3 4737 a785 6eb6 fdf2 da85
00000060: 8a9a 8715 4254 8dab b68f ebaf fdf2 4832
00000070: bfb4 2d9c 46ab 34b8 607b 30aa 519e ed37
00000080: 9c35 8db5 ee04 0000 7832 c2a8 d4fc 38ac
00000090: 84f7 aeb6 02b7 51b2 ab77 d0b6 3de9 3133
000000a0: 5264 6533 35f3 1398 2c03 0080 eabc 09b7
000000b0: 5d8f bbb3 689c 90b0 222d 5535 ed3a d034
000000c0: 50e8 b3af cd72 0db6 87ea 072d efb2 71b6
000000d0: a6f2 ee34 eb09 0080 2287 46b6 fcfb 8034
000000e0: f9d8 95b6 d5e0 4b36 bcb1 33ac c61b 0080
000000f0: d170 baaf 15b5 c198 b6a8 47b0 142e a0b5
00000100: 67a4 ad35 c1ee 2333 7be6 0937 4378 01b5
00000110: 7328 6b2b a379 0cb6 4847 30b4 56d0 97b2
00000120: b5a0 38b5 1a6e 5cb6 c600 0000 d8ef b3b5
00000130: cc98 c3b6 98ba 4ea4 4d02 0080 7c2b ba9f
00000140: 7816 d7b6 c587 65b3 62f6 0a35 4523 0000
00000150: 8a8c efb7 1333 b3b6 d8ec c238 4471 2bb6
00000160: f475 60b4 6c09 0000 8bac 4f2e bd9e 1033
00000170: f1f3 e128 c97c f2ac 5b01 2b36 5380 20b7
00000180: fcd0 67af bea9 058d 5d3f 4eae d968 82ac
00000190: 4d60 1931 4037 8834 8cd7 eeb2 9ebe 0333
000001a0: c361 cfa4 97fe 87a9 7d32 1236 cbf0 31b4
000001b0: 6062 6bb6 9ec5 4f92 cc04 0000 371c 90b7
000001c0: 3bec 8eaa 7d9e 6634 12d8 3cb8 e8e6 38b7
000001d0: 2c07 0000 1c4a 33b7 bfdb 5cb7 990f 0000
000001e0: a86e 53b8 7798 60b3 2b56 85b5 3bca 38b6
000001f0: 0566 57ab ef56 c9b8 830b 0000 18f6 23b3
00000200: 0600 0080 c000 e8b4 9272 2ab8 039e 4cb8
00000210: 563f 9c24 eace 89b3 dc03 0000 6f01 0080
00000220: e003 0000 5964 8116 c6af 78ae 778a 64b8
00000230: e8eb a9b4 5a8e 10b7 89ef 06b3 7dfb f5ac
00000240: dcbf 7bae 1818 0000 eb06 0080 1a3d a334
00000250: 1679 87b8 7633 08b7 1c04 0000 6a02 0000
00000260: fddf 29b1 e32f 5c26 834c 9db3 603f 0638
00000270: c507 0a30 1089 44b4 7d9f 59b3 b0c8 77b8
00000280: 8201 0080 90f7 b0b6 31b6 e7b6 ff18 73b4
00000290: d2cd 76b7 b1d5 d3b5 73f1 2b39 2717 0000
000002a0: ff61 bd9a 1735 46a9 f36a 16b6 c16a c4b3
000002b0: a7b2 84b3 5fc9 0431 d400 0080 665a bb33
000002c0: 9fbf 2319 4483 f9ab 177e dbac 9ec3 26ae
000002d0: 0703 22af 567c 70b7 2ac5 5bb3 0410 0080
000002e0: 9a1c cfb7 68f7 26b0 bbdd a3ad 16a7 25b3
000002f0: 77f5 87b7 5e4e 3035 3c2d 58b4 e141 cca8
00000300: c223 a1a9 19de 02b8 293f 69b4 8671 e7b6
00000310: 17f8 39aa 2e42 0bae c4f3 5835 ffbe 7934
00000320: 7357 72b6 7c1e 0000 0d1d c237 1ad6 5db4
00000330: c7f1 3eb1 5695 b631 c101 31b4 282a 76b3
00000340: 0265 b3b7 4f23 9b38 4bf0 1cb3 68fd 70b6
00000350: 2a8c d7b6 110d 0080 43b9 59ae 3cec 2fb4
00000360: 09cb 8ab4 e9ff 80af b47d 5fb7 cb11 2430
00000370: f4a3 b098 ec92 76b6 aaf6 c3b6 be0e 0000
00000380: ce40 d729 9d79 03b5 7c6d 7197 ba41 30a4
00000390: ab31 a9a8 cd1c 57ac 5b00 0080 26c7 09b6
000003a0: 5213 0080 be5b e0af 2e02 0000 cbbc 38b7
000003b0: b602 7bb6 f8a1 8cb8 650c 96b8 1279 27b0
000003c0: 75f2 65b7 1dd7 f6b6 3506 0000 7362 e2a9
000003d0: d804 0000 6a0e 18b6 a000 c734 1468 94b0
000003e0: 07c6 baac 0501 0000 cf1f a9b6 09b6 dd38
000003f0: 64de 03b6 6821 d7b3 a000 0080 9479 5f32
-5.576415e-08 -1.6013207e-07 3.7506047e-09 4.505622e-15 -2.438644e-07 -3.2084183e-06 -7.2131293e-06 -6.6810264e-16
-2.0475523e-05 -5.5160986e-06 2.468452e-07 8.866113e-08 -1.308053e-10 -6.014932e-08 3.6602636e-13 -5e-44
-7.4764306e-10 -2.8118866e-06 -9.415741e-09 -3.530778e-05 -6.170346e-05 1.1910657e-05 -3.554256e-06 -2.0589881e-35
5.4769885e-26 -1.0042039e-12 -4.2848364e-10 1.1696781e-08 -5.7474507e-22 -4.3074855e-05 -1.5674744e-13 2.8326323e-05
-1.0520921e-06 1.768e-42 -2.1560214e-14 -2.628832e-12 -5.2144187e-06 -1.2207012e-08 -6.2128142e-06 4.1423153e-08
5.3409458e-08 -1.9122093e-24 -1.138e-42 -8.209821e-06 -8.733944e-08 -1.0521832e-09 7.941436e-07 3.8785893e-07
-3.2724978e-10 -2.107746e-06 7.725937e-12 -3.6015952e-06 4.4507505e-07 -3.558e-42 -2.9582957e-06 2.40252e-07
-4.465805e-06 3.0380227e-06 -2.5536092e-12 -9.963e-42 -3.3913364e-10 -5.0072177e-24 -7.263553e-10 -1.193434e-06
1.2937352e-06 3.816854e-08 8.219499e-06 -4.823125e-07 8.3544906e-13 -2.0932428e-06 -1.6417209e-07 -1.7673454e-08
-6.87792e-07 -3.2846642e-06 2.77e-43 -1.3406343e-06 -5.8292408e-06 -4.482718e-17 -8.25e-43 -7.8846e-20
-6.410115e-06 -5.34417e-08 5.176754e-07 1.2652e-41 -2.8556464e-05 -5.3405615e-06 9.2947565e-05 -2.5546915e-06
-2.0904537e-07 3.38e-42 4.72196e-11 3.3671984e-08 2.508581e-14 -6.8919076e-12 2.5481775e-06 -9.566621e-06
-2.1083574e-10 -4.118811e-31 -4.6895255e-11 -3.7064627e-12 2.231917e-09 2.5372174e-07 -2.7804866e-08 3.067418e-08
-8.9937555e-17 -6.0393686e-14 2.1785083e-06 -1.657201e-07 -3.507499e-06 -6.5561265e-28 1.721e-42 -1.7179276e-05
-2.5388185e-13 2.1478077e-07 -4.5023924e-05 -1.1021017e-05 2.573e-42 -1.0686486e-05 -1.31641855e-05 5.595e-42
-5.0409377e-05 -5.229273e-08 -9.93435e-07 -2.753585e-06 -7.6524925e-13 -9.6006195e-05 4.13e-42 -3.8175216e-08
-8e-45 -4.3213913e-07 -4.063786e-05 -4.878455e-05 6.776151e-17 -6.417197e-08 1.384e-42 -5.14e-43
1.39e-42 2.0904402e-25 -5.654479e-11 -5.448839e-05 -3.1650347e-07 -8.616213e-06 -3.1417162e-08 -6.9912396e-12
-5.7241198e-11 8.643e-42 -2.482e-42 3.0405573e-07 -6.459856e-05 -8.118213e-06 1.474e-42 8.66e-43
-2.472006e-09 7.639273e-16 -7.3247996e-08 3.2007112e-05 5.021515e-10 -1.8303786e-07 -5.0669303e-08 -5.9076294e-05
-5.41e-43 -5.274029e-06 -6.9055463e-06 -2.2640232e-07 -1.4710664e-05 -1.5782917e-06 0.00016397778 8.305e-42
-7.832689e-23 -4.401088e-14 -2.2413994e-06 -9.14638e-08 -6.179226e-08 1.9322994e-09 -2.97e-43 8.7243095e-08
8.4656e-24 -1.7728948e-12 -6.238353e-12 -3.7917773e-11 -1.473489e-10 -1.4334064e-05 -5.116923e-08 -5.745e-42
-2.4689642e-05 -6.0742034e-10 -1.8629423e-11 -3.856902e-08 -1.6207558e-05 6.567915e-07 -2.0133024e-07 -2.267712e-14
-7.156039e-14 -3.120126e-05 -2.1722794e-07 -6.8975523e-06 -1.6517374e-13 -3.166372e-11 8.0820996e-07 2.3259416e-07
-3.6111712e-06 1.0936e-41 2.314013e-05 -2.0660119e-07 -2.7786073e-09 5.3138747e-09 -1.6485048e-07 -5.731468e-08
-2.1385498e-05 7.397553e-05 -3.6540126e-08 -3.5910289e-06 -6.4238166e-06 -4.687e-42 -4.9504633e-11 -1.6384087e-07
-2.585223e-07 -2.34649e-10 -1.3321103e-05 5.968814e-10 -4.5660484e-24 -3.6742376e-06 -5.8401683e-06 5.289e-42
9.55916e-14 -4.8978274e-07 -7.800949e-25 -3.821959e-17 -1.878431e-14 -3.0569325e-12 -1.28e-43 -2.053051e-06
-6.931e-42 -4.081055e-10 7.82e-43 -1.1011211e-05 -3.7403493e-06 -6.705889e-05 -7.154866e-05 -6.09263e-10
-1.3705915e-05 -7.356414e-06 2.227e-42 -1.00534944e-13 1.738e-42 -2.2658155e-06 3.7067093e-07 -1.0797998e-09
-5.3084234e-12 3.66e-43 -5.0402955e-06 0.00010572008 -1.964997e-06 -1.0017794e-07 -2.24e-43 1.3007952e-08

fc2.bias f4 [300]
00000000: 8075 0cb8 505b d9b5 69c0 a6bc c5bc 3aba
00000010: 196e dabc 6c00 84b7 b5e7 12ba fad0 6ab6
00000020: 4d6d c0b2 c371 69b8 43ac 87ba d575 953d
00000030: bc49 9db7 d0c0 05b8 7b67 87b9 61e8 49b4
00000040: ed67 48b5 093b d0b7 c54c 15bb 16c8 a7bc
00000050: 38d8 13b0 c466 a8b9 242c 52b5 ed33 7d3e
00000060: 55de ffbb 4284 893e a383 b5ba 624c 9fb3
00000070: 4667 a2bb 959a e8b6 246d a1b5 b6cd f0ba
00000080: efe5 14bc aa45 25b6 bf44 b8b9 5ac1 b3bb
00000090: 1f72 c2b5 423c d7bb b45f 72b8 415a 65b8
000000a0: 6c62 2abc 4650 bfb7 686d e5b8 c687 24bc
000000b0: 7e82 6fbb 5edf b7bb e833 f23e dd2b 22b7
000000c0: 353f 12b5 54f0 86b7 da68 be3e 6709 3fbb
000000d0: 4ae9 59b9 9174 7fb9 ea8c 0db6 2745 95b6
000000e0: 0db2 73bb 0061 58b9 c26e a0bc 5a06 c0bc
000000f0: b5cb 64b8 148d d2bc 1ff4 b8b5 e5d3 9fb6
00000100: 91a9 d8b7 1821 73b8 d394 20b8 b00f d9ba
00000110: 0bd7 88b5 ff08 63bb a743 68b7 d6f1 90b9
00000120: d524 a4bb 514c 19b6 a90d a9b7 9324 a1ba
00000130: c5bb a2b3 4a6e 83b8 46ef a5bb d5f5 96b4
00000140: a1c5 b6b9 753e 09b3 63f8 83bb a6c7 eabc
00000150: 6281 c1b8 54ec 40bc 856a c63e c28b 9ab8
00000160: c803 95b9 0ee5 b4bc 85dd 903e 2658 f1bc
00000170: 6cc0 74bc a3c6 e0b9 a4bd 2cbb 8d7e a4b9
00000180: ea04 2db6 8d2e b5bc 6131 e8b8 dd7f 913e
00000190: b1eb cb3e f04a 51b9 f89d afb8 14ed f8b7
000001a0: ff3b 35ba 4b54 c93e c092 29b9 5bc2 8abb
000001b0: 580b 1bb6 8981 f4b9 4eab 36bd 1b08 29b7
000001c0: 873a feb7 cb96 36b8 1bd7 edb4 de14 6fba
000001d0: 7e77 023f 2a01 05b3 252e c3b8 3e0b ac3e
000001e0: 45a5 11bb b2b9 82bc f417 90b9 c553 cfbb
000001f0: 5b53 9bba 9729 b2b3 e154 45b6 c0c8 0abd
00000200: 2fe3 7bbb bfd3 dbb8 268f d9bc 1f00 20ba
00000210: bfd2 75b8 5d28 89bb 1fd6 b7ba 1f39 e6bc
00000220: efa1 4a3e ba3e f03e 3385 afbb 374e 3bbb
00000230: aa01 abb2 7b9d 91bb 9494 edb6 1bce 803e
00000240: b5c2 c33e 1b8a a1bc 1a7d 8fba 3670 03bd
00000250: 627f 63bb fcbc b2b5 cdbc fb3c 14e5 f4b4
00000260: 0aa7 c7b7 a8b4 88bc 7a3e 1bba 2a20 94bb
00000270: 5a48 01b9 e86c 22b8 c0dc ddb6 9ea5 be3e
00000280: 86bb 70bb 2521 103e 33ed a5b3 4286 81b4
00000290: 9564 91b8 a10e 8dbc 63fe e0ba 209e 92b6
000002a0: 8cf0 04ba c97a 7eb9 c3e9 c5b6 b2a9 cbbb
000002b0: 33a6 88ba 2705 c7b7 aa6f 97b6 bdcf adba
000002c0: dc42 6e3e 4fe9 ffb4 481b 35b7 d868 b8b9
000002d0: 55ff b7b8 10de 40b6 d55d 7f3e b695 cd3e
000002e0: 049a cdb7 0db0 0c3f a971 c03e 4af2 eeb7
000002f0: 187e 8cb9 8de2 a0b6 caae 0b3e a4fb e8bb
00000300: 0428 8bb4 f3dc 49bc 2930 e9b9 fd28 e3ba
00000310: 85ea 09bb 90d9 0eb8 8346 1cb8 f1a7 10bb
00000320: d9de 23bc 9116 33bb 608d 95b7 4225 04bb
00000330: 8214 52b8 6149 28bc 85ae 1db7 7da8 43b7
00000340: 42ca c7b7 c656 32bc a8af bdb8 a9d5 aa3d
00000350: 4dcf 0ebb a795 e9b6 effb a0bb 55a3 6fb7
00000360: 57ef c93e c6ab 29bc 2d0c cfb8 ef1e 4ab6
00000370: 1b42 e6bb 6504 8abc c68b 15bb 0347 49b8
00000380: ac52 5dbc 632a f0ba b1fd 13b6 7a9a de3e
00000390: 83a6 c4b2 14bb d53e 5492 47b7 42f2 a0bb
000003a0: 777a 4f3e 8649 a2b4 0dbc 86bb 32e5 d1b9
000003b0: 9efb 58b8 509d 71bb 4a0e 82bc 38a9 cdb3
000003c0: bfca 0db9 ec6b a83e 1ac6 3eb9 b654 e6b6
000003d0: eb3d 633d 30eb c03e 53f3 c3b6 f6b6 50bc
000003e0: 9340 dfb7 061f 9ebb 6aea 8eb3 bbde 4cb9
000003f0: 67ad d4bb 360b 3abc e3e4 d33e c8bd 0bb5
-3.348803e-05 -1.6194335e-06 -0.02035542 -0.0007123466 -0.026663827 -1.5735823e-05 -0.0005603985 -3.4990358e-06
-2.2401446e-08 -5.5657478e-05 -0.0010351021 0.07297865 -1.8750194e-05 -3.188924e-05 -0.00025826306 -1.8804123e-07
-7.465704e-07 -2.4823023e-05 -0.0022781354 -0.02048115 -5.3785554e-10 -0.00032120023 -7.829533e-07 0.2472684
-0.0078084865 0.26858717 -0.0013848435 -7.4179084e-08 -0.004956159 -6.9321345e-06 -1.2027199e-06 -0.0018371854
-0.009088024 -2.4627466e-06 -0.00035146435 -0.005485696 -1.448734e-06 -0.0065684626 -5.7786427e-05 -5.468191e-05
-0.010399442 -2.2806355e-05 -0.000109399494 -0.010042137 -0.0036546285 -0.0056113442 0.47305226 -9.666165e-06
-5.4481217e-07 -1.6085956e-05 0.3718937 -0.0029149891 -0.0002078164 -0.0002436212 -2.109266e-06 -4.4485964e-06
-0.0037184984 -0.000206355 -0.019584063 -0.023440529 -5.4549153e-05 -0.025702037 -1.3780117e-06 -4.763237e-06
-2.5828167e-05 -5.7966536e-05 -3.8285576e-05 -0.0016560461 -1.0195375e-06 -0.0034642813 -1.3844029e-05 -0.00027646002
-0.0050092735 -2.2843199e-06 -2.0152731e-05 -0.0012294225 -7.577868e-08 -6.26711e-05 -0.005063924 -2.8118544e-07
-0.0003486099 -3.1954603e-08 -0.0040274127 -0.028659653 -9.2270566e-05 -0.011775095 0.38753143 -7.369324e-05
-0.00028422312 -0.022081878 0.28294006 -0.029460978 -0.014938455 -0.00042872605 -0.0026358152 -0.00031374805
-2.578187e-06 -0.022116924 -0.000110718196 0.28417864 0.39828256 -0.0001995971 -8.374074e-05 -2.9674302e-05
-0.0006913542 0.39322123 -0.00016171765 -0.0042345948 -2.3103403e-06 -0.00046635818 -0.044596963 -1.0075072e-05
-3.0306413e-05 -4.353262e-05 -4.43012e-07 -0.0009120236 0.5096358 -3.0967534e-08 -9.30692e-05 0.33602327
-0.0022223752 -0.015957687 -0.00027483667 -0.006327125 -0.0011850403 -8.296336e-08 -2.9404694e-06 -0.033882856
-0.0038434973 -0.000104821745 -0.026557516 -0.00061035337 -5.8608824e-05 -0.00418572 -0.0014025605 -0.02810341
0.19788335 0.46922857 -0.0053564548 -0.0028580555 -1.9907777e-08 -0.004443822 -7.080447e-06 0.25157246
0.38234487 -0.019719174 -0.0010947317 -0.032089435 -0.0034713377 -1.3317035e-06 0.030729676 -4.5615218e-07
-2.3800432e-05 -0.016687706 -0.00059220905 -0.004520436 -0.00012329352 -3.8725237e-05 -6.612012e-06 0.3723573
-0.0036732866 0.14075144 -7.7265575e-08 -2.4125808e-07 -6.932874e-05 -0.01721889 -0.0017165657 -4.3695472e-06
-0.00050712447 -0.00024269069 -5.898271e-06 -0.0062152976 -0.0010425508 -2.3725048e-05 -4.51315e-06 -0.0013260763
0.23267692 -4.7667206e-07 -1.0794793e-05 -0.0003517333 -8.773679e-05 -2.8739487e-06 0.24938138 0.40153283
-2.4509623e-05 0.5495613 0.37586716 -2.8484636e-05 -0.00026796828 -4.7947456e-06 0.13640895 -0.007110076
-2.5919883e-07 -0.012320745 -0.00044477105 -0.0017330941 -0.0021044326 -3.405806e-05 -3.7258967e-05 -0.0022072757
-0.0100018615 -0.0027326683 -1.7828017e-05 -0.002016381 -5.0087e-05 -0.010271401 -9.398563e-06 -1.1662135e-05
-2.3816832e-05 -0.010884946 -9.044941e-05 0.08341534 -0.0021791041 -6.961363e-06 -0.0049128453 -1.4283539e-05
0.39440414 -0.010355895 -9.872797e-05 -3.0118351e-06 -0.0070269234 -0.016847799 -0.0022818907 -4.798827e-05
-0.01350848 -0.0018323179 -2.2052375e-06 0.4347723 -2.2893124e-08 0.41744292 -1.1895394e-05 -0.004911692
0.2026156 -3.0228347e-07 -0.004111773 -0.0004003435 -5.173275e-05 -0.0036867447 -0.015875954 -9.576837e-08
-0.00013522337 0.32894838 -0.0001819361 -6.864396e-06 0.05547897 0.37679434 -5.8397795e-06 -0.012738934
-2.6613741e-05 -0.0048254756 -6.65503e-08 -0.0001953793 -0.0064903977 -0.011355212 0.41385564 -5.2057703e-07

fc3.weight f4 [1, 300]
00000000: 65b4 dc3a e5b1 ff3b b42c 213d 769d 29b7
00000010: dbf8 013d bc0d a3b8 c255 9138 b933 3eba
00000020: ba83 f63b 7b3d 3f3b 2c57 a13c 5795 4d40
00000030: 3eb1 a73b b797 87b7 6109 d8bc b1ed bcb5
00000040: 6f6d f3b7 c8af ab3a 8274 f03c 4e51 b83c
00000050: 1b82 28bb 26e8 333d 0f3f b337 eead 5dbe
00000060: 8b7b e9bb 6f3e 87be 1741 ae39 6248 98ba
00000070: 5a89 c9bb 798c fe35 0bc5 2739 60b2 71bc
00000080: e475 d43c ca2c 12bd bb6b 653a 1c86 9239
00000090: 6cb2 3938 d61b 6fbc 6a65 563c edbc 66bc
000000a0: da62 55bc 9289 273c 9e96 a53c 1919 8aba
000000b0: c46d cf3a 93ef e33c d125 43bf 99e2 2fbb
000000c0: a2d0 d0b9 a1b6 4d3c 505a 4dbf 2108 cc3c
000000d0: 025c 03b8 408c eab6 c006 183c 0ac7 c4b3
000000e0: dfa0 213c d147 5e3b b823 8639 ba4e 9ebb
000000f0: d5fb 30b6 194f e83c 4342 973a e778 003b
00000100: 90f7 8439 5cd1 13bb 5a71 4fbc 9cc6 943a
00000110: bc11 053c 994f 2139 bc32 f638 fe1a dd3c
00000120: 650e 1b3d 63aa 22ba 8531 ae3c 7a40 43bc
00000130: 1955 3fbb ad10 8c3b ecd8 7d3a c029 e433
00000140: 80fd ebba 89db fb32 5856 843b 85b0 ea3c
00000150: 8a92 d7bc 94f5 6d3b d653 f5be 2d1e 0e3c
00000160: 1070 86bc 499a 203d 9283 76bf f5e6 76bc
00000170: 36b7 72bc 75da 32bc 7f58 f33c 66a7 c538
00000180: 2ea6 2c3a b9c4 423b 72a4 71bc 714e debf
00000190: 1eb1 0ebf b293 d4bb 1ee7 10bc ac5a a939
000001a0: 58e5 8f3b 8b2f 45bf 0936 8e3b d43d 89b7
000001b0: ea63 0dba 2c32 a9bb e7c8 143d 414e c437
000001c0: 0561 823c e682 e937 2879 3736 6695 f1ba
000001d0: ec4e 64bf 346d 0a38 c88b 413b e1bc 5d40
000001e0: c886 17bb 41cf 7ebb ad69 6937 c641 fdbc
000001f0: 23a8 7cbc 18d1 a43b 24d0 63bb 2935 873c
00000200: 637f aebb ffff abbb 0545 7ebc 8260 7f3c
00000210: b148 54b8 2672 223c 9832 0238 4fd8 99bb
00000220: d0e4 27c0 a253 97bf c53e 9f37 fcc4 8238
00000230: 2751 763a 7077 7f3c 7154 6039 dc99 66be
00000240: 1806 fbbe bd93 66ba 5418 2bbb 4e9a dfbb
00000250: 8a68 ca3b 37a4 ae34 5062 dabf 76ec b334
00000260: a926 e63b 68ed 83bc 32a5 3a39 710c e6b9
00000270: c06b 273c ac2d 063b 92bc 43ba 4eda b140
00000280: 2c80 d2bc 0bab 3bbf b1e6 80b2 a103 2cbc
00000290: dc83 4a3c ce48 5aba 16ad 84bb baa3 f5bc
000002a0: b35f 293d 461f 053c 3fad 87bb 6a8d 37bc
000002b0: febb 3db8 3cc5 ad37 7d3d 9c3b c1f4 acb8
000002c0: c9af 8b40 dbc6 07b7 2ed7 dfba fe31 d0b9
000002d0: d7b1 8c3b fec5 e63b 22b9 6abe 5e64 48bf
000002e0: dae8 c739 f8d2 86bf 3699 e9be 8bb2 5fb7
000002f0: a306 953c 3b89 cc3b 9cf2 5140 0d8a 5fbb
00000300: d965 acb9 d1b1 383c 7d2b 4f37 1490 283c
00000310: dc90 e1bb 141d 303a b61a 633c 9e9c 2bba
00000320: fdd9 ddb7 1456 54b6 672c 963b f5bd fcbb
00000330: 60ce cb35 2d13 cfbb a895 583a 856b a93b
00000340: 4f4d 853c 78e7 eebc ca1a 6d3c 562e 0240
00000350: 09a1 7abc 2fa2 183c f9a2 913b ce27 31b8
00000360: 6df0 fabf f9f1 d7bb 0f23 bcb9 2aef 423c
00000370: 8174 ca3b 1ab8 62bc cb30 8d3c 7f7e e33c
00000380: 100f c4bc 4480 34bd 67fb 48bc 0d4f 29bf
00000390: cadf 1fbb 053a 00c0 7f9d 08bc 5863 5e3b
000003a0: d152 18be 393d a239 0314 30b9 1148 b63a
000003b0: 80af 0d3c bdf5 e2bc ceca 3d3a 5323 d6b9
000003c0: afb1 143c 04f5 b9be 1be2 9bbc e5ea 343a
000003d0: 92de 47bc 6993 eabe dab4 3f3b 8882 473b
000003e0: 5769 823b 41af 38bb d756 80b4 b62a 3eb9
000003f0: fb9c ebbc 0807 f73b eeac 4cbf c973 87b7
0.001683843 0.007803189 0.039349273 -1.0109847e-05 0.031731468 -7.775004e-05 6.9301124e-05 -0.0007255632
0.0075230272 0.0029180932 0.019694887 3.21224 0.0051175645 -1.6163902e-05 -0.02637166 -1.4076269e-06
-2.9018816e-05 0.0013098652 0.02935243 0.022499707 -0.0025712315 0.043922566 2.1367827e-05 -0.2164838
-0.007125323 -0.2641482 0.00033236362 -0.0011618251 -0.006150407 1.8965358e-06 0.00015999765 -0.014752001
0.02593512 -0.035687245 0.000875171 0.0002794721 4.4273605e-05 -0.014594039 0.013085702 -0.014083129
-0.013024056 0.01022567 0.020213421 -0.0010536044 0.0015825559 0.027824199 -0.7622958 -0.0026837944
-0.00039828295 0.012555749 -0.8021593 0.02490622 -3.1318523e-05 -6.9900707e-06 0.009278953 -9.163166e-08
0.009865015 0.0033917318 0.00025585084 -0.0048311623 -2.637263e-06 0.02835803 0.0011540133 0.0019603313
0.0002536145 -0.0022555208 -0.012661302 0.0011350694 0.008121904 0.00015383809 0.00011739644 0.02699041
0.037855525 -0.0006205199 0.021263847 -0.011917228 -0.002919501 0.004274449 0.0009683508 1.06246716e-07
-0.0018004626 2.9320079e-08 0.0040386133 0.028648624 -0.026314992 0.0036309706 -0.47915524 0.008674187
-0.016410857 0.039209638 -0.9629451 -0.015069713 -0.014814189 -0.010916342 0.029705284 9.4248724e-05
0.0006586042 0.0029719307 -0.0147486795 -1.7367688 -0.5573901 -0.006487333 -0.008844165 0.00032301748
0.0043913536 -0.7702567 0.0043399376 -1.6360464e-05 -0.00053936115 -0.0051634517 0.036324408 2.340146e-05
0.015915403 2.7836719e-05 2.7339647e-06 -0.0018431365 -0.89182925 3.3003467e-05 0.002953278 3.4646533
-0.0023121107 -0.0038880857 1.3912487e-05 -0.030915152 -0.015420946 0.0050298087 -0.0034761513 0.01650484
-0.0053252443 -0.005249023 -0.015519385 0.015586974 -5.0612438e-05 0.00991491 3.1041534e-05 -0.0046949754
-2.6233406 -1.1822398 1.8983506e-05 6.235574e-05 0.0009396248 0.015592441 0.00021393762 -0.2251963
-0.49028087 -0.00087958184 -0.002610703 -0.0068238145 0.006177013 3.2529508e-07 -1.7061253 3.3513396e-07
0.0070236516 -0.016104415 0.00017799882 -0.00043878288 0.010218561 0.0020474 -0.0007466759 5.5578985
-0.025695883 -0.73307866 -1.5006067e-08 -0.010498912 0.012360539 -0.0008326889 -0.0040489538 -0.029985297
0.04135103 0.008125132 -0.0041405256 -0.011203149 -4.5236193e-05 2.0715052e-05 0.004768072 -8.247188e-05
4.365208 -8.092927e-06 -0.0017077678 -0.000397101 0.004293661 0.0070426455 -0.22922185 -0.7827815
0.00038129726 -1.0533133 -0.45624703 -1.3333406e-05 0.018191641 0.006241945 3.2804327 -0.0034109384
-0.0003288228 0.0112728635 1.2348287e-05 0.010288257 -0.0068837237 0.00067182 0.013861349 -0.000654647
-2.6446762e-05 -3.1640566e-06 0.00458293 -0.0077130743 1.5184742e-06 -0.0063194246 0.00082620466 0.005170288
0.016272215 -0.029163107 0.014471719 2.0340781 -0.015297183 0.009316011 0.0044444767 -4.223716e-05
-1.9604622 -0.0065901247 -0.00035884275 0.0118978415 0.006178439 -0.013837839 0.01723518 0.027770279
-0.023932964 -0.044067636 -0.01226697 -0.66136247 -0.0024394863 -2.0035412 -0.008338331 0.0033933725
-0.14875342 0.00030944662 -0.00016792123 0.0013906976 0.0086477995 -0.027705068 0.0007239998 -0.0004084358
0.009075566 -0.36319745 -0.019028714 0.0006901457 -0.012199061 -0.4581559 0.0029252083 0.0030442793
0.0039798426 -0.0028180631 -2.3905042e-07 -0.00018135723 -0.028761378 0.00753868 -0.7995137 -1.614717e-05
